model0.pt (torch, 348819 bytes, 11 tensors)

distance_forces.atom_embedding.0.weight f4 [128, 24]
000000 d2 81 56 be ec 0e 2c 3e 62 8a 19 be 86 df 48 3e
       -0.2094796 0.16802567 -0.14994195 0.19616517
000010 e6 22 0b bd 54 d0 87 bd cf e8 07 bd ac 97 26 be
       -0.03396883 -0.06631532 -0.033181008 -0.16268796
000020 24 08 57 3d db 4a ff 3d 25 96 e5 bc f7 b7 36 3e
       0.052497998 0.124654494 -0.028025696 0.17843615
000030 6e 10 cf 3d cc 4c 6a ba 6a 80 ff bd 54 78 56 3e
       0.101105556 -0.0008937835 -0.12475665 0.20944339
000040 45 31 80 bd 18 35 1e bc 1d a9 c0 3c ac fd 38 be
       -0.062593974 -0.009656213 0.02351814 -0.18065518
000050 55 74 5d ba 5f 61 44 bd 2b 90 b2 bd 47 b8 26 3e
       -0.0008447816 -0.047944423 -0.08718904 0.16281234
000060 08 35 1d 3e 48 e3 76 bd f0 2c 24 3e 34 6a a0 be
       0.15352261 -0.060275346 0.16032767 -0.31331027
000070 f4 db f9 bd d0 d5 01 be 34 ce 2a 3e 5e 73 92 3d
       -0.12200156 -0.12679219 0.16680223 0.07150911
000080 2c 4a e5 3d be e3 2e 3e 43 c8 3d be 67 ae 25 3d
       0.11195788 0.17079064 -0.18533425 0.040449526
000090 34 d5 49 bd 23 4d dc bd 29 27 32 be 3a 83 2a bd
       -0.049275592 -0.107569 -0.17397751 -0.041629054
0000a0 e2 96 35 3e 3d a3 be 3c b7 79 6a bd f4 33 42 be
       0.17733338 0.023271197 -0.057244983 -0.18965131
0000b0 86 71 bf bd 5a f1 29 3e e3 52 25 bd a1 ba 11 3e
       -0.09347825 0.16595975 -0.04036225 0.1423135
0000c0 15 26 71 be 8a 71 68 3e ad 54 c1 bb d1 af 4d be
       -0.23549683 0.22699562 -0.0058999867 -0.200866
0000d0 02 d8 0f be d5 eb 39 be bf f3 1a be 6c db 27 be
       -0.14047244 -0.18156369 -0.15132044 -0.16392297
0000e0 31 00 81 bb 21 f9 e4 3d d4 69 c8 3d e3 29 e3 bd
       -0.0039367904 0.1118033 0.0978581 -0.11091974
0000f0 d7 8f 3c 3e 17 49 0b 3e dd 51 3e bd 1f 43 2f bd
       0.18414246 0.136021 -0.04646479 -0.04278862
000100 9f fe b0 bd 79 45 c7 bd 61 e9 1e 3e 9f 84 62 3d
       -0.08642315 -0.09730048 0.15518714 0.05530226
000110 45 02 05 3e e3 98 d4 3c 5b 31 f8 bd ac 62 86 3d
       0.12989147 0.025951808 -0.12118789 0.06561789
000120 0b 74 67 bd f5 3e e9 3c bf 7d 82 3e 7f 4e 3a be
       -0.05650715 0.028472403 0.25486562 -0.18194006
000130 de 85 d9 3d 0c 1f 34 3d fe 8a 45 3d 84 6c 2f 3e
       0.10621236 0.04397492 0.048228256 0.17131239
000140 82 4f d9 3d 56 31 a3 bd 90 19 12 be cb c8 8d bd
       0.10610868 -0.079683945 -0.14267564 -0.06923064
000150 e1 d3 3d 3e 50 3c d0 bd 3d d7 00 3d 20 60 42 be
       0.18537857 -0.10167754 0.031455267 -0.18981981
000160 0d ee 44 be fe fc 13 bb d8 48 f6 bd ca 7c 10 3e
       -0.19231434 -0.0022581215 -0.120256126 0.14110103
000170 70 45 4d 3d 8b ba 0e 3d bf fe cf 3b 79 7e dd bd
       0.05011505 0.03484587 0.006347507 -0.10815138
000180 91 a1 12 3d 54 96 10 3d 1b 35 1e be b3 88 93 3e
       0.035798613 0.035299614 -0.15449946 0.2881523
000190 ed b8 79 bc 05 ca 48 bd 72 b5 0b 3e 79 2a 12 3e
       -0.015241844 -0.049020786 0.13643435 0.14274015
0001a0 9d 61 09 be 66 6f 53 bd 4c 56 0b 3e 67 c0 0e 3e
       -0.13416143 -0.05161991 0.13607138 0.13940583
0001b0 7f 23 0d be 2c 2a 94 3d 89 b7 00 3e 55 ee 98 3d
       -0.13783072 0.07234606 0.12570013 0.07467333
0001c0 a3 34 d8 3d 4d 31 4d bd 3d d8 dd bd 82 f2 26 be
       0.10556915 -0.050095845 -0.1083226 -0.16303447
0001d0 0d ec 49 3d 78 48 1e be 9f 04 45 3e 0c f7 95 3b
       0.04929738 -0.15457332 0.19240044 0.0045765694
0001e0 28 9e e3 3d 07 6e 0f be 63 f6 db bd d8 17 a8 3d
       0.1111415 -0.14006816 -0.10740354 0.08207673
0001f0 ea d6 07 be f3 5c da 3d 87 e2 c3 3d 90 f8 23 3e
       -0.13265577 0.1066226 0.09564691 0.16012788
000200 3d df 86 3d 49 9b 1d be 5f ce 9c 3c bf 43 84 3d
       0.06585548 -0.15391268 0.019141374 0.06458234
000210 50 20 fa 3b 08 cf 1c 3e 60 4d c8 bc d7 a1 4a bd
       0.0076332465 0.15313351 -0.024450958 -0.04947075
000220 5b 08 2d be 92 69 68 bd f1 bb 72 bc 1a ff e3 3d
       -0.16897719 -0.056741305 -0.014815317 0.11132641
000230 e5 cc e3 3d 26 f9 b4 bd 83 bc 2c be 60 bd 0d be
       0.11123065 -0.08836584 -0.16868787 -0.13841772
000240 fd 94 76 3d 73 1f f9 bd 5a 14 38 be 3e ae 2f 3e
       0.06020068 -0.121642016 -0.17976514 0.17156312
000250 20 e3 fe 3d 80 1c 37 bd 63 97 ef 3d 5d 36 4d be
       0.124456644 -0.044704914 0.116987966 -0.20040269
000260 55 98 29 be 37 ff 96 3d 05 bf 58 bd a7 78 80 bd
       -0.16562016 0.07372897 -0.052916545 -0.062730126
000270 80 df 68 be 70 4b a0 3d a2 0b 22 3d 09 b1 29 bd
       -0.22741508 0.078268886 0.039561875 -0.0414286
000280 b8 bc 5f bd 35 64 92 bd ee 2d 10 be 71 77 04 3e
       -0.054623336 -0.07148019 -0.14080021 0.12936188
000290 82 53 f8 3d 38 f3 b4 3d 36 bf da 3c e3 df 31 be
       0.12125303 0.08835453 0.026702505 -0.17370562
0002a0 e5 59 f4 bd 27 f0 3f 3e b0 66 c9 bd e0 d3 7a 3e
       -0.119312085 0.18743955 -0.09834039 0.24494886
0002b0 33 0e 28 3e 4c f7 f0 3c c9 5a 80 bd 28 8c d7 bd
       0.16411667 0.029414795 -0.06267316 -0.105247796
0002c0 33 4a fb bd 8f 59 3b 3e 57 7c a8 3c b9 1f eb bc
       -0.12270012 0.18295883 0.020567102 -0.02870165
0002d0 a7 d0 b7 3d 37 18 2e be 2b ac 9a 3d b2 d4 8e bd
       0.08975344 -0.17001425 0.0755237 -0.06974162
0002e0 c4 5a 8e bd 02 41 24 3e f6 6c 2b be 6e e2 94 3d
       -0.06950906 0.16040424 -0.16740784 0.072697505
0002f0 4b b6 35 bd a0 22 08 be 99 4f 19 3e 81 d3 bf bd
       -0.0443633 -0.13294458 0.1497177 -0.09366513
000300 6d 6a 1f 3e 9f 12 5d be 0b 7b 9f bd 17 2c 03 be
       0.15567942 -0.21589135 -0.077871405 -0.12809788
000310 db 23 f7 bd 00 b5 6d bd fa 51 47 bd ee 0a 3c be
       -0.12067386 -0.058033943 -0.048662163 -0.18363544
000320 27 fc 0d be 2c 4c 2b be c0 52 1d be b6 26 2b 3e
       -0.1386572 -0.16728276 -0.15363598 0.16713986
000330 72 c9 2c bd 15 76 3e be 49 b4 23 3d 5b 98 fd bd
       -0.0421843 -0.18599732 0.039966855 -0.12382575
000340 43 b0 16 3e 0c 8f 8e 3d 06 8a 01 be 3e 28 ad 3d
       0.14715676 0.06960878 -0.12650308 0.08454941
000350 4d 52 11 3d 13 55 e9 3d e5 eb 76 bc 24 56 27 bd
       0.03547888 0.1139318 -0.01507089 -0.040853634
000360 cb b2 f3 3d 7c f6 26 3d 96 f4 fb 3d 60 a0 90 be
       0.118993364 0.04076241 0.123025104 -0.28247356
000370 a2 f2 22 3e 4b 5e b0 bd 0d 9f d3 3d ef 9d 3f be
       0.1591287 -0.08611735 0.10333071 -0.1871259
000380 93 df c7 3d 32 8f 65 bc e5 77 3e 3e f2 67 37 bc
       0.0975944 -0.014011191 0.18600424 -0.011194216
000390 1a 0d 13 be 6b a0 36 3e f6 8b eb 3d 8a e3 09 3e
       -0.14360467 0.17834632 0.11501305 0.13465706
0003a0 37 56 92 3d 04 da 93 3d 78 d2 8e bd 22 91 99 3d
       0.071453504 0.072193176 -0.069737375 0.07498385
0003b0 09 ad 02 3e bc 66 3c be 0f 6c 52 3d 13 b6 04 3e
       0.1276132 -0.18398565 0.051372584 0.12960081
0003c0 ad 7a ea bd f5 20 bc 3d 1e 7a e3 3b 70 9b 97 3e
       -0.1144918 0.091859736 0.0069420477 0.29610777
0003d0 66 db 64 be e9 99 07 3e 25 ff 19 3d 1a 7c 31 be
       -0.22349319 0.13242306 0.03759684 -0.17332497
0003e0 43 2e d9 b9 df e2 15 3e ca 66 d3 bd 33 a3 c6 3b
       -0.00041423933 0.14637326 -0.1032234 0.0060619353
0003f0 38 df 0e be 48 f3 16 3d 4a 80 02 be 10 32 02 3d
       -0.13952339 0.036853105 -0.12744251 0.031786025

distance_forces.atom_embedding.0.bias f4 [128]
000000 c4 89 3f be cd 27 2a be 4b 7f 90 3b 0a 91 fc 3d
       -0.18704897 -0.16616745 0.0044097058 0.123323515
000010 1f 7f 61 3d 7e ee ba 3c c8 3b 24 3e 3a e1 1b be
       0.055052873 0.0228188 0.1603843 -0.15222636
000020 f6 9e f0 3d e2 80 7d bd 9c a4 c0 3d df d4 3d 3d
       0.117490694 -0.06189049 0.09406397 0.046345588
000030 5b ed 77 3d bd a9 38 3e 85 0a 8c bd bf ce 11 3e
       0.060529094 0.180335 -0.06837944 0.14239024
000040 a9 f3 fd 3d ea c3 e7 3d 2e b4 68 bc cf b1 21 be
       0.1239999 0.113166645 -0.014203114 -0.15790485
000050 4a bb 27 3d b5 e1 96 bd 63 be 11 be 57 f8 a2 bd
       0.040950097 -0.07367269 -0.14232783 -0.07957523
000060 16 2b aa 3d e2 a3 fc 3d 13 a3 29 bd aa 57 8d 3c
       0.08308999 0.12335946 -0.041415285 0.017253716
000070 59 80 fc bd bf 18 41 3d ed ef 14 be c3 50 b1 3c
       -0.12329168 0.04714274 -0.1454465 0.021644956
000080 97 ac 23 3e a4 88 1b bd d0 d5 c4 3c 50 ed ec 3d
       0.15983807 -0.037972108 0.024027735 0.11568701
000090 e0 cc cb 3d 42 73 e6 bd 15 ae e5 3c 9d 36 28 bd
       0.09951186 -0.112524524 0.02803711 -0.04106771
0000a0 82 8f 05 3d e2 2f a0 bd ed 5b b6 bc 54 8a 8d bd
       0.032607563 -0.07821633 -0.02226063 -0.069111496
0000b0 9d 6e 0f bc 27 c3 0e be 1d 0e 4f be 6b ed 72 3d
       -0.0087544 -0.13941632 -0.20220228 0.05930845
0000c0 31 c2 f0 3d b0 39 07 3e 0f 96 01 3e 49 41 19 be
       0.11755789 0.132056 0.12654899 -0.1496631
0000d0 3d bc de 3b 1a 43 a9 bc a7 5e 0c bd 72 fb 1d be
       0.006797342 -0.02066188 -0.034269955 -0.1542795
0000e0 b0 e5 da 3d bf ab 2a be d4 60 16 bd 52 e0 5d bc
       0.10688341 -0.16667078 -0.036713436 -0.013542252
0000f0 79 92 b0 bd 7b 09 90 bd 5e 5c 07 be 31 93 e8 bc
       -0.086216874 -0.07033058 -0.13218829 -0.028390499
000100 a0 1d 81 3d d9 49 4c bd e5 30 33 3d aa f0 46 3c
       0.06304479 -0.049875114 0.0437478 0.01214234
000110 e3 d6 fd 3d 68 09 07 be 90 b4 b6 bd 3c f3 94 bc
       0.12394502 -0.13187182 -0.08921158 -0.01818239
000120 b8 b9 17 3e 04 df 15 be 6f 6a 8f 3d 06 a9 c9 3d
       0.1481694 -0.14635855 0.070027225 0.09846692
000130 22 ff 4d be 44 0a 28 be 07 9f 2e 3e cb a6 fe 3d
       -0.20116857 -0.16410166 0.17052852 0.12434157
000140 f5 0b 0e 3e f0 5b 90 bd b9 7b 15 3d 8b c1 01 bd
       0.13871749 -0.07048786 0.036494944 -0.031678718
000150 4e b4 d5 3d 1d dc d4 3d d9 3b 23 be 0f 7b df 3d
       0.10434781 0.10393546 -0.15940799 0.109121434
000160 3c 91 11 3e 61 02 73 3c a0 ff 10 be 3c ee f4 bd
       0.14215559 0.01483211 -0.14160013 -0.11959502
000170 7b cf 20 3e 66 a8 e5 bc 35 d0 d2 bd 45 66 44 3e
       0.15704148 -0.0280344 -0.102936186 0.19179638
000180 87 30 91 3d 97 59 10 3e 92 28 f5 bc ca 4b 26 bd
       0.07089334 0.14096676 -0.029926572 -0.04059962
000190 9c c4 8f 3c ca 91 02 3e 57 4d 09 be eb 6f 1d be
       0.017549805 0.12750927 -0.13408409 -0.15374725
0001a0 45 f0 0f be b1 a0 1a 3e 89 dd 41 bd 6a d0 53 bd
       -0.140565 0.15100361 -0.047330413 -0.05171243
0001b0 87 ba 8e 3d 0e e5 d8 3d e4 64 a4 3d 80 28 10 3e
       0.06969171 0.10590564 0.08027056 0.1407795
0001c0 a5 36 79 bd 61 2b dd bd 35 9f d3 bd 1b f7 f0 bd
       -0.06084313 -0.107992895 -0.10333101 -0.11765882
0001d0 d8 0a 0b bd 9f 89 06 3e c7 b3 0a 3d 89 81 82 bd
       -0.03394589 0.13138436 0.033862855 -0.06372363
0001e0 fc a4 93 3d 45 94 92 bd a7 15 42 3e fd 2c 4d 3d
       0.07209203 -0.071571864 0.18953572 0.050091732
0001f0 f1 c8 c2 3c 72 0e 28 be f6 ec 00 bd 8d 65 b6 bd
       0.023777457 -0.1641176 -0.031475984 -0.08906088

distance_forces.atom_embedding.2.weight f4 [128, 128]
000000 05 f2 12 3b 1b e3 4d bc f2 30 44 bd bc 78 90 bd
       0.0022422087 -0.012566353 -0.04789824 -0.07054278
000010 70 4d 6b 3d 65 71 c1 3c b7 65 7d 3b 93 21 fd 3d
       0.057446897 0.023613641 0.0038665363 0.123599194
000020 8d cc 3a 3d 68 ec d2 bd 0d ae 93 bc 00 45 97 3d
       0.04560523 -0.10298997 -0.01802733 0.073862076
000030 1b 46 f6 bc f0 1d 94 bd 68 13 cd bd 9c 9e 31 bc
       -0.030062726 -0.072322726 -0.10013467 -0.010841038
000040 b1 8d 17 3c 31 0b 76 bd 51 42 8d bc af 63 df 3d
       0.00925009 -0.060069267 -0.017243536 0.10907685
000050 02 b4 54 3d 73 59 73 3b 8c b9 5d 3c 55 4e 99 bd
       0.05192948 0.0037132173 0.013533007 -0.07485644
000060 44 bc 06 3e 3c e0 5d 3b 5b c0 b5 bd 6c f0 e4 3d
       0.13157755 0.0033855578 -0.088745795 0.11178669
000070 d8 7d d7 bd c5 ff 77 3d df 1d a6 bd ab 5e 2b bd
       -0.1052205 0.060546655 -0.08111166 -0.04183833
000080 5c 4e b1 bd 51 09 b3 3d 87 65 4e bd 48 3d 38 bd
       -0.08657524 0.08742011 -0.050389793 -0.044980317
000090 a2 4f 71 bb 03 a0 ad bd 03 90 97 3d 95 5a 0a 3c
       -0.0036821146 -0.084777854 0.07400515 0.008444448
0000a0 47 5d 00 3d 31 b0 a3 3d f7 1b e9 bc 0a 0f b9 3d
       0.031338956 0.0799259 -0.028455717 0.090360716
0000b0 04 88 d7 bc ac 8b a9 3d 56 a5 a4 3c 6d c1 80 bc
       -0.026309974 0.082785934 0.02009837 -0.015717233
0000c0 14 fc b9 3d b6 04 7b bc c0 a6 b3 bd 54 a9 14 3d
       0.09081283 -0.015320947 -0.087720394 0.036294296
0000d0 05 0b e9 3c 2f 0d 7f 3d 78 c0 4b bd ac c7 4b bd
       0.028447637 0.062268432 -0.0497441 -0.04975097
0000e0 89 e3 24 3d 3a 93 e6 bc 4a c0 b5 bd b3 73 f5 bb
       0.040256057 -0.028146375 -0.08874567 -0.007490599
0000f0 6b c8 78 3d 11 6a 31 3d e0 04 9a 3d 01 fc 24 bd
       0.06073801 0.043314043 0.07520461 -0.040279392
000100 0d f6 82 bd a3 ae 89 bc c5 93 95 bd 27 83 ab 3d
       -0.06394587 -0.016806906 -0.073035754 0.08374625
000110 73 4c 0b 3d a0 61 33 bd 36 a5 04 3d a9 de bf bd
       0.034008455 -0.043794274 0.03238412 -0.09368641
000120 b5 32 c5 bd 76 86 2e 3c 0b 59 13 bd cc 12 d9 3b
       -0.09628812 0.010652175 -0.03597359 0.006624555
000130 8f d1 a0 3d 30 08 d5 3c 81 b0 c3 bb e1 0c f8 3d
       0.0785247 0.02600488 -0.0059719686 0.121118315
000140 50 ae 40 bd 8c be 10 bd a2 58 73 bd b5 70 9e bd
       -0.047041237 -0.03533797 -0.0594107 -0.07736341
000150 0a d8 d7 bb 5e 5b 5b bd 3e 33 0f 3d 36 74 ff 3c
       -0.006587033 -0.05355393 0.034960978 0.031183343
000160 a9 9c 4a 3d ac 37 9c bd 6e 70 ae bd 4c 87 06 bc
       0.04946581 -0.07627806 -0.08517538 -0.008210968
000170 a2 71 aa 3c 33 c0 b6 bc 65 4b cd bb b9 ba db 3d
       0.020806137 -0.022308445 -0.0062650912 0.10728974
000180 52 f3 93 3c 49 c6 5b 3d 8d 23 e8 bd cc 4c 1e bd
       0.01806036 0.053655896 -0.11334906 -0.038647458
000190 1c 8c 60 3d 72 3f ef 3b 27 9a 39 3c 63 36 16 3d
       0.05482112 0.0073012644 0.011328257 0.03667296
0001a0 a8 39 f4 bd 85 63 ec 3c cd 68 e7 3d 92 ab 25 bd
       -0.119250596 0.028856048 0.11299286 -0.040446825
0001b0 f7 d2 2f 3c f5 fc a2 3c b8 07 e9 3d 1f 27 3a bd
       0.01073145 0.01989601 0.11378425 -0.045447465
0001c0 ca 5d 0c bb 7f fd 6d bd b3 66 83 bd eb fb 85 bc
       -0.0021418207 -0.05810308 -0.06416073 -0.016355475
0001d0 2c b6 87 3d 83 a0 10 3d 80 06 76 3c 28 b5 a6 3c
       0.066265434 0.035309326 0.015016198 0.020350054
0001e0 06 23 3f 3c c3 cd 4e bd f1 7e 86 3d 81 c9 a8 bd
       0.011666065 -0.0504892 0.06567181 -0.08241559
0001f0 23 33 83 3c 1d f0 9a bd 9b 8b d3 3c d6 1b 8b bd
       0.016015595 -0.07565329 0.025823405 -0.06792419
000200 7a 36 07 bd 3a 1b f2 bb 95 25 58 bc e8 d7 e4 3b
       -0.033010937 -0.0073884996 -0.013192554 0.006983746
000210 e8 52 d0 3c e6 12 18 bd 0c e8 bf bd 2a 18 3a bd
       0.025430158 -0.037127398 -0.09370431 -0.0454332
000220 c6 c5 a3 bc 9d e4 86 3b 08 59 48 3d 5c 24 1e bd
       -0.019991767 0.0041166083 0.04891303 -0.038608894
000230 46 37 c1 3b 89 a0 5b bd 70 fc 86 bc 74 8c 42 3d
       0.0058964817 -0.053619895 -0.016477793 0.047497228
000240 76 a1 ae bc e2 e6 84 bd 7c ce a4 bd 5b 88 ce bd
       -0.021317225 -0.0648935 -0.08047196 -0.100846015
000250 bd 98 bd 3c 41 99 1e bd 12 3f 5b bd eb 88 71 ba
       0.02314412 -0.038720373 -0.053526945 -0.0009213823
000260 de 87 a2 bd 2b 2a 26 bd 13 7c 66 3d ed b7 ae bc
       -0.07936071 -0.04056756 0.05627067 -0.021327937
000270 9d 65 ad 3b f5 c1 6b bd 39 c6 d9 3c 9a 32 9a bd
       0.0052916543 -0.05755802 0.026583778 -0.07529183
000280 a2 83 1e 3d d7 a4 ad bd c2 f8 1f 3c 77 ef e5 3c
       0.038699754 -0.08478706 0.009763898 0.028068287
000290 a1 23 58 3d 60 d1 b9 3d 87 f8 a7 bd 6d 82 8e bb
       0.052768353 0.09073138 -0.082017 -0.004349044
0002a0 a8 14 d7 3c 07 ac e9 b9 68 4f ec bb 09 d7 c7 bd
       0.026254967 -0.00044569394 -0.0072116144 -0.097578116
0002b0 e3 c1 9f bd 6f 5c 85 bb f8 1a ae 3d d1 26 bd 3d
       -0.07800653 -0.004069857 0.08501238 0.09235919
0002c0 50 64 89 3b dd 03 b1 bc 06 4e a3 bd 36 61 8e bc
       0.0041928664 -0.021608287 -0.07973866 -0.017380338
0002d0 9f 7b 94 3d 5b 07 8a bd af 5c b9 3c 4c c4 a3 3d
       0.07250141 -0.06739684 0.022627203 0.07996425
0002e0 59 6e 73 bd fa 96 7d bc 12 02 d3 3d bc f9 11 3e
       -0.059431408 -0.01547789 0.10303129 0.14255422
0002f0 85 3e bb 3d c4 4d 1e 3d 5c 8a 3e 3d 87 0f 5a ba
       0.09142784 0.03864838 0.04651867 -0.0008318354
000300 45 08 8f 3c e3 27 cc 3b 05 eb 57 3d bc 97 40 bd
       0.017459998 0.006230341 0.052714366 -0.047019705
000310 50 4c 5d bd f7 47 6d 3d 2f 1d 16 bd e1 49 da 3c
       -0.054027855 0.05792996 -0.036648925 0.026646556
000320 8f 16 c9 3d 4b 83 e7 3c 8e 45 59 bd a7 c1 c4 bc
       0.09818756 0.028260848 -0.05304485 -0.024018122
000330 17 d7 66 3d be 9c 92 bd 78 79 68 3d 4e 58 e3 bd
       0.05635747 -0.071588024 0.056756467 -0.11100827
000340 99 c2 ab 3b 8a 75 37 bb 98 58 93 bc 09 d6 24 3d
       0.0052417037 -0.0027993643 -0.01798658 0.040243182
000350 30 ec 78 bc a8 c1 55 3d 00 7b 87 3d ba 8a b3 3a
       -0.01519303 0.052186638 0.06615257 0.001369796
000360 21 83 a2 3d 41 72 89 3d 22 3a 97 bd 84 1f ed 3c
       0.07935167 0.06711245 -0.07384135 0.028945692
000370 6c f7 24 3c 31 67 99 bd 0c 0c 12 bd 08 d3 63 bd
       0.010068756 -0.07490385 -0.03565602 -0.055621177
000380 ab cd bf bd b4 41 44 bd 04 30 f3 bc 7d 16 13 3d
       -0.093654 -0.047914222 -0.029685982 0.03591012
000390 de 64 b7 bc 88 e9 c5 3c 2b 5f 0f bc 13 80 a6 bc
       -0.022386964 0.024159208 -0.008750717 -0.020324742
0003a0 5e 04 0c bd c5 8f 2d 3d 96 dd 16 3d 7c c1 6a ba
       -0.034183852 0.042373437 0.036832415 -0.0008955223
0003b0 18 0b 9b 3c 29 f9 4d bd 41 94 0e 3d 99 69 16 3c
       0.018926188 -0.050286446 0.034809355 0.00918045
0003c0 17 df ca 3c 38 1c c4 3c 57 28 e5 3d e2 5b bb bc
       0.02476458 0.023939237 0.11189335 -0.022870962
0003d0 51 fc 6c 3d 78 28 07 3d 20 6e 36 bc d3 01 5e 3d
       0.057857815 0.03299758 -0.011134654 0.05420096
0003e0 ab 3b 98 bc b4 2d a8 3d af ab 5b 3d c8 ba 9d 3d
       -0.01858314 0.08211842 0.053630527 0.07701641
0003f0 bd 5a 84 bd df a2 cd 3b ec fe 2c bc da 9b 2c bd
       -0.064626195 0.0062755193 -0.010558825 -0.04214082

distance_forces.atom_embedding.2.bias f4 [128]
000000 4f 89 3b 3c c4 ca e9 3c c6 5c 57 bd e3 98 49 bd
       0.011446311 0.028539069 -0.05257871 -0.04921807
000010 d5 ec 1f bd 57 f1 27 3d 63 51 4b 3d 2b 3a 91 3d
       -0.03904422 0.041001644 0.049638163 0.07091173
000020 9d 7f 72 3d eb 4e 37 bd 12 e1 c1 3c 4d 8b 55 3d
       0.059203733 -0.044752996 0.023666892 0.0521348
000030 c8 71 ca 3c e1 be 2c 3d dc 13 71 bd 99 0d 4f bd
       0.024712458 0.042174224 -0.05885683 -0.050550077
000040 5b 97 7d bc 1f 54 d8 bc 19 53 71 bd 95 d4 27 3d
       -0.0154779805 -0.0264073 -0.05891714 0.04097422
000050 57 6f 8a 3d 3e 87 26 bd 3d dc 67 bd 8e 09 60 3c
       0.06759518 -0.04065632 -0.05660652 0.013674153
000060 7e 30 02 bb 6d ac 2c 3d 14 ef ce 3c ef 93 ea bc
       -0.001986533 0.042156626 0.025260486 -0.028634993
000070 96 94 40 3c bd ca 55 bc a1 8a 00 bd 11 4b ce 3c
       0.011754176 -0.013048825 -0.031382207 0.025182279
000080 72 91 8d 3c d1 23 26 3d bf bc 33 bc c9 e0 56 bd
       0.017281268 0.0405615 -0.010970294 -0.052460466
000090 40 cb f8 3b a3 17 ad 3d 71 2e a4 3d 81 cf 8e 3d
       0.0075925887 0.08451774 0.080166705 0.06973172
0000a0 98 47 06 bc fb 59 2f 3d 8c eb 91 3b a0 35 6a 3d
       -0.00819578 0.04281042 0.004453128 0.057180047
0000b0 3f a4 58 3b 51 7a 08 3d ef b2 8c bd 7c 45 71 3d
       0.0033056883 0.033319775 -0.068700664 0.058904156
0000c0 28 60 af 3d 3d f8 89 3d e5 07 6f bd ba b3 6b 3d
       0.08563262 0.06736801 -0.05835714 0.057544447
0000d0 28 a8 25 3d eb e4 23 3d 02 87 61 bd 26 45 c8 bc
       0.04044357 0.040013235 -0.055060394 -0.024447035
0000e0 4e 57 9b bc 1a 83 e0 bc e2 c6 1f 3d 08 98 32 3d
       -0.018962529 -0.027406264 0.03900803 0.04360202
0000f0 32 07 a4 bd e5 e9 3a 3d 08 e1 93 3d 65 8f 82 bc
       -0.08009185 0.045633215 0.07220656 -0.015937516
000100 0c e0 3a bc 51 aa b5 3d 48 fd 5c bd 5a 2b 52 bd
       -0.011405956 0.08870376 -0.053952485 -0.051310875
000110 16 91 90 3d 50 1c 7b bd d9 96 ac bb f2 29 72 3d
       0.07058923 -0.061306298 -0.005267006 0.059122033
000120 1c a1 25 bc 8d 00 d0 bc 70 95 9e 3d b4 35 65 3d
       -0.010109212 -0.025390888 0.07743347 0.05595942
000130 b5 fd 60 bd 9b 77 76 3d c4 a5 41 bd 87 dd 89 bc
       -0.054929454 0.06017266 -0.047277227 -0.016829265
000140 e1 15 2d bd e4 72 5d bd ad b1 16 bd 60 8e 2c bc
       -0.042257193 -0.054064646 -0.03679054 -0.010531992
000150 61 65 18 bd 40 11 91 3b ac 96 a4 bb 9d f6 26 3c
       -0.037206057 0.004427105 -0.0050228443 0.010190633
000160 d2 46 f0 3b 55 1a 8e bd 86 47 f1 bb cb 98 65 bd
       0.007332661 -0.06938616 -0.0073632626 -0.056053918
000170 6f 1e 6d bc db f6 3d bd 07 17 68 3d 61 9f bf 3c
       -0.014472588 -0.046377998 0.056662586 0.023391427
000180 ba d0 87 bc 3a 3a e9 3c 70 8b 6f 3d 94 48 96 bd
       -0.01657902 0.028470147 0.058482587 -0.07338062
000190 ff e8 58 bd 2b fc 98 bd 2d a4 87 3d fb 27 23 3d
       -0.052956577 -0.07469972 0.06623111 0.03983305
0001a0 c9 58 37 3c 5f d6 92 bd 85 3e 9a bd a5 b4 c5 bc
       0.011190602 -0.07169794 -0.07531456 -0.02413399
0001b0 13 6e a6 3b 9a 88 b7 3d b2 ab b0 3d d3 26 00 bd
       0.00507904 0.089616016 0.08626498 -0.031287026
0001c0 1d 89 4f 3c 22 b9 10 bd a1 6c a0 3d 88 67 85 3d
       0.012666968 -0.035332806 0.07833219 0.06513888
0001d0 7c 7d 7c 3c f8 27 96 3d 40 cf ca bb 0c 40 84 3d
       0.015410777 0.07331842 -0.006189257 0.064575285
0001e0 18 c3 c7 3c 63 59 3d bd e6 29 8e bd 12 2c 19 3d
       0.02438502 -0.046227824 -0.06941585 0.037395544
0001f0 09 70 35 3c 78 d3 71 3c 01 f0 f3 bc 95 b1 70 bd
       0.011074075 0.014759891 -0.029777529 -0.058763105

distance_forces.model.0.weight f4 [128, 258]
000000 0d fd 41 bd 3a 58 80 3d d2 9b 4a bd e3 7d 72 3c
       -0.04736047 0.06266828 -0.049465008 0.014800522
000010 92 14 a7 3b 7a a9 b7 bd 6b df 3c bd ec 13 a5 3d
       0.0050988877 -0.08967872 -0.046111505 0.080604404
000020 7d 7f e7 3b cd f3 ae 3d 95 5d 79 3d 98 5b 86 3c
       0.0070647583 0.08542595 0.060880262 0.016401097
000030 68 41 fe 3c 76 35 88 bc 6e c0 93 3b 8c f1 81 3c
       0.031037048 -0.016627055 0.0045090234 0.015862249
000040 23 cd 00 3d ea 28 81 3d 45 95 a3 3b 14 7f 53 3d
       0.031445634 0.06306632 0.0049921595 0.051634863
000050 a0 62 8e 3d 71 ba 3e 3d aa 55 97 3c 3c 7d 8d 3d
       0.06952405 0.046564523 0.018473465 0.06908652
000060 6a 34 8e 3b 2e fe d5 3b ac 5e aa bc e4 45 fb 3c
       0.0043397443 0.0065305447 -0.020797096 0.030672975
000070 5a c3 92 3c 8f 43 f0 3c 1e 36 06 bd f4 79 40 3a
       0.017915417 0.02932909 -0.032766454 0.0007342391
000080 43 52 19 3c fe d5 c7 bc d6 c7 d1 3c c4 75 90 bb
       0.009357992 -0.024394032 0.025607985 -0.00440857
000090 dc 5e 18 bd ad ff 39 bd 22 ca 46 3d f1 97 8c 3d
       -0.03719984 -0.045409847 0.048532613 0.06864918
0000a0 42 70 f2 3c 40 b7 1b 3d 2c a7 0e 3d 80 3c 2f 3d
       0.029594544 0.038016558 0.034827396 0.042782307
0000b0 9f a5 4c bd 0d 3f 9a 3d 5d a9 e7 bc c8 6a 95 bc
       -0.049962636 0.07531557 -0.028279 -0.018239394
0000c0 04 2c c0 3d f8 65 64 bd c3 e6 f2 3c ff c8 11 bd
       0.09383395 -0.055761307 0.029651051 -0.035592075
0000d0 92 f5 58 3d f9 35 38 bc 91 81 af ba 8a b3 21 bd
       0.05296857 -0.011243337 -0.0013390054 -0.039477862
0000e0 e5 e6 26 bd e9 c5 20 bd 90 77 3f 3d 12 5d c1 ba
       -0.040747542 -0.03925124 0.046744883 -0.0014752469
0000f0 ad 1c 15 3c 87 50 2e 3d 65 bf 1b 3d 4c 7c 56 bc
       0.009101075 0.042557266 0.038024325 -0.013091158
000100 be 4e 90 bc 66 26 ac 3d f0 ab ed bc 03 c2 cb bc
       -0.017615672 0.084057614 -0.02901265 -0.024872785
000110 48 f6 ca bb fc 7e af bc 85 64 5c 3c dd a5 ab 3d
       -0.00619391 -0.021422856 0.0134517 0.08381245
000120 17 c9 94 bd ae 5d d8 bc c0 39 8d 3d 65 c6 cf ba
       -0.07264917 -0.026411857 0.068957806 -0.0015851973
000130 03 c5 89 3d 97 51 53 3c d2 e4 c7 bd 25 e1 81 bb
       0.0672703 0.0128978705 -0.09760441 -0.003963607
000140 d0 b5 b6 bc 83 50 83 bd 03 b9 cf 3c 37 44 9e bd
       -0.022303492 -0.06411841 0.025356775 -0.07727855
000150 ae 25 19 bd 19 0b 83 bc ba 34 0b bd df c1 85 bc
       -0.03738945 -0.015996503 -0.03398583 -0.016327797
000160 6e 98 fa bc 1a 98 a5 3c b9 c0 cc 3b 3d 40 ea bc
       -0.030590262 0.02021413 0.0062485603 -0.028595084
000170 74 24 b7 bc f5 d0 50 3c 83 d0 51 3d c7 12 6a 3c
       -0.02235625 0.012745132 0.051224243 0.014286703
000180 bc 7f 80 3d a4 0f ca bc 6d 8c 21 3d 35 26 08 3d
       0.062743634 -0.024665661 0.03944056 0.033239562
000190 a7 27 0b bd 67 ef dd bc 02 90 1c bd 39 c2 e5 3c
       -0.033973362 -0.027091695 -0.038223274 0.028046714
0001a0 24 e9 fb 3c a0 7e 80 bc 43 a2 4c bd 80 91 7e bb
       0.030750819 -0.01568538 -0.049959432 -0.003884405
0001b0 16 26 23 3d 86 2b 8c 3d cd 10 8b 3d 6a a6 a3 bd
       0.039831243 0.06844239 0.06790314 -0.07990725
0001c0 8e 73 46 bd d0 d6 23 bd 9e 27 9b ba f1 3a 4b 3c
       -0.048450045 -0.039999783 -0.0011837368 0.012404189
0001d0 ac 07 60 3d df 66 4e 3d 17 b8 05 3c ac 72 0a 3d
       0.054694816 0.050391074 0.008161566 0.033800766
0001e0 fb 3f 16 3d 6f a2 83 bd 90 8f 1f 3d 4e 97 04 3d
       0.03668211 -0.06427466 0.03895527 0.032370858
0001f0 96 83 e9 bc b8 4d 3e bd 37 6e 43 bd a3 bf 3a 3d
       -0.028505128 -0.046460837 -0.04771253 0.045592915
000200 80 62 0c 3d fd 9b b3 3c 78 92 8c 3c df 52 94 3b
       0.034273624 0.021924967 0.017159685 0.0045264806
000210 29 e9 bb bc 0d b6 66 3c 70 da 21 3d 9e 90 94 bc
       -0.022938328 0.01408149 0.03951496 -0.018135365
000220 01 c8 21 3c 05 0b c6 bc 08 26 08 3b 35 9a c4 bc
       0.009874345 -0.024175176 0.0020774622 -0.023999313
000230 6a 14 0c bd ba a3 05 bc e2 67 ee 3c 8f 40 66 bd
       -0.034199156 -0.008156711 0.02910227 -0.05621391
000240 a7 5d 48 3c 86 00 81 bd ed 6f 92 ba d7 29 0b 3d
       0.01222936 -0.06298928 -0.0011172272 0.03397545
000250 db b0 0b bd 5c 77 78 bc 2f f9 d2 3b 43 ab 98 bc
       -0.03410421 -0.015165176 0.0064383964 -0.018636351
000260 65 61 84 3c 7d c6 75 bb 04 29 36 bd c9 78 72 bd
       0.016159723 -0.0037502341 -0.04447271 -0.05919722
000270 27 86 31 3d fb 65 af bc b6 36 22 bd f9 5b 16 3d
       0.04334083 -0.021410933 -0.039602958 0.036708806
000280 83 5a ec ba 9b 1e ab 3c 0f 8f 09 3d f4 32 82 bc
       -0.0018032346 0.020888617 0.033583697 -0.015893437
000290 9b 80 8d bd 52 e7 b7 bc 8b b4 3a bc ec 8c b0 bc
       -0.06909295 -0.02244917 -0.011395584 -0.021551572
0002a0 9a b2 d0 3c 25 1f e6 3b 11 56 29 3c 27 94 38 bc
       0.025475789 0.0070227557 0.010335461 -0.011265791
0002b0 8b d0 3f bb 31 83 99 bd 3d 9f 40 3d d2 f8 d5 3a
       -0.0029268588 -0.07495726 0.04702686 0.0016324765
0002c0 ea cc b0 bd b6 23 13 3d 8e 8f fc bc 11 6c 4a bc
       -0.08632834 0.03592273 -0.030830171 -0.012354867
0002d0 46 1d 05 3d 7c 4d aa 3d a9 7a 08 3d f6 ef 36 bd
       0.03249862 0.0831556 0.033320103 -0.04466244
0002e0 53 23 83 3d 1d 68 bf 3b bc 99 39 3d 3d 52 8c bd
       0.06403222 0.0058412687 0.04531263 -0.06851623
0002f0 d4 81 02 bd 1b 4d a4 bd 7d eb 0a 3d f2 30 45 3c
       -0.031862095 -0.08022519 0.033915985 0.012035595
000300 9a d2 4f bc 1b d6 87 bd 54 ea 0e 3c cd 52 ef 3c
       -0.012684489 -0.06632634 0.00872286 0.029214287
000310 24 d6 88 3d 1b 0f 63 bc 02 90 9f bc 65 e0 11 3d
       0.06681469 -0.013858582 -0.019477848 0.03561439
000320 13 60 62 3c 42 f9 0d bd f8 d7 b4 bd 64 e5 0a bc
       0.013816851 -0.03466154 -0.08830255 -0.008477543
000330 4b 5a f5 3c 84 f0 e5 bc 5f 4d ee bb 1b 90 a5 3c
       0.029950282 -0.028068788 -0.007272407 0.020210316
000340 b5 c8 9c bc d9 97 55 3c e8 48 6c 3d 7a e2 c1 bb
       -0.019138673 0.013036692 0.057686716 -0.0059168907
000350 eb 70 ef 3c d2 0e 2f bb bd 6b 74 3d 4c 0a 57 3d
       0.029228648 -0.0026711714 0.05967306 0.052500054
000360 34 88 33 bd 90 93 ae ba 06 db 8f 3c 9b 0e ee 3d
       -0.043831065 -0.0013319124 0.017560493 0.116238795
000370 a0 ae d0 bd af 88 d1 3c 3f ab a2 3b d5 ed 96 bc
       -0.10189557 0.025577871 0.004964262 -0.018423954
000380 0f 94 db bc d8 5e 89 bb 4c 42 bf 3c 82 6f 2b 3d
       -0.026803998 -0.0041922145 0.023347043 0.04185439
000390 22 c6 68 bd b0 2f 57 3d 99 38 cc bb 04 05 d9 3c
       -0.05682958 0.052535713 -0.006232333 0.02649165
0003a0 5b ac d3 bc 09 91 f8 bc cb 74 0e 3d 83 b2 6f 3b
       -0.025839021 -0.030342596 0.03477935 0.0036574907
0003b0 fb 0d ca 3c 0e 71 20 bd 27 d2 89 bd ab de de bc
       0.02466487 -0.039170317 -0.067295365 -0.027205786
0003c0 48 a7 0c 3d 78 1c 8d 3a 48 b1 4a 3c e3 33 06 bd
       0.03433922 0.0010765931 0.012371369 -0.032764327
0003d0 ff 6c 55 3d 66 f9 d7 bb 74 34 97 bc c2 91 12 bd
       0.0521059 -0.00659101 -0.018457629 -0.035783537
0003e0 b3 cf 71 bc 68 c6 37 3d 74 2e 1a 3d a9 91 d8 bc
       -0.014758992 0.04486695 0.037641957 -0.026436644
0003f0 91 d4 7d 3d 9a 23 32 3d d0 c8 64 bc ae 85 a1 bc
       0.061970297 0.043490984 -0.013963893 -0.019717064

distance_forces.model.0.bias f4 [128]
000000 e5 ad 2d 3d 6f 2b ab bc be 72 10 3d e9 48 f4 3c
       0.042402167 -0.020894734 0.035265677 0.029819923
000010 9f 23 32 3d 16 99 05 3c 1c 3c 5b bb e1 c9 36 3d
       0.043491002 0.008154174 -0.0033452576 0.04462612
000020 76 f1 d0 bc 68 7a 48 3d 22 04 27 3d 4a 2a 5b bd
       -0.025505763 0.04894486 0.040775426 -0.053507127
000030 a3 10 1f 3d 0e 16 96 bc 47 fe 86 3d c0 44 03 bd
       0.038834225 -0.018321063 0.06591468 -0.032047987
000040 6a 64 ad 3c cf df 8d bb 0d a0 2e bc 66 5c 88 bc
       0.021166045 -0.0043296586 -0.010658276 -0.016645622
000050 a7 2c 98 3c 1d 1c 1a bc 5b 67 0f 3d 68 51 ed 3c
       0.01857598 -0.009406117 0.035010677 0.028969482
000060 82 5e 3c bc 01 35 8e 3c bc d7 89 3c a4 5e 5f bd
       -0.011497142 0.017359259 0.016826503 -0.054533616
000070 9d dc 3e bd 72 6b 14 bc 46 4b 1e bc ce 21 6b bd
       -0.046597112 -0.00905882 -0.009661501 -0.057405286
000080 2d 42 b1 3c 05 b7 b7 3c e2 7d 0e bd c7 a4 3b bd
       0.021638 0.022426138 -0.03478802 -0.04581144
000090 00 32 ae 3c 75 7c 50 3d b7 c4 1c 3d 1e 37 1f bb
       0.021264076 0.05089994 0.03827354 -0.0024294327
0000a0 09 ca d1 bc 06 da 02 bd 7b fd e7 3c 55 4d 3d 3d
       -0.025609033 -0.031946205 0.028319111 0.046216328
0000b0 75 2d ea bb 0b 43 9c bd 36 a1 88 bd 6a 05 f4 bc
       -0.007146532 -0.07629975 -0.066713735 -0.029787738
0000c0 9a b0 d0 3b ee f8 33 3d a6 8f 7c ba 76 22 2d bd
       0.006368709 0.04393857 -0.00096344424 -0.042269193
0000d0 67 47 67 3d 01 8d 51 3d af 55 4f 3d f1 31 47 3c
       0.05646458 0.051159862 0.050618824 0.012157903
0000e0 ab 75 8e 3d c1 6e 91 bc a0 2f e8 3c 10 ac 2a 3d
       0.06956037 -0.017753007 0.028343022 0.041667998
0000f0 0d a5 75 3d d7 2a 06 bd 1e 55 cb 3b 71 a6 90 bc
       0.059971858 -0.0327557 0.006205215 -0.01765749
000100 85 7b 2b 3d 05 67 6a 3d 37 a7 0b 3d 5b 37 6e 3d
       0.041865844 0.057227153 0.034095015 0.05815826
000110 3b c0 02 3d 5d a6 3d bd f8 01 93 bd 39 74 05 bd
       0.031921607 -0.046301235 -0.0717811 -0.03258154
000120 b1 a5 09 bd f4 37 2d bd bd 5f b0 3c bb b3 a0 bc
       -0.03360528 -0.04228969 0.021530027 -0.019616952
000130 06 33 13 3d be 15 76 bd d1 35 90 3a 71 cb 0b bd
       0.03593733 -0.06007933 0.0011002367 -0.034129564
000140 72 e7 94 bc 43 6a 87 bd c9 c3 7e 3c 91 59 3a 3d
       -0.018176768 -0.06612065 0.0155496085 0.045495573
000150 7d d0 02 bd 87 f1 ce 3b 08 65 28 3d b4 bb 19 bc
       -0.03193711 0.0063154134 0.041111976 -0.009383131
000160 af 5e 0c bd 4c 9d dc 3c c2 8d 57 bb a7 80 1e bc
       -0.034269985 0.026930474 -0.003289089 -0.009674228
000170 a3 ce 69 3d b6 77 7e bd a4 a2 2b bd 4a b4 a5 3c
       0.05708183 -0.062125884 -0.041903153 0.02022757
000180 df 5a c7 3c 47 a6 c4 3c 9f 1d 1e bd fa db 11 3d
       0.024335323 0.024005068 -0.038602468 0.035610177
000190 67 c8 5e bd 66 a3 70 bb a5 21 10 bd b4 d8 44 3c
       -0.054390337 -0.0036718487 -0.035188336 0.012014557
0001a0 00 8e 15 bd 6a 12 1f 3d 80 d5 00 3c 05 00 9a 3d
       -0.036512375 0.03883592 0.007863402 0.07519535
0001b0 46 ab e6 bc 58 96 3a bd c0 92 40 bd 26 c1 c8 3c
       -0.028157841 -0.045553535 -0.04701495 0.024506163
0001c0 a8 92 0f 3b 83 32 de bb 74 92 68 3d 10 b0 54 bd
       0.0021907482 -0.006780924 0.056780294 -0.05192572
0001d0 40 da ab bc 19 74 2c bd 32 d2 e3 bc da 06 84 3d
       -0.020978093 -0.042102907 -0.02781019 0.06446619
0001e0 25 84 b1 bc 1a 06 fe bc 86 a7 0b 3c 53 62 37 bd
       -0.021669457 -0.031008769 0.008523827 -0.044771504
0001f0 34 94 c9 b8 50 34 9c 3a 71 a3 2f bd d9 8b 87 bc
       -9.612032e-05 0.0011917446 -0.04288048 -0.016546177

distance_forces.model.2.weight f4 [128, 128]
000000 86 31 9b bd 2c a8 14 bc 11 60 e6 3c 9d 5a d8 bb
       -0.07577805 -0.009073298 0.02812198 -0.006602599
000010 30 0a d7 bd e1 45 91 bd 9f 06 21 3b 46 f3 8a bd
       -0.1049999 -0.070934065 0.0024570597 -0.06784682
000020 c4 65 f6 3c 01 0a fc ba 67 19 81 3d b5 ca f0 3d
       0.030077823 -0.0019229056 0.06303673 0.11757413
000030 fa 67 8f 3c 24 45 5a bd c4 36 9b bd 3e 12 9e 3d
       0.017505635 -0.053288594 -0.07578805 0.07718323
000040 55 fa 66 3d b8 b7 c8 3d 7e 3b 42 3d 3f 52 2c bc
       0.05639108 0.098006666 0.047420017 -0.010517656
000050 f2 ab a7 bd 59 81 12 3d f4 ec f5 3c 07 e9 a9 3d
       -0.08187093 0.035767887 0.030020215 0.082963996
000060 0a 3d 02 bc 49 5b 40 3d 8d 7d 78 bc 3b dd 8d 3d
       -0.007949123 0.046962056 -0.015166652 0.06926962
000070 ee 57 50 bd 67 67 9c bc 45 96 2d bd 2d 72 85 bd
       -0.050865106 -0.019092275 -0.042379636 -0.06515918
000080 9d 1b d6 bd 7b 6f fa 3c 02 3a cc 3d b9 27 61 3d
       -0.104544856 0.030570736 0.099720016 0.054969523
000090 8a eb 38 bd de a8 de bd 30 0c d7 bd 2d cd 7c 3d
       -0.045146503 -0.108720526 -0.105003715 0.06171911
0000a0 1f 7c e3 bc 65 b5 4c bd 6c 27 36 bd 71 d0 af bd
       -0.027769146 -0.04997768 -0.04447119 -0.08584679
0000b0 9c 63 d6 3d 43 93 8d bd e6 45 03 bd ee f7 89 3d
       0.10468218 -0.069128536 -0.032049082 0.06736742
0000c0 db 46 18 3d 53 07 40 3d e1 25 de 3c a6 04 fa bb
       0.037176948 0.046881985 0.027117671 -0.0076299487
0000d0 85 1a 85 3b 8a 8a 86 bd 21 07 60 3c 78 a3 b6 3d
       0.0040619993 -0.06569393 0.013673575 0.08917898
0000e0 b6 14 64 bd f1 a3 6c 3c 74 e7 1e bd 19 ce f7 3c
       -0.055683814 0.014443384 -0.03879495 0.030249642
0000f0 34 38 c9 bd 6e 12 02 bd 93 f6 a2 3d 31 22 b7 bc
       -0.09825173 -0.031755857 0.079571865 -0.02235517
000100 de 62 85 3c 2d 31 06 3d 71 54 7d 3d 8c 55 12 bd
       0.016282495 0.03276174 0.061848108 -0.035726115
000110 a8 ba 18 3c 56 8d bd bd c6 08 5c bc d7 bf db 3d
       0.009321846 -0.09255473 -0.013429826 0.1072995
000120 d3 8b 84 bd ba 46 15 3c 21 02 4a 3d 17 21 64 3d
       -0.06471982 0.009111101 0.049318437 0.05569562
000130 f1 a0 99 3d be 77 80 bd 8b ff f1 3a d9 9b a8 bd
       0.075014 -0.06272839 0.0018462999 -0.082328506
000140 b0 e9 63 bd 0d 40 d0 3d 7e 76 10 3d 12 85 c2 3c
       -0.055642784 0.10168467 0.035269253 0.023745093
000150 2b 89 c7 3d 5c ed d1 3c 3f d5 14 3d 63 da 0f 3c
       0.097429596 0.025625877 0.03633618 0.008780095
000160 46 8b 8c bd 43 41 47 bd 80 f3 a7 bd be 23 8c 3d
       -0.06862502 -0.048646223 -0.08200741 0.06842755
000170 65 9c 34 3d 6c 13 68 3d b4 24 0d 3d 1a 1b 7e 3d
       0.044094462 0.056659147 0.03445883 0.062037565
000180 8f 49 9b bc 1a aa 74 3b 1b c1 b5 bd 1c 35 bc 3c
       -0.018955974 0.0037332834 -0.088747226 0.022974543
000190 a6 10 8f 3d bf 86 d2 bd 3b 2e fa 3c 2a 6a 61 bd
       0.06985597 -0.10279607 0.030539623 -0.055032887
0001a0 cb 3c 15 3d f8 1c 92 bc b5 34 ec 3c c9 e2 64 bd
       0.03643493 -0.017836079 0.028833726 -0.05588034
0001b0 ba 37 1c 3d d3 f5 9f bd 25 c3 55 3d 9b 96 20 3d
       0.038139082 -0.07810559 0.052188057 0.03920613
0001c0 4d 25 87 bc 14 d4 2e bd 21 b8 c2 bd 76 37 d6 3a
       -0.016497279 -0.042682722 -0.09507776 0.0016343433
0001d0 36 b3 76 3d 66 0e 75 3d ad ef f3 3c 9f fc 92 3b
       0.060229503 0.059828185 0.029777372 0.004485681
0001e0 40 b2 59 ba ba f9 c2 3d 9b ff 41 bc a2 43 39 bc
       -0.00083044544 0.09520288 -0.011840726 -0.011307629
0001f0 1c 73 88 bc e8 5f e3 3c b8 ed 26 3d a1 b5 f0 ba
       -0.01665645 0.027755693 0.04075405 -0.0018364677
000200 42 70 22 3d ed 2d 9a 3d d3 df 82 3d 8f ca aa bd
       0.03965784 0.07528291 0.06390347 -0.08339416
000210 e0 8d 4c bd 7a cd 81 bc 4d eb be bc 14 d1 d7 3c
       -0.04993999 -0.01584505 -0.02330556 0.026344813
000220 cf 44 88 3c 73 1b 95 3d e3 cd 3d bd e2 e2 ff 3c
       0.016634373 0.07280626 -0.046338927 0.031236116
000230 3e ca 6e 3d 23 2d 8d bd c1 a9 90 3b c2 37 c0 bc
       0.058298342 -0.06893375 0.0044147675 -0.023464087
000240 98 b0 a4 3d 7a b6 23 bd ba 90 c1 bd e4 4a 40 3d
       0.08041495 -0.039968945 -0.094514325 0.04694642
000250 93 ed 36 3d 7a ff 22 bd 59 89 9c 3d 1e fd 0e 3d
       0.044660162 -0.039794423 0.076433845 0.03490936
000260 8a c4 81 bd 1c fb 89 bd ef 80 35 bd e0 ba a5 3d
       -0.06336315 -0.067373484 -0.044312414 0.08092284
000270 1d 4e 03 bc 05 59 9c bd 8a 33 81 3a 1f a9 4d bd
       -0.008014229 -0.07634167 0.0009857279 -0.050210115
000280 18 72 fe 3c eb 48 82 bd f8 1c 0e bd b9 cb d1 bc
       0.031060264 -0.06361564 -0.034695596 -0.025609838
000290 f7 2f 1d 3d 91 d9 18 3d 1e a4 ca 3c 74 6b 82 3d
       0.03837582 0.037316862 0.02473646 0.06368151
0002a0 65 58 97 3d ce 0e 15 bd 4a 3b 5c 3d 45 48 36 3d
       0.07389907 -0.036391072 0.05376748 0.044502515
0002b0 8e c4 7d bc 47 b5 48 bc 41 2a 70 3d 28 6d 1e 3d
       -0.015488757 -0.012250251 0.058634046 0.03867832
0002c0 b1 89 3e 3c e8 55 ca bb ac 18 64 bc 0d c0 5d 3d
       0.011629508 -0.0061747916 -0.013921898 0.054138232
0002d0 c8 af 55 3b cc 04 58 3d 08 0a a4 bd 00 4f ac bd
       0.0032605994 0.05273895 -0.08009726 -0.084135056
0002e0 24 2b e7 bc 85 db 8c 3d 57 b3 eb 3c 54 d1 62 3b
       -0.028218813 0.068778075 0.02877204 0.0034609633
0002f0 b4 b7 5e bc 77 dd 89 3d 7b 54 d7 3c 8e 7a fe 3c
       -0.013593603 0.06731694 0.0262854 0.031064298
000300 64 0a ac bd c9 c0 a1 3c 8c c7 93 3d 14 c2 88 ba
       -0.08400419 0.019745247 0.07215795 -0.0010433816
000310 47 d8 52 bc 96 18 b4 3c 46 53 22 bd 9f 44 00 bd
       -0.012868947 0.02198438 -0.039630197 -0.031315442
000320 4f a2 5d 3d ef 63 96 3d 37 2e a2 3d 7f ee 08 bd
       0.054109868 0.073432796 0.07918971 -0.033430573
000330 79 b8 ba 3c e1 35 e2 ba 35 5f c6 3b f5 54 e0 bc
       0.022793042 -0.0017258489 0.00605383 -0.02738426
000340 35 4e f6 bc 12 e3 fe bc 5c 99 04 3d 27 01 13 3d
       -0.030066589 -0.031114135 0.032372817 0.03588977
000350 03 a3 56 3d 94 b7 8a 3d b4 a9 f8 3c e0 b9 59 3d
       0.052401554 0.06773296 0.030354358 0.05315578
000360 b3 8f 38 bd 4e dc 37 3d 90 78 48 bd 61 58 ae bd
       -0.045058917 0.044887833 -0.048943102 -0.08512951
000370 74 1e aa bc c5 b6 9a 3d 3d 39 84 bc 93 c3 30 bd
       -0.020766474 0.07554392 -0.016140575 -0.043155264
000380 04 33 69 bd e1 b0 85 bd 1f 87 d9 bc e7 b6 8c bd
       -0.056933418 -0.065278776 -0.026553689 -0.06870823
000390 c9 d4 d3 bc 51 34 81 3d 57 90 a8 3d 23 d7 af bd
       -0.0258583 0.06308807 0.08230656 -0.08585956
0003a0 c0 19 64 3d b3 77 73 3c 22 f7 87 bc f0 a4 f2 3c
       0.05568862 0.0148600815 -0.016597334 0.029619664
0003b0 8f d8 27 bc dd bf 12 3d 5d 5a 3a bd 1f f9 90 3c
       -0.010244503 0.035827506 -0.045496333 0.017696915
0003c0 27 5a c9 bd b9 d6 60 bc 71 7a 98 bd ca d3 06 3d
       -0.09831648 -0.013723069 -0.07445229 0.03291682
0003d0 ad 9b 74 bd 7a b5 4c 3c 96 36 94 bd da 6c 57 3d
       -0.059718776 0.012494439 -0.07236974 0.052594043
0003e0 a5 28 69 3c 02 53 94 bd de e2 35 3d ae 30 c3 3c
       0.014230882 -0.07242395 0.04440581 0.023826923
0003f0 37 81 45 bd 2e 11 a1 bc ec e3 55 bd af 73 87 3d
       -0.048218932 -0.019661512 -0.052219316 0.06613862

distance_forces.model.2.bias f4 [128]
000000 b3 e3 3a 3d 90 d9 53 3d d7 d9 19 bc e9 56 89 bd
       0.045627307 0.051721156 -0.009390316 -0.0670603
000010 63 60 64 bc 68 f9 76 3c bb a4 87 bb c6 f2 0c 3d
       -0.013938996 0.0150741115 -0.0041395104 0.034411214
000020 fb 19 55 bc c1 72 68 bd 52 2c b4 3d 42 fb e6 3a
       -0.0130066825 -0.056750063 0.08797516 0.0017622488
000030 0d 25 34 bd ce 44 5a bd d5 6c 7e 3d 9b fa c8 bc
       -0.043980647 -0.053288274 0.06211551 -0.02453356
000040 f1 75 6c bd 60 94 51 bd 1d 7f 93 3c df c2 26 bd
       -0.057729665 -0.051166892 0.018004948 -0.040713187
000050 7d 4b 37 3c 31 27 c7 3b 4b 6e 34 3d f0 cc 96 bd
       0.011187431 0.00607767 0.044050496 -0.073633075
000060 08 21 d2 3b c7 5c 39 bd 93 5b 5b 3d 94 b1 3c 3d
       0.006412629 -0.045254495 0.05355413 0.04606779
000070 12 ff 2f bd 34 c3 7f bd 4a c2 f8 3b fa 47 90 3d
       -0.042967863 -0.06244202 0.0075915204 0.070449784
000080 3b ad 2c bc ba f5 33 3b c6 1f 6e bd be 52 1d 3d
       -0.010539348 0.0027459697 -0.05813577 0.038408987
000090 15 e3 9e 3c 7f 12 9e 3d 1d 5d 0e 3d b5 ab 89 3d
       0.01939539 0.077183716 0.03475677 0.06722204
0000a0 7e ca 5c bc 23 e5 4a bd 33 05 d8 3c 68 09 60 3d
       -0.013476012 -0.049534928 0.026369667 0.05469647
0000b0 01 89 fd 3c d1 ae 0e 3d 7e 67 9a 3c 2d 13 e7 3c
       0.030949118 0.034834687 0.018848177 0.028207386
0000c0 f0 c0 b7 3c b4 f9 8a bd 7d c0 ef bc d9 42 fa bc
       0.022430867 -0.06785908 -0.02926659 -0.030549454
0000d0 67 42 1a 3d 93 48 5d bd bc 67 9b 3d ec 62 fc 3c
       0.037660982 -0.05402429 0.07588145 0.030808888
0000e0 f6 b4 4f bd b5 cc 2c 3d a5 9b 23 bd bb 04 4f 3d
       -0.050709687 0.04218741 -0.039943356 0.05054162
0000f0 20 65 2e 3d 30 1b 5c bc ed d9 87 bd eb 6d 02 bd
       0.04257691 -0.013434216 -0.06633363 -0.031843107
000100 ff 0e a0 3c b6 ec e2 bc 96 0e ae bb 75 07 6d bd
       0.0195384 -0.027700763 -0.0053117974 -0.05786844
000110 e0 00 17 bd 02 69 38 3d e1 ae 3b 3d 86 95 17 bd
       -0.03686607 0.04502202 0.045821074 -0.03700783
000120 a5 b3 44 3c 42 a8 f0 3c 31 9a 69 bd 94 c9 70 3d
       0.012005721 0.029377107 -0.057031814 0.05878599
000130 d2 11 ad bc 39 93 58 3d 66 db 35 3d c0 1c 84 3d
       -0.021126661 0.052874777 0.044398688 0.06450796
000140 ad c8 0e bc 1f 80 5e bd 03 12 3c bc 19 25 80 3d
       -0.008714837 -0.054321405 -0.011478904 0.06257076
000150 be 4f 38 3c b2 6a 02 3d 46 8c 9b 3d ca 11 0a 3d
       0.011249481 0.031840034 0.075951144 0.03370837
000160 3f 7c 3b 3d 8d 2d 6d 3c 3c 53 97 bd 8d 5c 51 3d
       0.045772787 0.014476192 -0.073889226 0.051113654
000170 2b e9 62 3d a6 88 39 bc 77 c4 78 3d fb 86 fa bc
       0.055398148 -0.011324083 0.06073424 -0.030581942
000180 5d ec 23 3d 24 42 c2 3b b0 f9 c4 3c a9 11 16 3b
       0.040020335 0.0059282947 0.024044842 0.002289871
000190 e9 1d c4 3c cf d4 68 bd 73 fd 2e bd ca 18 6f 3c
       0.023940044 -0.056843575 -0.042722177 0.0145933125
0001a0 80 53 95 bb 0d eb 85 bb 39 42 86 3d 0e c1 85 3b
       -0.004557073 -0.004086858 0.065556 0.004081852
0001b0 7c 79 8a bb 96 60 a8 bc fc 27 2a 3d 4b 8d 87 bc
       -0.004225908 -0.020553868 0.04154204 -0.016546866
0001c0 fc ee 82 bd c9 1d 7e bd 61 80 26 bd 98 3e e3 3b
       -0.06393239 -0.062040124 -0.040649775 0.006934952
0001d0 6e f8 c3 bc c8 81 68 bd 11 e5 81 3c 5b d8 07 bc
       -0.023922171 -0.056764394 0.015856298 -0.008291329
0001e0 2b d9 99 bc 96 62 04 bd 0d 72 84 bc 1f 20 6a bd
       -0.018780312 -0.03232058 -0.016167665 -0.05715954
0001f0 80 72 a8 bc 1f ce c8 ba d2 8c 2a bd 33 e6 56 3d
       -0.02056241 -0.0015320218 -0.041638203 0.05246563

distance_forces.model.4.weight f4 [128, 128]
000000 13 c9 56 bd cb ae c2 bb d6 7f 8f bd a4 b8 56 3d
       -0.052437853 -0.005941247 -0.07006805 0.05242218
000010 27 71 a3 3c 7e 18 99 bd 0b e3 e1 3c 19 7e a9 bd
       0.019951416 -0.07475375 0.027574083 -0.08276004
000020 e2 a9 cc bc 82 61 1f bd 88 67 e9 bc 6e f8 bf 3d
       -0.02498335 -0.03891135 -0.02849175 0.09373556
000030 35 c9 a9 3d db c2 48 bd 0c fa e8 bc 25 64 e2 3b
       0.0829033 -0.049013954 -0.028439544 0.006908911
000040 2c 11 0b 3d c6 f7 08 3d d4 c3 a8 bd 48 7a 44 3d
       0.033951923 0.03343942 -0.08240476 0.04796818
000050 30 85 47 3c e6 02 9a ba 16 25 c3 3c 00 d0 8a bd
       0.0121777505 -0.0011750131 0.023821395 -0.06777954
000060 c7 80 3b bd 73 43 09 3d 85 f1 3b bc 90 73 1b 3d
       -0.04577711 0.03351159 -0.011471157 0.037952006
000070 1e e4 3f 3d e3 e4 44 bd 09 c8 b7 3d d3 18 80 3d
       0.04684841 -0.048069846 0.089737006 0.06254735
000080 cb 5e 18 3c 22 f0 f2 bb e4 5b c5 3d e0 16 7a bd
       0.009299944 -0.00741388 0.09636667 -0.06105697
000090 43 aa 8d bd 43 f3 9b 3d 80 ec 8d 3c b3 f8 35 bd
       -0.069172405 0.07614758 0.017324686 -0.04442663
0000a0 ef a6 83 3d 72 21 f0 3c 7e 34 aa bd 1a 64 10 bc
       0.064283244 0.029312823 -0.08310793 -0.008812929
0000b0 fb 61 11 3d c7 00 e2 3a f5 dc a9 3d 7b 51 3c 3d
       0.035493832 0.0017242663 0.08294097 0.045976143
0000c0 8e b4 7d bd c7 a4 8a 3c 10 26 38 bd 93 ed 90 3c
       -0.06193977 0.016924275 -0.044958174 0.01769141
0000d0 88 30 cb 3c 2c f1 50 bd fb 50 7a bd 49 04 30 bd
       0.024803415 -0.05101125 -0.061112385 -0.042972837
0000e0 4a e1 9a bd d7 d9 e7 b9 0c 27 90 bd 5e ce 6e 3d
       -0.07562502 -0.00044222057 -0.070386976 0.058302276
0000f0 a6 35 b2 bd e5 78 54 bd a2 8b 8a bd 80 26 16 bc
       -0.08701639 -0.051873107 -0.06764914 -0.009164453
000100 32 27 44 bd cb a5 c3 3d cc 81 51 3c db ff 9f bd
       -0.047888942 0.09553107 0.012787294 -0.078124724
000110 62 c2 19 ba 23 91 58 bd 01 ea 2e ba 7b 2d ac 3c
       -0.0005865452 -0.05287279 -0.00066724425 0.02101778
000120 e7 c9 97 3c 13 21 0d bc b6 b9 0a 3d ea e0 30 ba
       0.018528892 -0.008613843 0.033868514 -0.0006747382
000130 b5 90 94 bc f8 c0 92 3c 3d 06 4d 3b 7b fe ad 3c
       -0.018135408 0.01791428 0.0031284236 0.02123951
000140 1b 6e 98 bd 52 8d 9d bd fa c1 7a bd f3 83 cf bd
       -0.07442876 -0.0769297 -0.061220147 -0.10132589
000150 7e 9c 53 3d ff d9 ad 3c 3f 1e ac bc 09 3b ad 3c
       0.051662914 0.021222113 -0.021010516 0.021146314
000160 b0 f8 2b bd 50 9b 14 bd bc 17 8d 3d da d7 1e bd
       -0.041985214 -0.03628093 0.068892926 -0.03878007
000170 40 28 cd bc 77 e1 8a bc 38 b9 9e 3c e7 34 df bc
       -0.025043607 -0.016953213 0.019375429 -0.027246905
000180 5a f4 36 bd ec 2c bf bd a2 ee a4 bd cb da 15 bd
       -0.044666626 -0.0933474 -0.08053328 -0.03658561
000190 ef 3a 8b bd b7 6e 0d bd ee fc 5b bb a8 b9 c9 bc
       -0.0679835 -0.034529414 -0.0033567506 -0.02462466
0001a0 b0 ba 94 3c 58 77 11 3b ed a8 48 bd 63 89 a3 3d
       0.018155426 0.0022196379 -0.048989225 0.07985189
0001b0 99 60 a8 bd 20 92 d5 3c 0e 17 bc bd e9 61 ac bc
       -0.082215495 0.026070654 -0.09184085 -0.021042781
0001c0 6c ac 9e bd ef eb 33 bd 0a 94 96 3d 3b 62 f7 b9
       -0.077477306 -0.043926176 0.07352455 -0.000471847
0001d0 cf ac d4 bb aa 4a 3b bd 45 db 19 3d f1 f8 16 3c
       -0.006490327 -0.045725502 0.037562627 0.009214626
0001e0 b8 7d 7f 3d ae 4e 8b 3d 21 9f 01 bd 54 56 c8 bc
       0.062375754 0.06802116 -0.031645898 -0.024455227
0001f0 12 65 c5 3c 3a 4d b6 3c 4e 79 a7 3c 41 c4 82 bc
       0.024096046 0.022253621 0.020443585 -0.015962722
000200 5f 1b 8e 3d 4f 66 a9 bd 69 1b 50 bd 4c c0 24 bd
       0.06938814 -0.08271467 -0.05080739 -0.04022245
000210 ad 4f 00 bd 3d e5 70 3d ad 2d f8 3c 38 63 96 3c
       -0.031325985 0.05881237 0.030295217 0.018357858
000220 3a 92 18 bc aa 51 9e 3b 4e b0 2f 3d 2f b3 c2 3c
       -0.009312207 0.0048315125 0.042892747 0.023767082
000230 fa 38 b5 3d b1 03 3b bd 4d e8 e9 3c 11 a7 a4 bd
       0.08848758 -0.045657817 0.028553152 -0.08039678
000240 c0 51 7a bc 96 9d 22 bd 32 48 8b bd 68 32 77 bc
       -0.01527828 -0.039701067 -0.068008795 -0.015087701
000250 c2 dd 6b bc a9 ee 26 bd 2f 1a 35 bd 53 18 9a 3b
       -0.014396133 -0.040754948 -0.044214424 0.0047026067
000260 3c 30 e4 bc 5a 1a a2 bc 24 ee d7 bc e3 75 a9 3d
       -0.027855031 -0.019787956 -0.026358671 0.08274438
000270 b0 20 4d 3d c5 93 67 3c 01 8a eb 3c 28 18 ef bc
       0.05008 0.014134352 0.028752329 -0.029186323
000280 00 3a f3 3c b3 47 96 bd d8 ae 48 3c 19 b4 34 3c
       0.029690742 -0.07337894 0.012248717 0.011029267
000290 20 ca 8d bd d9 0b 90 bd d7 b3 9e bd 43 b3 9e bd
       -0.06923318 -0.0703351 -0.077491455 -0.07749035
0002a0 90 c4 10 3d cf 6f 33 3d 5c 39 87 bd dc 94 71 3d
       0.035343707 0.0438078 -0.06602737 0.058979854
0002b0 59 87 fa 3c db 5a f1 bc 56 87 a7 bd 10 e5 53 3d
       0.030582117 -0.029462269 -0.0818011 0.051732123
0002c0 f1 23 9f 3c b9 b9 7f 3c 98 3d 1a 3d 84 f5 20 3d
       0.019426318 0.015608245 0.037656397 0.039296642
0002d0 04 15 b6 3c 42 2f 75 bc 9c a4 a8 3d 0b 1e 61 bb
       0.022226818 -0.01496488 0.08234522 -0.0034350182
0002e0 71 da 1c 3b 19 7e 64 3d 7f e3 d9 3c cd a2 8d bc
       0.0023933912 0.05578432 0.026597736 -0.017289544
0002f0 91 06 7d bb d2 02 8f bd 39 c5 68 bd ba 78 e7 bc
       -0.003860865 -0.0698296 -0.05682871 -0.02825581
000300 39 22 ca bc 87 1e 74 3d b4 d9 0f 3c fb df 6a bd
       -0.024674522 0.059599426 0.008779932 -0.05734251
000310 58 1f 95 bd be 64 6e 3d 1e 28 7b 3b b7 7d 16 3d
       -0.07281369 0.058201544 0.0038323472 0.036740985
000320 48 fd 31 bd ee e4 c3 bc db de f3 bc 9f 85 8a 3d
       -0.04345444 -0.023912873 -0.029769352 0.067637675
000330 88 65 a8 3c 54 e8 42 3d d0 c4 6c bd 51 fb b8 bc
       0.020556226 0.047584847 -0.057804883 -0.022580775
000340 e3 7d 7c 3d 79 1c b8 ba fe 03 ed 3c 80 ee 67 3d
       0.061643492 -0.0014046571 0.028932568 0.056623936
000350 90 c5 3e bd 43 83 be 3c a7 64 01 bd 9f 97 85 3b
       -0.04657513 0.02325595 -0.03159013 0.0040769125
000360 30 aa f6 3c 07 16 a0 3d f7 80 24 bc a3 d9 a6 bd
       0.030110449 0.078167014 -0.010040513 -0.0814698
000370 6b e5 28 bd ab 4a 00 3d 74 33 47 bd 0e e6 43 bd
       -0.041234415 0.03132121 -0.048633054 -0.04782682
000380 19 2a ec bb 5d d7 a9 bd 5b 21 74 bc d9 6b a4 3d
       -0.007207167 -0.082930304 -0.014900531 0.08028383
000390 c0 37 39 bc 15 a4 76 bd 3d dd 66 bd 52 61 c5 bc
       -0.011304796 -0.060215075 -0.056363333 -0.024094258
0003a0 f1 1e 0b 3d 96 b1 00 3d a7 b1 53 3d cb 85 2b bd
       0.033965055 0.03141936 0.051683094 -0.04187564
0003b0 b3 c8 94 3d 10 7d a3 3d 83 55 1b bc bb c8 bd 3d
       0.07264843 0.07982838 -0.009480837 0.09266802
0003c0 aa 38 a6 3d e4 13 5a 3c 11 ed ef bc 67 2a 4d 3d
       0.081162766 0.013310406 -0.029287847 0.050089266
0003d0 7b 0d 39 3d 52 48 d7 3c f0 34 49 3d d1 58 67 bd
       0.04517887 0.026279602 0.04912275 -0.056481186
0003e0 bc d7 98 bb b3 b7 b2 3d 6d bd 82 3d 71 2d 1c bd
       -0.0046643894 0.08726444 0.06383786 -0.038129274
0003f0 ef b8 80 bd 02 15 b7 bc 45 6f f5 bc ff bc 31 3d
       -0.06285273 -0.022348884 -0.029960284 0.04339313
