models/current_bad_dists.pt (torch, 629891 bytes, 25 tensors)

distance_forces.model.0.weight f4 [128, 50]
000000 da c8 c6 bd 44 f4 02 be 28 8d 92 3d 1b 9d d5 3d
       -0.09706278 -0.12788492 0.0715583 0.10430356
000010 a6 c7 e1 3b 22 84 84 bc cb 0c da 3d 47 fb 79 3d
       0.006890255 -0.016176287 0.10646971 0.061030652
000020 b7 bd ca 3d 7f 3a 24 bd ea 9e 88 3a 1c 8f ab bd
       0.098994665 -0.04009485 0.0010423337 -0.08376905
000030 55 47 93 3d 8f c5 f4 bd 92 17 fb 3d dc a7 86 bd
       0.0719134 -0.11951744 0.12260355 -0.065749854
000040 9e fa 03 3d 72 39 41 bd 46 73 bf 3d ff 44 dd bd
       0.03222143 -0.047173925 0.093481585 -0.108041756
000050 c2 00 f9 bd 45 ac 0d be 4e 39 83 bd 55 04 4b 3c
       -0.12158348 -0.13835247 -0.064074144 0.01239117
000060 c6 56 ad 3d 90 14 fe 3d 34 78 33 3e e2 45 7e be
       0.08463816 0.12406266 0.17526323 -0.24831346
000070 df 24 63 bd 0a f7 b5 bd 0b c4 d1 3d be bd 2a bd
       -0.055455085 -0.088850096 0.1024247 -0.04168486
000080 26 39 f8 bd cd 96 4c 3d ef 17 1c be c7 44 b7 bd
       -0.12120275 0.049948502 -0.15243505 -0.08948665
000090 f7 ca 67 bd 56 3b 00 3e 73 51 fb 39 b1 91 4e 3d
       -0.056590047 0.12522635 0.00047935135 0.05043191
0000a0 45 6b 1e 3c fe ea a7 bd d9 a6 d7 bd 52 cf 02 bd
       0.00966913 -0.08199118 -0.105298705 -0.031935997
0000b0 09 15 e0 bd d6 31 07 bd c0 dd de 3d 73 1f c4 bc
       -0.10941512 -0.03300651 0.10882139 -0.023940777
0000c0 0b 04 0a 3e 0e 30 db bc 30 0e e6 b9 29 d1 82 3d
       0.13478105 -0.026756313 -0.0004387959 0.063875504
0000d0 b2 4b a9 3d 07 f3 01 3d 83 58 17 bd ca 8b 02 3e
       0.08266391 0.03172591 -0.036949646 0.12748638
0000e0 73 b5 9c bd be a3 b2 3c db a4 74 bd 56 ce 80 bd
       -0.07651796 0.021806594 -0.05972753 -0.062893555
0000f0 5f 31 dd 3c 4c 42 69 3d cc 12 a1 bd 86 9d 01 3e
       0.027001081 0.05694799 -0.07864913 0.12657747
000100 01 90 89 3d df db 58 3d 6e 06 08 bb e6 4e 97 3d
       0.0671692 0.05294406 -0.0020755786 0.073880956
000110 01 ff 9e bd 31 82 38 3d 87 b8 f1 bd a6 c8 cc bd
       -0.07763482 0.045046035 -0.11802774 -0.09999208
000120 bd 29 0f bc 02 4c 45 bd bb 92 f2 3d 86 e2 3b 3d
       -0.0087379785 -0.04816819 0.11844393 0.045870326
000130 ff 4f e8 3d 06 ba 21 3e 43 50 51 bb 5b 07 51 bc
       0.11343383 0.15793619 -0.003193871 -0.012758101
000140 d4 99 3c bc ce 6c 03 bc 8c 23 8d bd 01 d9 57 bd
       -0.011511285 -0.0080215465 -0.06891546 -0.052697185
000150 75 49 ae bd 00 e5 fa 3d e4 1f 9a bd e4 e4 96 bd
       -0.085101046 0.122507095 -0.07525614 -0.07367876
000160 b9 fb 8b 3d fc 19 00 3d 55 44 fd bb 29 84 41 3d
       0.06835122 0.03127478 -0.007729093 0.04724518
000170 e4 ec 65 bd c4 28 17 3d d6 bc 9c bc 8a 4e f8 3d
       -0.05613412 0.03690411 -0.019133013 0.12124355
000180 2f 5f 52 3d 0c ab ac 3c 05 24 9c 3d b6 15 67 be
       0.051360305 0.021077655 0.07624058 -0.22566876
000190 48 47 99 3c 88 bd 9e 3c 8a c7 b7 3d 0f 5b 7a bd
       0.018710747 0.019377485 0.08973606 -0.061121996
0001a0 e0 f7 a9 bc 30 ad 75 3d 12 3f 8f 3c fd 61 f6 bc
       -0.020748079 0.059979618 0.017486129 -0.030076021
0001b0 2e d3 ed 3c 15 b4 9c 3d cf 86 4b bb ca cb 9c bd
       0.029031362 0.076515354 -0.0031055694 -0.07656057
0001c0 78 b4 15 3c 72 1f ea 3d c1 52 01 3e 2d 5c 57 3c
       0.009137265 0.11431779 0.12629224 0.013144535
0001d0 d5 8d 17 3c 14 95 fc bd 26 0a 00 3e ac 9b 90 bd
       0.009250124 -0.12333122 0.12503871 -0.07060942
0001e0 fc 3f c2 bd 6c 0f a7 3d c8 24 51 bd 79 9f 06 be
       -0.0948486 0.08157238 -0.051060468 -0.13146771
0001f0 e9 a5 c4 3d 86 f4 96 bc cf 0d 3e 3d 8b 95 51 3e
       0.09601957 -0.018427145 0.046399888 0.20467202
000200 6b b5 4e 3c 7b 64 ae 3d dd 82 05 3d 33 f3 71 bd
       0.012616496 0.08515259 0.032595504 -0.059069823
000210 bb 5a d8 bc 72 21 8a bd 80 d3 8c 3d 10 e7 f7 bd
       -0.026410451 -0.067446604 0.06876278 -0.121046185
000220 fe cd 11 3d 68 06 fa 3d 20 da ad 3d 88 c3 5f 3d
       0.03559684 0.12208253 0.0848887 0.054629833
000230 ff 8f 1b bd 05 e8 01 3d 29 0b ba ba 2e f9 05 3d
       -0.037979122 0.03171541 -0.0014194 0.03270834
000240 c3 85 c8 3d 6d e3 69 bc ad 08 ac 3d 55 33 d1 bb
       0.09791138 -0.014275414 0.08400092 -0.006384293
000250 bc 73 1c 3d 40 88 85 be ba ec f2 3d 65 2b 12 bb
       0.03819631 -0.26080513 0.11861558 -0.0022303697
000260 7d 5a 3e bc 28 59 bb bd fe de f0 3d 2b b1 7d 3b
       -0.011618254 -0.091478646 0.117612824 0.0038710337
000270 aa a0 b1 3d 78 11 09 be 3b 4f 56 3d 47 3b c7 bd
       0.08673222 -0.1338557 0.052321654 -0.09728103
000280 3d f5 90 3d 56 fe 5a bc eb ea 9a 3d c1 93 09 be
       0.070780255 -0.0133663025 0.07564338 -0.1343527
000290 05 42 b6 bd 0a f0 fe bd d6 14 65 3d 0d b7 0b 3e
       -0.08899311 -0.124481276 0.055928074 0.13644047
0002a0 64 b1 ac 3d ee 84 5d 3d a7 d9 5d 3c fd a5 ca bd
       0.08432272 0.05408185 0.013540662 -0.09894941
0002b0 e7 31 30 bd 3e 25 d1 bd 3d 55 29 3e 13 1b f0 3d
       -0.04301634 -0.102121815 0.16536422 0.11723914
0002c0 a1 6f 92 3d c4 36 81 bd 34 2d 6e 3c 2c 12 e9 bb
       0.07150198 -0.06309274 0.014537144 -0.007112762
0002d0 61 16 91 bd 0d a1 62 bb 24 25 c1 3d 3a cc 9b bd
       -0.070843466 -0.0034580857 0.09430912 -0.076073125
0002e0 11 6b 55 3d 73 cb 8a bd b9 d4 72 bd ed 1d 81 bd
       0.05210406 -0.06777086 -0.0592849 -0.06304536
0002f0 9b 4f 2f bd 1a 79 d9 bc 58 f8 b2 3d 32 7d bb bc
       -0.042800527 -0.026547004 0.08738774 -0.022886846
000300 40 dd c1 3c e2 95 cd 3d 79 a3 da 3d 3f a5 d3 bd
       0.02366507 0.100383535 0.10675711 -0.103342526
000310 10 b2 25 bd 8d b1 4e 3d fd f8 0a be 84 46 ef bd
       -0.040453017 0.050462294 -0.13571544 -0.11683372
000320 2d 30 90 3c 02 5c 85 3b cc 22 ff bb 59 de 0b bd
       0.017601097 0.004069806 -0.0077861305 -0.034147594
000330 95 ed 04 3e e0 6d a9 3d 6a 90 d6 bc c8 05 79 bd
       0.12981255 0.0827291 -0.026191909 -0.06079653
000340 46 84 81 3d c5 98 19 bb 71 3e 0e be cc 39 36 bd
       0.06324057 -0.0023437005 -0.13891007 -0.044488713
000350 b2 af 7f 3d 13 6b 03 3e 6a 0e ae bd f4 96 e0 bd
       0.062423415 0.12833814 -0.08498843 -0.10966292
000360 b7 8f ff bd 7e 39 8b 3d 89 48 c0 bd 36 13 c6 3d
       -0.12478583 0.06798075 -0.09388835 0.09671633
000370 b7 61 0a 3e 5b 69 9a 3d 70 6f 53 3c 66 ce fe bd
       0.13513838 0.07539626 0.012904987 -0.12441711
000380 56 48 03 bc 04 49 8e 3d 0c 03 da 3d aa f8 36 bd
       -0.008012852 0.069475204 0.106451124 -0.04467074
000390 8a 6a ed 3d 4b fb e3 3d 07 50 90 3d 89 2f c3 3d
       0.11592586 0.11131915 0.07046514 0.09530551
0003a0 46 fb f2 3c 20 30 7a 3c fd 70 c3 bd ec fa 01 3e
       0.029660832 0.015270263 -0.09543035 0.12693375
0003b0 2f 84 b4 3b fd 8b 07 3e 40 bb c6 bd db f8 d2 bd
       0.0055089216 0.13236995 -0.09703684 -0.10301372
0003c0 b9 69 0f 3e 8a 96 be bd b8 92 17 3e bb af 5b bd
       0.14005174 -0.09306057 0.14802063 -0.053634387
0003d0 1b d1 b2 3c fc 7c 95 3d cb 9b 2c bd 75 32 10 be
       0.021828225 0.072992295 -0.042140763 -0.14081748
0003e0 c4 d4 f8 bd f4 f4 d3 3d de 3e d4 3d 51 52 44 3e
       -0.12149957 0.103494555 0.103635535 0.19172026
0003f0 75 34 d2 3d 9a d4 13 be 03 12 97 3c 74 ec 8c bd
       0.10263912 -0.1443657 0.018441206 -0.06881037

distance_forces.model.0.bias f4 [128]
000000 c4 10 9d bd 67 76 8f bd 84 f7 8e 3d f5 6c fa bd
       -0.076692134 -0.07005005 0.069808036 -0.12227813
000010 b0 25 b2 bd af 10 fb bc 56 4a c1 bd 9d 96 c2 bc
       -0.086985946 -0.030647604 -0.094380066 -0.023753459
000020 a2 c9 17 bd 02 c5 74 bd c5 cf ca bd b0 8c 0b 3d
       -0.037057526 -0.059758194 -0.0990291 0.034069717
000030 64 66 c4 3d 89 41 c4 bd 2d ae 40 bd 27 dd 00 be
       0.09589842 -0.09582812 -0.047041107 -0.12584363
000040 e0 0a 29 bd 27 4a 84 3a 00 f0 85 bd b9 12 20 bc
       -0.041270137 0.00100929 -0.06539917 -0.009770089
000050 ce 03 11 3b a9 9a 10 bd bf 3c b7 3d d6 c1 bd bd
       0.0022127512 -0.035303745 0.08947133 -0.09265487
000060 e2 cd 9e 3d 8c a8 a5 3d ee 18 d1 3d 34 89 e1 bc
       0.07754113 0.080887884 0.10209833 -0.027531244
000070 55 18 93 bd 9d 7f 1e 3e 18 83 da bd 93 fb 40 3c
       -0.07182375 0.15478368 -0.106695354 0.01177873
000080 4b bd 1f 3e d5 80 07 be 3a c5 51 3c 73 88 c2 bd
       0.15599553 -0.1323274 0.01280337 -0.09498682
000090 7f 2b cb bd bc 50 fd bc f0 51 d4 bd a6 d2 51 3d
       -0.099204056 -0.030922286 -0.10367191 0.05122628
0000a0 7f 97 9c ba c9 8b 94 3c 8c a8 82 3c 58 4e bb 3d
       -0.0011947005 0.018133061 0.01594951 0.09145802
0000b0 27 8a 2b bd 72 62 b2 3d 58 2f 15 3e e9 0c 15 be
       -0.0418798 0.08710183 0.14568841 -0.14555706
0000c0 de ab 97 3c 63 d0 ba bd 27 59 40 3d cc 3a f6 bd
       0.01851457 -0.09121778 0.046960022 -0.12022933
0000d0 c6 1a 2c bc 2b 0a 9b bb 52 a8 a9 bb 46 e7 8d 3b
       -0.01050443 -0.0047314367 -0.005177536 0.0043305485
0000e0 19 71 c1 3d 23 a0 b3 bc a3 b2 ba bd ba 92 48 3d
       0.094454 -0.021926945 -0.091161035 0.048968054
0000f0 18 d2 8d 3d 97 af ce 3d 17 10 6e bd 36 0d 8b bd
       0.06924838 0.10092085 -0.058120813 -0.06789629
000100 7d d7 ae bd 54 6b 71 3d c8 61 e6 bb 79 0e 7c 3b
       -0.08537195 0.058940247 -0.0070306994 0.0038460775
000110 f4 fa ec 3d 94 ee 27 3e be 72 3c 3c 93 93 2e bd
       0.11571303 0.16399604 0.011501966 -0.042621206
000120 82 8f 3f bd cb 7e fc bd 0c ed f6 3d ec bb 35 bd
       -0.04676772 -0.12328871 0.12056932 -0.04436867
000130 dc 39 ad 3d 3d 36 9c 3d c1 d0 e0 bd 9b b9 fc 3a
       0.084583014 0.07627533 -0.10977317 0.0019281389
000140 6b 07 c5 ba 74 17 1a 3e 69 60 83 3b 2f 16 9b 3d
       -0.0015032118 0.15048009 0.0040092957 0.075725906
000150 ce a6 25 bd 63 e9 bb bd 77 4e d8 bd 45 02 fe bc
       -0.04044228 -0.09175374 -0.10561841 -0.031006942
000160 b9 db 9b bd b1 c1 ba b8 9a 9c 8e bd 20 31 32 3d
       -0.07610268 -8.905249e-05 -0.06963463 0.04350388
000170 91 a1 e7 3c c6 4b 10 bd bc 67 1e 3c 1d 00 4d 3d
       0.028275283 -0.035228513 0.009668287 0.050048936
000180 4d 89 aa 3d d4 e7 6a 3d 06 52 11 be ff b0 ff 3d
       0.08326969 0.057349995 -0.14191446 0.12484931
000190 cd d3 a8 3d 8b 84 29 3d a5 fe 02 be d1 3c 87 bd
       0.08243523 0.04138617 -0.12792452 -0.06603397
0001a0 b2 9f 80 3b fb c7 e4 bd f1 e7 c8 3d a9 c6 82 3d
       0.003925287 -0.11170956 0.09809864 0.06385548
0001b0 66 52 82 bd 7b b1 c5 bd 49 bd b3 3d b6 86 63 bd
       -0.063633725 -0.09652992 0.08776338 -0.055548392
0001c0 86 0f 71 bd ab 55 90 bd 44 78 81 bd 63 d0 85 bd
       -0.058852695 -0.0704759 -0.06321767 -0.06533887
0001d0 37 fb 7b 3d 98 57 fb 3d b0 71 14 bd b0 80 b7 3d
       0.061518874 0.122725666 -0.036241233 0.08960092
0001e0 f0 d2 a1 3d 79 e5 65 bd ea 88 07 3e 9d dc 80 bc
       0.07901561 -0.056127045 0.13235822 -0.015730197
0001f0 0f ce 5a bd d9 1b d8 3d 08 62 52 bb b7 f2 c6 3d
       -0.05341917 0.105521865 -0.0032101888 0.09714263

distance_forces.model.2.weight f4 [128, 128]
000000 14 8a f5 bd d4 23 ad bd 99 80 55 3b 6a 59 cd 3c
       -0.11989227 -0.08454099 0.003257787 0.02506705
000010 94 8d ba bc 6b a6 21 3d 8e 1a bf 3c f6 81 01 3c
       -0.022772588 0.03946535 0.023328092 0.00790452
000020 24 e1 63 3d 65 86 be 3c 66 b6 d6 3a 1d d4 73 bd
       0.055634633 0.023257444 0.0016381263 -0.05952846
000030 c0 d0 f7 3c ef 5e 9a bd 59 f8 07 3c 43 6b ac 3c
       0.030250907 -0.075376384 0.008298957 0.02104724
000040 a1 f3 05 3d 69 57 74 3d 42 e5 a6 bb d1 95 88 3d
       0.032703046 0.059653673 -0.0050932476 0.066692
000050 e4 e9 91 bd b0 ad 33 3c 25 83 92 3d 73 bf 71 3c
       -0.07124689 0.010966703 0.0715392 0.014755118
000060 84 b5 3f bd f0 3d d0 3b 08 bb b8 3d 44 dc ea 3d
       -0.046803966 0.00635504 0.090200484 0.114677936
000070 95 b3 a3 bb 5a 72 03 3e 7b 81 88 bd 63 1a 94 bd
       -0.004995773 0.1283659 -0.066653214 -0.07231595
000080 9b 88 a1 3d 4b cf da bd 2a 74 93 bc 8d 6a 88 bd
       0.078873836 -0.10684069 -0.017999727 -0.06660948
000090 78 29 89 bd 35 9f 8d 3d 97 98 0d 3d 3b 89 cb bd
       -0.06697363 0.06915132 0.03456935 -0.09938284
0000a0 1a 22 a1 bd 63 2b a9 3d e0 0a 9b bc de c7 03 bc
       -0.078678325 0.082602285 -0.018926084 -0.0080432575
0000b0 07 e3 94 bd 4d 1d c0 bd 8a b1 df 3c ac 64 cf 3c
       -0.072698645 -0.09380589 0.027306337 0.025316559
0000c0 e5 21 09 bd 1a 57 1c bb dc f8 ac bd 74 28 f2 bc
       -0.03347959 -0.0023855628 -0.08445904 -0.029560305
0000d0 5a e3 0c 3c 4d b2 9d bd 72 b1 82 bc 1b 87 39 bd
       0.008599127 -0.07700024 -0.015953753 -0.045294862
0000e0 5a 1f 0f 3c 69 7b 06 3e 2e 8c 5f bd ba 67 1b 3e
       0.008735502 0.13133015 -0.054577045 0.15176287
0000f0 62 ba b2 3d ed 1b 9d b9 ff 6a e0 3c 37 01 27 3d
       0.08726956 -0.0002996618 0.02739477 0.040772643
000100 44 33 38 3d bb c3 29 3c 14 28 fe 3d 99 12 81 bd
       0.044970766 0.010361607 0.12409988 -0.06302375
000110 17 e8 8a bc 6a bb ea 3c d1 c4 e2 bc 57 4d 99 ba
       -0.016956372 0.02865382 -0.02768174 -0.0011696023
000120 59 ff 00 bd dc c1 ae bd 6e f4 5b 3d c5 a0 9d 3d
       -0.03149352 -0.085330695 0.053699903 0.0769668
000130 1e 2e 03 3d 25 5f a0 bd 37 c3 1d bd 15 c9 db 3d
       0.032026403 -0.078306474 -0.03851625 0.10731713
000140 e0 7a 99 bd 1d 7c bc 3d ac 66 bf 3c 0a 2f 6a 3e
       -0.0749414 0.0920336 0.023364387 0.22869506
000150 6e b7 b2 bd fd 8b 04 3d 09 76 92 3b 39 98 84 3d
       -0.08726393 0.032360066 0.0044696373 0.06474347
000160 1d 71 c3 3d 1c 62 e8 3d b8 31 a6 3d 18 e8 94 bd
       0.09543059 0.11346838 0.08114952 -0.07270831
000170 93 35 15 3e 54 86 ba bd 8c c3 7e bd 04 43 94 3c
       0.14571218 -0.09107652 -0.062198207 0.018098362
000180 2e ce 1e 3d d0 42 b9 bd 50 4d 53 3c 38 c4 3d 3d
       0.038770847 -0.090459466 0.012896851 0.046329707
000190 77 0a 2f 3d f1 18 fd 3d 35 c5 30 3d d8 4b 71 bd
       0.04273459 0.12358273 0.04315682 -0.05891022
0001a0 c6 6e d2 bc 96 a4 b1 bd 2a 00 6c bd dc aa e1 3c
       -0.025687587 -0.086739704 -0.057617344 0.027547292
0001b0 30 3d 4a bd cc bf 0c bd df 88 71 3c 3f c2 8a 3d
       -0.04937476 -0.0343626 0.014742105 0.06775331
0001c0 2b a4 91 bc 67 bb fa 3c 5e 96 c8 bb fd c3 21 bd
       -0.017778477 0.030606939 -0.006121441 -0.03949355
0001d0 cf 67 c4 3c 06 eb f6 3d f5 94 08 3b 8f 72 0a 3e
       0.023975281 0.12056546 0.0020840738 0.13520263
0001e0 4c 34 b1 3d a9 e0 63 3d 63 e0 9d 3d b3 db 1e 3d
       0.08652553 0.055634174 0.07708814 0.03878374
0001f0 2e 2c e8 bd 9b 8d 5a 3b e5 6f 84 3d d7 62 4e bd
       -0.113365516 0.0033348564 0.06466655 -0.05038723
000200 86 fa c8 bb 7b bb 14 bd 6e 39 f0 bd 4a 4f 2a bd
       -0.0061333803 -0.036311608 -0.11729704 -0.041579522
000210 27 06 62 3c 3b d1 ed 3c a5 bb 0f bd 4c 17 d6 bc
       0.013795412 0.029030433 -0.03509106 -0.026134156
000220 ae 8c 08 3d 03 02 32 bd dd e6 b6 3d 40 d3 66 3d
       0.033337288 -0.04345895 0.089307524 0.056353807
000230 a7 cd b1 3b 89 6d 0b 3c 8e da 32 3d 04 ed 76 bd
       0.005426127 0.008510002 0.04366546 -0.06028463
000240 04 9a f2 3c ac df a5 3d b4 76 9a 3c 2d 20 96 bd
       0.029614456 0.08099303 0.01885543 -0.07330356
000250 35 9b 24 3d 61 68 57 bd 5d 33 6a 3d 2c bd 66 3d
       0.04018708 -0.052589778 0.05717789 0.056332752
000260 89 09 8a bd a1 42 c3 bb f0 9f 22 bc b8 6e e3 bc
       -0.067401 -0.0059588705 -0.009925827 -0.027762756
000270 14 a8 26 3d c8 83 9d bb 46 28 a2 3d 63 98 e2 3c
       0.040687636 -0.0048069693 0.07917838 0.027660554
000280 4e 03 92 3d ef 91 b7 bc bd 31 87 bd fe 60 12 3d
       0.071295366 -0.022408454 -0.06601284 0.03573703
000290 9e 86 4b 3d e1 3c c1 bd 72 60 61 bc 79 04 78 3d
       0.049688928 -0.0943544 -0.0137559045 0.06055114
0002a0 72 bc f9 3c 6f 1a 5f 3b 1c 76 d1 3d ee 8a 13 3d
       0.030485366 0.0034042855 0.10227606 0.036021166
0002b0 bf 89 d4 bd b4 15 f3 3c 88 44 b3 bb e4 3a 41 3d
       -0.103778355 0.029673435 -0.005470816 0.047175303
0002c0 8c 4d 75 bd a7 98 22 3d db 32 6d bd 34 b1 2a bd
       -0.059888408 0.039696362 -0.057909828 -0.0416729
0002d0 ad 6b b7 bc 14 dc c6 bd fc 1b f5 bd 94 e8 94 bd
       -0.022390211 -0.09709945 -0.11968228 -0.07270923
0002e0 04 db 8e bd 4c c8 e0 bd ec 9a 19 bd 29 ea 86 3d
       -0.06975368 -0.109757036 -0.03750126 0.06587631
0002f0 aa 09 b5 3d e0 3f 9b bd a8 78 97 bd 83 12 3d 3d
       0.08839734 -0.075805426 -0.0739606 0.046160232
000300 d0 aa 15 bd df 5e 86 bd bb 3c 51 bd 1d 27 94 3d
       -0.036539853 -0.06561064 -0.051083308 0.07234023
000310 ef 35 31 3d 82 c0 bd bb bb 4f 67 3d 1f e8 b0 bc
       0.043264326 -0.005790771 0.05647252 -0.021595059
000320 18 16 ee 3c 62 23 c2 bd 27 88 14 3c c0 fb c2 bc
       0.02906327 -0.09479405 0.009065664 -0.023801684
000330 3c ce 04 bd 28 a6 8a bc 3a 23 46 3d 92 43 d5 3c
       -0.032423243 -0.016924933 0.04837344 0.026033197
000340 ea 5e c6 bb 9f 49 24 bd 39 90 7e 3d 9b d7 0c 3d
       -0.006053795 -0.040109273 0.06214926 0.034385305
000350 e4 9a 11 3d 96 b2 0c bd 69 6e 08 3b af dc 5c bd
       0.035548106 -0.03435 0.0020817763 -0.053921398
000360 41 7d 40 3d 10 9a 08 3d 87 a3 1b bd 61 ba 9a bd
       0.04699445 0.03335005 -0.03799775 -0.0755508
000370 20 1c 54 bd dd 11 e0 bd 38 db 30 3d 75 e6 15 bc
       -0.051784635 -0.10940907 0.043177813 -0.0091491835
000380 9c a3 9b bd 7a 19 8c 3d 70 be b9 3d 7c 0d df bd
       -0.075995654 0.06840797 0.09069526 -0.10891244
000390 31 19 cf bc d0 69 a6 bd 30 9b 9b 3d 79 01 2a bc
       -0.025280567 -0.08125651 0.07597959 -0.010376328
0003a0 58 e7 64 3d e3 3b 55 bd d9 be 89 bd e8 61 4f 3d
       0.05588469 -0.052059066 -0.067258544 0.05063048
0003b0 df 7e c0 3d f8 8a 90 bd 5c 4e a2 bc 5c 9f 3f 3d
       0.09399199 -0.07057756 -0.019812755 0.046782836
0003c0 b6 83 6a 3d 59 84 12 bd 6f e0 26 bd df 64 e0 bc
       0.057254516 -0.035770748 -0.04074138 -0.02739185
0003d0 5b ee e7 3a d6 53 60 3d 98 fd 97 bd b1 88 f8 3b
       0.0017694937 0.054767452 -0.07421416 0.0075846543
0003e0 15 61 b5 3d 39 22 7b 3b f0 58 10 3d fe a5 a3 3d
       0.088564076 0.003831996 0.035241067 0.07990645
0003f0 0b 05 9d 3d 22 29 b7 bc dc 4b b4 3d a0 23 4a bd
       0.076669775 -0.02235848 0.088035315 -0.04935038

distance_forces.model.2.bias f4 [128]
000000 eb 5c 70 3d 9a cd 89 3c b7 98 5d 3d 13 44 5b 3d
       0.058682363 0.016821671 0.05410072 0.053531718
000010 c1 b7 6e 3d 8a 50 93 3b 6b 72 e7 bc 2e 40 53 3d
       0.05828071 0.004495685 -0.0282528 0.05157488
000020 fb 49 a9 bc be ee 98 3d 1e 21 65 3d 13 18 db bb
       -0.02066516 0.074674115 0.055939786 -0.0066862195
000030 38 4a fe 3c e8 98 da bc 81 c7 1d 3a 5e ab 5f bd
       0.03104125 -0.02668424 0.0006018803 -0.054606788
000040 2b b9 83 3c f4 85 ad 3d 28 7f 3b 3d a0 71 9b 3d
       0.016079506 0.08472815 0.045775563 0.075900316
000050 6f 79 8a bc a1 20 63 bd b3 90 8b bb 7d e2 b8 3d
       -0.016903607 -0.05545104 -0.004259193 0.09027574
000060 fd 36 b4 bc 92 02 8d bd 7c 94 b5 3d 8f b3 1e 3d
       -0.021998877 -0.06885256 0.08866212 0.03874546
000070 3d ec d1 3c 35 1e 00 3e 89 52 93 bd 36 ac 4e bd
       0.025625343 0.12511523 -0.07193477 -0.050457202
000080 b6 dd b1 bd fd ad 73 bd 08 57 c6 3b 6c a3 ee bb
       -0.08684866 -0.0594921 0.0060528554 -0.007282665
000090 4f 35 94 bd 9b 22 fc bc 57 a2 38 3b fd bc 90 3b
       -0.0723673 -0.03077822 0.0028172934 0.0044170604
0000a0 10 35 0d 3d 6b 9c cb bc 19 cb 9c 3d a2 56 cf 3d
       0.034474432 -0.02485486 0.07655925 0.10123946
0000b0 de 61 72 bd 03 dc c4 3c dc 36 15 3d 5a 07 a6 3d
       -0.059175365 0.024030691 0.03642927 0.08106871
0000c0 33 fe bb bc 91 9a 3a bd 5b a2 bb 3d 20 90 0e bd
       -0.02294836 -0.045557562 0.09161826 -0.034805417
0000d0 b6 b2 8b 3b 3f 93 3b bc 70 4d 24 bd df b1 a6 3d
       0.0042632474 -0.01144868 -0.040112913 0.08139395
0000e0 e2 d2 70 3d 72 01 2f 3c 40 da e8 3d 2b 13 95 bd
       0.058794864 0.010681497 0.11369753 -0.072790466
0000f0 8e 13 95 3c dd 6a a9 bd 67 9d d3 3d b3 9c 93 bc
       0.018197801 -0.08272336 0.103327565 -0.018019056
000100 87 ae 5d bc 80 0a 5b bb 5f 05 e1 bc 1f 1a 74 3c
       -0.01353038 -0.0033423007 -0.027468381 0.014898806
000110 39 4f b9 bd aa f0 07 3d 88 27 d2 bc 7a 08 0a 3d
       -0.09048314 0.0331885 -0.025653616 0.03369949
000120 cc 93 91 3d 48 64 84 3d 3b 56 9e 3b 3b 3a d6 3c
       0.07108268 0.0646444 0.004832057 0.026150813
000130 e5 5a b5 bd 7f 6e 4f bb c3 6e 8f bd 8f 5d a8 3c
       -0.088552274 -0.0031651554 -0.07003548 0.020552425
000140 24 56 71 bd 09 c0 5f 3c b9 61 82 bd 71 c5 12 3d
       -0.05892004 0.013656625 -0.06366295 0.035832826
000150 9c d4 a6 3c 34 c0 99 bd 99 73 3c 3d 5c be 70 3d
       0.020365052 -0.07507363 0.04600868 0.05877529
000160 4f e0 a9 bc 25 95 92 3d 8a 6d 1d 3d 88 89 28 3d
       -0.020736841 0.07157353 0.038434543 0.041146785
000170 ed 26 80 3d 1b 72 1b bd e2 87 c5 3d ad 92 87 3d
       0.062574245 -0.037950616 0.09645058 0.06619773
000180 aa fc 99 3c bf 3e 32 3d 46 a3 5d bd 74 38 ce bc
       0.018797237 0.04351687 -0.054110788 -0.025173403
000190 4b 57 e8 3c e6 32 55 bd 15 3e d4 3b 7e c7 5c bd
       0.028361937 -0.052050494 0.0064771273 -0.053901188
0001a0 94 2b 7b bd 6e a7 51 3c 6e 27 07 3d 0a f7 fb ba
       -0.061320856 0.012796266 0.032996587 -0.0019223404
0001b0 6d 36 89 bd 1f 9c 79 3d 75 05 ce 3d a4 27 88 bc
       -0.06699834 0.060939904 0.100596346 -0.016620465
0001c0 d5 3d 0a bc 48 4b 59 3d c2 16 bc 3d 86 e5 91 3d
       -0.0084375935 0.05305031 0.09184028 0.07123856
0001d0 a9 35 8c 3d ff 82 f6 3c bf 2f 89 3c 25 66 61 3d
       0.06846172 0.03009176 0.0167464 0.055029053
0001e0 49 6c 33 3d 0b a6 b9 3b 75 2f 9e 3d dc 07 19 bc
       0.04380444 0.005665546 0.077238955 -0.009340253
0001f0 58 06 5a 3d e8 58 01 bc 26 d6 96 bc 66 8e 4a 3c
       0.053228706 -0.007894732 -0.01841266 0.012363052

distance_forces.model.4.weight f4 [128, 128]
000000 5f f6 9c 3d 9f 1a 98 bd e6 53 48 3c 99 0c 15 bd
       0.07664179 -0.074269526 0.012227034 -0.036388967
000010 21 73 b7 3b c2 7f 01 bd e8 99 87 bd 36 60 ed bc
       0.005598441 -0.03161598 -0.06621152 -0.028976541
000020 41 89 d7 bc 40 b0 c9 bc af ac 92 3d 6b ef 37 3d
       -0.026310565 -0.024620175 0.07161843 0.04490606
000030 9a 0b 58 3d cc ab 97 3c aa ef a1 3d 51 33 81 3d
       0.05274544 0.018514536 0.079070404 0.06308616
000040 00 1f 67 bd 18 bd bd bb 67 18 13 bd c3 1a 85 bd
       -0.05642605 -0.005790364 -0.035911944 -0.06499245
000050 ef 8a 5f 3d 34 0e 7c bd 60 77 4e bd 90 1a 01 3d
       0.054575857 -0.061536983 -0.050406814 0.031519473
000060 c0 37 1c bb b2 8a 76 bd 85 93 d1 bc 78 4f 66 bd
       -0.002383694 -0.060190864 -0.025583038 -0.05622813
000070 42 8d 70 bc c8 f2 4b 3d 80 0d 12 3d a9 4e f1 3c
       -0.014682116 0.04979208 0.035657406 0.029456453
000080 7b 24 66 3d 15 82 e8 bc 46 61 93 bd 8f 14 0c 3c
       0.056187134 -0.02838234 -0.07196288 0.008549823
000090 0b 8f 8c 3d 08 2b 24 3d cd 51 80 bd 02 87 67 3d
       0.06863221 0.0400801 -0.06265602 0.056525238
0000a0 42 06 21 bc 52 97 8e bd cd a9 7c bc 97 a5 86 3b
       -0.009828152 -0.06962456 -0.015421343 0.0041090953
0000b0 c4 3f ed 3c 68 dc b8 bc 02 5d 99 bd 3b fe d5 bd
       0.02896107 -0.022566035 -0.07488443 -0.10448881
0000c0 bb cc 71 bb e5 fe 53 3d 3e 9a 50 bd 20 75 8c 3d
       -0.003689571 0.05175676 -0.050928347 0.06858277
0000d0 9a 98 1f 3d ad 7a 82 3d dc bf 86 bd 33 fa c1 bc
       0.03896389 0.06371055 -0.06579563 -0.023678875
0000e0 e9 0a 59 bd 4e 44 af bc 8d e4 12 bd 82 fc 18 3d
       -0.05298892 -0.021394875 -0.035862494 0.037350185
0000f0 1d 92 26 ba bd 85 9f 3d 11 e2 80 bc 67 a0 e4 bc
       -0.000635417 0.077891804 -0.015732797 -0.027908517
000100 33 c0 36 3d 8b 87 90 3d f6 2d da bd b7 9b 10 3d
       0.04461689 0.07057103 -0.106532976 0.03530475
000110 89 01 1e 3d 5a 96 0d 3d 08 26 9c bd ba 66 ba bd
       0.038575683 0.034567215 -0.076244414 -0.09101625
000120 f2 93 a8 bd aa c3 9f bd 91 2e 43 bd 4a fd 3d 3d
       -0.08231343 -0.07800992 -0.04765183 0.046384133
000130 86 77 0a 3b 89 7b b9 bc 25 a2 98 3d 16 f4 65 3d
       0.002112837 -0.022641914 0.074528016 0.05614098
000140 1d b7 9e bc 81 6d 91 3d 65 28 79 bd 0f 0c 3c 3d
       -0.019374425 0.07100964 -0.06082954 0.045909937
000150 85 fa 17 3d 65 c2 6a 3d 30 01 9f bd ef e0 36 bd
       0.03710415 0.057314295 -0.077638984 -0.044648107
000160 3d cc 10 bd 78 01 81 bd b1 e5 b1 bd a6 3d a4 3c
       -0.035351027 -0.06299108 -0.08686388 0.020048928
000170 74 f6 40 bd eb ce 80 3d d1 11 55 bb c5 eb e1 3c
       -0.047110036 0.062894665 -0.003251184 0.027578244
000180 7c a4 2e 3d 87 dd dd 3c ac 2c 50 3d 97 4d 3b 3d
       0.042637333 0.027083172 0.050823852 0.045728292
000190 c3 1b 67 3d b5 b6 8a 3c db c4 a5 bd 8a c5 17 3d
       0.05642296 0.016932825 -0.08094188 0.037053622
0001a0 80 37 ca ba ec 72 c6 bd 16 7a 4e b8 2e a0 35 3d
       -0.0015427917 -0.09689888 -4.922793e-05 0.044342212
0001b0 b2 04 81 3d b9 af 10 bd 4d fe bc bd 9b ac ae 3c
       0.06299724 -0.035323832 -0.092281915 0.02132254
0001c0 50 d8 f5 bb c0 20 97 bd 2b 37 59 bb d1 0d 12 bd
       -0.007502593 -0.073792934 -0.0033144455 -0.035657708
0001d0 6f 73 05 bd 7e c9 c9 bd df 60 83 bd 72 41 a9 bd
       -0.03258079 -0.09852885 -0.06414961 -0.08264436
0001e0 12 6b 84 3d 5c 6b 10 bd 0f 5a 9e 3c aa 6e d0 3c
       0.064657345 -0.035258636 0.019330053 0.025443394
0001f0 dc 3e 8a 3c 58 98 9f bc bb 92 51 bd 56 4f 19 bd
       0.016875677 -0.019481823 -0.051165324 -0.037429176
000200 03 a1 05 bd bf 0d 34 3c a7 fa 22 bc 80 2d 83 bd
       -0.032624256 0.010989605 -0.0099474555 -0.06405163
000210 ea ad 82 3d a9 80 9d bd 6f 05 d0 3c a0 f0 db 3c
       0.06380828 -0.076905556 0.025393216 0.026848137
000220 4a 75 47 3b d9 71 4b ba b9 5e 7b bd 5d b0 27 bc
       0.00304349 -0.00077608 -0.06136963 -0.010234919
000230 b8 b6 14 bd 60 1c c8 bd 4a f5 79 3d e8 04 42 bd
       -0.036307067 -0.09771037 0.06102494 -0.04736796
000240 a4 e4 07 bc 0d 59 ec 3c d3 10 d9 bd 5d ce b5 3d
       -0.008294258 0.028851056 -0.10598912 0.08877251
000250 30 75 db 3d c6 52 87 3c e8 d1 08 3c a2 65 fa bd
       0.10715711 0.016518962 0.008350827 -0.12226416
000260 47 2e 65 bc 1e ae b0 bd 3f 4d a5 bd 50 81 34 bd
       -0.013988084 -0.0862696 -0.08071374 -0.044068635
000270 84 b1 8d bd 13 db 9e 3d fb cb 76 3c e9 70 5b bc
       -0.06918624 0.07756629 0.015063281 -0.013393619
000280 67 27 9f bd 72 cd 4c bd 86 2e 91 3d 32 da 0e bd
       -0.07771187 -0.050000615 0.07088952 -0.034876056
000290 98 f0 07 bd 6e d0 81 bd 51 e9 85 bd b6 bf 52 bd
       -0.033188432 -0.06338583 -0.06538642 -0.05145236
0002a0 0b d6 65 bd c8 8f 69 bd b1 71 a9 bd 78 ba b2 bc
       -0.05611233 -0.057021886 -0.08273638 -0.02181743
0002b0 be 3f 80 bc 52 ba 62 bd 95 ff 53 bc 21 6a 8d bd
       -0.015655395 -0.05535347 -0.0129393535 -0.06905008
0002c0 23 0e e7 3b f2 ff 5e 3d 2f f0 28 3d dc 07 8d bd
       0.007051246 0.054443307 0.041244682 -0.06886265
0002d0 b8 d6 75 bc 1b 39 9b 3d 4e c3 c7 39 23 c4 0e 3c
       -0.015004806 0.075792514 0.0003810175 0.008713755
0002e0 7d b0 35 bd a1 d7 bc 3d 94 f2 75 bc d5 53 dd 3a
       -0.044357765 0.092208154 -0.015011448 0.0016885946
0002f0 7e 73 f4 3c 49 44 fc 3c d4 c2 34 3d 1d a0 db bc
       0.029840227 0.03079428 0.044131115 -0.026809746
000300 90 1c 40 bd 91 d8 b5 bd ea e9 9c bc d1 94 38 3d
       -0.04690224 -0.088791974 -0.019154508 0.045063797
000310 f2 0f 79 bd d5 41 25 bd 07 b5 91 bc 31 95 81 bc
       -0.060806222 -0.040345985 -0.017786516 -0.01581821
000320 23 1e 14 3d d8 f4 02 bd a9 5b 29 bd a1 6e bd bc
       0.036161553 -0.031971782 -0.04134718 -0.023124041
000330 ca 71 0d bd b9 61 9e bd 27 ff a9 bb 3c 0e 18 3d
       -0.034532346 -0.07733483 -0.005187887 0.03712295
000340 11 d1 86 bd 85 3b ff bd 79 e1 9f bd a8 44 ba bd
       -0.06582845 -0.12462524 -0.07806677 -0.090951264
000350 3a 15 91 bd 15 6d ee 3c a0 7b b8 bd fc e4 6d bd
       -0.07084127 0.029104749 -0.090079546 -0.058079705
000360 20 e4 93 3c 6e 3d 16 bc 15 ae 37 bd 80 d8 82 bd
       0.018053114 -0.009169919 -0.044843752 -0.0638895
000370 48 f7 ce 3c 4f 02 67 bd 45 c3 65 bd 62 7a 0a bd
       0.025264397 -0.056398686 -0.056094427 -0.03380812
000380 e2 96 66 bd 1d 8d 3d 3d c7 b2 78 3c 3a 96 78 bd
       -0.056296237 0.046277154 0.015179343 -0.060690142
000390 4f 4c 36 bd 43 a3 1a bd 6e cd ce bc 75 67 6c 3c
       -0.044506367 -0.037753355 -0.02524444 0.014428963
0003a0 fb e1 8e bd e8 b0 56 3c 50 4f e4 3c fa d3 b2 3d
       -0.06976696 0.013103701 0.02786985 0.087318376
0003b0 3d c2 98 3c a1 39 ad bd d0 de 5a bd c8 14 71 bc
       0.018647308 -0.084582575 -0.053435147 -0.014714427
0003c0 06 86 88 3d 69 9e 2a bb 85 99 73 3d 15 d7 c4 3d
       0.06666188 -0.0026034361 0.05947258 0.09611336
0003d0 b2 d2 38 bd 8e 2e 35 bb da 9d b4 3d fb ac b5 3c
       -0.04512281 -0.0027646157 0.0881917 0.02217721
0003e0 31 bb ee bc 17 8a 45 3d 53 1f 79 3d 38 54 a0 3d
       -0.029141994 0.048227396 0.06082089 0.078285635
0003f0 94 54 b1 bd 61 2b 5e 3d 77 ec d0 3c 48 82 ee 3c
       -0.0865871 0.054240588 0.02550338 0.029114857

distance_forces.model.4.bias f4 [128]
000000 89 41 45 3d ed db 5e 3d d3 7e 30 3c e4 b0 55 bd
       0.048158202 0.054408956 0.010772425 -0.05217065
000010 4a 20 c2 3c 48 36 bd bc 46 b8 cf 3b 86 31 2e bd
       0.023697037 -0.023097172 0.006339106 -0.042527698
000020 0f 6f bf 3d 1a 66 64 bc f3 34 9c bc d9 43 dd bc
       0.093473546 -0.013940359 -0.019068217 -0.027009891
000030 e5 c6 9d bd 92 4a 0b 3d 65 28 1d 3d 62 00 bd 3d
       -0.07703952 0.034006663 0.0383686 0.09228589
000040 9d 52 15 bd 91 87 9c bc 0f 84 05 bc 5e c7 8e bd
       -0.03645574 -0.019107612 -0.008149161 -0.0697162
000050 1a fb 8c bc f8 63 7d bc c9 93 93 bd bc 2e 99 3d
       -0.017209578 -0.015465729 -0.07205922 0.07479617
000060 9f ce 4a bd f3 27 56 bd b1 a9 37 bc 0b ab 19 bc
       -0.049513455 -0.052284192 -0.011209891 -0.009379159
000070 44 c0 8a 3d cb df 47 bd e1 dd 21 bd 67 eb 89 bd
       0.06774953 -0.04879741 -0.03951824 -0.067343526
000080 a8 69 aa 3d ad 41 af bd dd e6 79 3d 78 5b 7e 3d
       0.083209336 -0.085574485 0.061011184 0.06209895
000090 c4 da 92 bd 49 26 8e 3d f2 0d 7b bd 32 92 bb 3d
       -0.071706325 0.06940896 -0.061292596 0.09158744
0000a0 20 f2 4b 3c 7f d9 cc bc d9 30 6d bd 01 ea 51 bc
       0.012447864 -0.025006054 -0.057907913 -0.012812139
0000b0 54 82 aa 3d 1f 95 c0 bd 3d bb 2b 3d e7 55 2e ba
       0.08325639 -0.094034426 0.04192661 -0.00066503737
0000c0 6b d2 96 3c 36 1d 9e bd 1b 33 5e bd 9b 06 a5 bc
       0.018410882 -0.07720415 -0.054247957 -0.020144751
0000d0 65 5e b2 bd f9 98 b2 bd 5c 7a 8c bb 62 9e 15 bd
       -0.087094106 -0.087205835 -0.0042870473 -0.036528
0000e0 3b eb 91 bd 4b 38 da 3c 40 99 5d 3d 97 b1 b3 bc
       -0.07124945 0.02663817 0.05410123 -0.021935267
0000f0 ee 12 58 bc 1a 45 b9 3b e1 f6 3f bd 8c dc 8d 3d
       -0.013188107 0.0056539895 -0.0468663 0.069268316
000100 9d 13 c9 3c b8 3c 1e 3d f4 a7 8a 3c fe 5d 2c 3d
       0.024545485 0.038632125 0.01692579 0.042081825
000110 9e 86 9b 3d f2 99 42 3d da 0c a0 3d 89 04 0c 3d
       0.075940356 0.047510095 0.07814951 0.034184013
000120 5f 0b f9 3c 49 bb 12 3d e2 b8 f6 bc 38 55 3a bd
       0.03040093 0.03582314 -0.030117456 -0.045491427
000130 97 38 f4 bc 5d 11 b2 bc c8 5f 09 bd 95 24 30 3d
       -0.02981214 -0.021736795 -0.03353861 0.043003637
000140 d7 21 d2 3c b3 e6 c3 bd a2 11 b2 bd e6 5d 4a 3d
       0.025650902 -0.09565487 -0.086947694 0.049405955
000150 1c 1c be ba fd 1a 2f 3d 80 bd d3 bc 0e 08 5a 3d
       -0.0014504227 0.042750347 -0.025847197 0.053230338
000160 ec 1a 46 3d 33 1c a4 3d ea 13 bd 3c 26 36 0d 3d
       0.04836552 0.08013191 0.023080785 0.034475468
000170 3d 4d 9c bd 88 28 a3 3d d3 f0 a4 3d 34 10 41 bd
       -0.076319195 0.07966715 0.08053746 -0.047134593
000180 3d a8 98 3c ef 2b c1 bd ad 86 1e 3d 5b 0f a9 bd
       0.01863491 -0.09432208 0.038702656 -0.08254882
000190 5d 32 11 3d c0 b4 8a 3c e2 c9 b4 3c 11 93 29 bd
       0.03544842 0.016931891 0.022068921 -0.04140002
0001a0 02 45 f9 bc 9a f2 a9 bd ed 94 81 bd c9 25 82 bc
       -0.030428413 -0.08298226 -0.063272335 -0.015887158
0001b0 63 1e b3 bc e6 86 59 3d 99 a9 38 3d 70 b3 06 bc
       -0.021865075 0.053107165 0.045083616 -0.008221492
0001c0 a4 23 0b 3c ce 47 5e 38 f2 0f b3 bd 72 86 3f 3d
       0.008492384 5.2995798e-05 -0.08743276 0.046759076
0001d0 53 91 22 3d 15 6f 0c bd 5d e5 31 bd 6a 8a fe bb
       0.039689373 -0.034285624 -0.04343163 -0.007767965
0001e0 55 2b 5d 3d d7 bb 98 bd 32 ba 1c bc 9b 8c 48 bd
       0.053996403 -0.074577026 -0.009565877 -0.048962217
0001f0 a9 d9 9a bb 8e 67 62 3d 24 01 7c bd 7e d2 be 3d
       -0.004725654 0.05527454 -0.061524525 0.09317492

distance_forces.model.6.weight f4 [128, 128]
000000 7e 1a 39 3d 4b 42 12 be 7f 4b 20 3e b1 5d 12 bd
       0.04519128 -0.14283101 0.156538 -0.035733882
000010 05 e4 28 bd ee bc 28 3d 07 0a 0a 3d 09 4d 5e 3d
       -0.04123308 0.041195802 0.03370097 0.054272685
000020 35 ba 0b 3d a6 4e 27 bd c0 fe 24 bd f1 b7 4c 3d
       0.034113128 -0.04084649 -0.04028201 0.049980108
000030 8d e5 aa bd ab c5 26 3e d9 6e a3 3c 39 c5 55 3d
       -0.083445646 0.16286342 0.019950317 0.05219004
000040 7d bc 0c bd 04 5a 1e bb aa 86 f5 3d 0d ef c9 3d
       -0.034359444 -0.002416254 0.11988576 0.098600484
000050 68 2a 65 3d d9 b4 89 3d e9 bb a1 3d 32 e7 85 3d
       0.055948645 0.06723947 0.07897169 0.06538238
000060 66 ed e8 bc 16 49 f5 3c c5 f0 88 3d 13 cd f8 bc
       -0.028433513 0.029942077 0.06686548 -0.030371225
000070 c4 2e 10 3d 87 36 4b bd fc f2 4d 3b aa 6a 14 3e
       0.03520085 -0.04961255 0.0031425348 0.14493814
000080 14 e5 df 3c 8d 6d a5 3d 0b 90 35 bd 23 1b 11 be
       0.027330913 0.08077536 -0.044326823 -0.14170508
000090 81 05 82 3c cc 1d 65 3b db 68 44 3d 4f f4 80 bd
       0.015871765 0.0034960387 0.04795156 -0.06296598
0000a0 27 bc 8f 3d 73 09 9b bc fd 05 84 3d 83 70 5a bd
       0.07018309 -0.018925404 0.06446455 -0.053329956
0000b0 26 0b 8d 3c 0b ff aa bd e3 c2 b1 3c 48 3d 81 39
       0.01721723 -0.08349427 0.021699375 0.00024650455
0000c0 f0 36 b9 3d af 37 a8 bd b1 3e 2a 3d 4e 88 ff bd
       0.090436816 -0.08213746 0.041563693 -0.1247717
0000d0 7f ab 99 3d fd d9 90 bd 4c 61 07 3c 56 4e 6b 3d
       0.075034134 -0.07072828 0.0082629435 0.057447754
0000e0 de 97 d0 bc 2f 21 d8 bc 98 19 10 bc ff 59 c9 bd
       -0.02546304 -0.02638301 -0.0087951645 -0.098316185
0000f0 32 0e 51 3d 60 9a 76 3d 8b de c5 bd 55 a3 5d 3d
       0.05103893 0.060205817 -0.09661587 0.054110844
000100 f6 2b 89 bd 67 ab ba bc 4b 0e 5a 3d 92 e4 0a bd
       -0.06697838 -0.02278681 0.053236287 -0.033909388
000110 7d d3 a3 bd 4b 9d c1 3d 87 b5 3d 3d eb e3 ba 3c
       -0.079993226 0.094538294 0.046315696 0.022813758
000120 48 6a 0d be 54 73 22 bc fc d0 1c 3e f2 cc 0b 3d
       -0.13810074 -0.009915192 0.15314096 0.034130998
000130 e6 43 b0 bd 2a 79 e7 bc aa ed 9d bd f3 2e 7d bd
       -0.086067006 -0.028256018 -0.077113464 -0.061812352
000140 83 95 27 3e 7a 29 5b bd c2 5c 8e 3d cd 64 5a 3d
       0.16365628 -0.053506352 0.06951286 0.053318787
000150 ad 87 6a 3c da 3a 66 bd 72 e4 9c bc 60 d0 e8 3d
       0.014314574 -0.05620847 -0.0191519 0.113678694
000160 e7 16 e2 bc 9f 20 33 bd 3e 7e a4 3d ae ed 17 bd
       -0.027598811 -0.04373228 0.08031891 -0.037091903
000170 70 d2 31 3d d9 f6 7a bd 3a 1b b0 bd 97 b3 71 bd
       0.04341358 -0.06127057 -0.08598943 -0.05900916
000180 96 95 4f bd c5 35 8c 3d 06 82 db 3d 2e 58 a7 3d
       -0.050679766 0.06846193 0.107181594 0.08171116
000190 24 e4 83 3d 43 3a 65 bd 16 84 d2 3c 14 3a f8 bc
       0.06439999 -0.055963766 0.02569775 -0.030301131
0001a0 ab b1 e5 3c bc 45 88 3d 0e e4 d5 3c c0 0d 96 bd
       0.02803882 0.06653926 0.026109722 -0.07326841
0001b0 a3 62 81 bd 66 33 8f 3c fe 2d ea bd 57 b4 8c 3d
       -0.063176416 0.017480563 -0.114345536 0.068703346
0001c0 de 61 02 3e de 5c 97 bd e1 71 da bc ad a4 78 bc
       0.12732646 -0.0739076 -0.02666563 -0.0151759805
0001d0 79 f9 ae 3d de 02 10 3e 79 c3 1c 3d c9 6c a4 bd
       0.08543677 0.14063594 0.038272355 -0.080285616
0001e0 e1 67 d8 3d 48 a8 9b bc c7 d2 f9 3d cb bf 66 bb
       0.10566688 -0.019001141 0.12198406 -0.0035209532
0001f0 57 25 24 3d f9 0f d4 bc 1d 5a 90 bd ad b8 9e bb
       0.040074673 -0.025886523 -0.07048438 -0.0048437924
000200 98 b8 4c 3d aa 5f 46 bd f4 36 4b 3e 75 b4 c8 3c
       0.04998073 -0.048431076 0.19845182 0.024500111
000210 63 38 34 bd 96 48 22 3c 07 ca 94 3d 1b 2c 33 bc
       -0.043999087 0.009905001 0.07265096 -0.0109358085
000220 9e bb bb 3d ae 1f 22 bd 6d 37 43 3d 94 21 1b 3d
       0.091666445 -0.039580993 0.04766028 0.03787382
000230 2e fe 30 bd be 30 5e 3d 1f c6 42 bd 45 90 94 3d
       -0.043211155 0.054245703 -0.047552224 0.0725408
000240 1b 80 7d 3d 85 66 a9 bd 4b 9c b1 3d ec ac 95 3d
       0.06188975 -0.08271507 0.08672389 0.07308373
000250 fe d7 04 be cb 36 44 bd f1 f4 15 3e c4 5e 99 3d
       -0.1297302 -0.047903817 0.14644219 0.07488778
000260 21 5c b8 bc 50 78 63 bd b9 c0 83 bd b5 b9 09 3d
       -0.022504868 -0.05553466 -0.06433243 0.03362437
000270 8e 1c 85 3c 78 2e ab 3d 66 0f e4 3d bc a5 29 3e
       0.016248967 0.083584726 0.111357495 0.16567129
000280 73 ce c4 bd af 6b dc 3c 0c d6 a1 bb 28 1c 16 be
       -0.096096896 0.026906816 -0.0049388465 -0.14659178
000290 5f cc a9 3d 14 8d 1b 3d 44 e3 c1 3d 9c d8 bf 3d
       0.08290934 0.03797634 0.094671756 0.09367487
0002a0 62 dd c2 3d 6f 83 9d bd 28 a9 5c bd 20 9c 88 3d
       0.09514882 -0.076910846 -0.053872257 0.066704035
0002b0 1c e8 29 bd 2f 82 e1 bc cf b3 02 3e 95 62 da bd
       -0.041481122 -0.027527897 0.12763904 -0.10663334
0002c0 97 98 c3 3d ed 2c 97 3c 77 1d 01 3e 5f 66 76 bd
       0.095505886 0.01845404 0.12608896 -0.060156222
0002d0 3e e7 80 3d c5 a8 f1 3a 7a 73 f5 bd 59 5e 58 bd
       0.06294106 0.0018437138 -0.11984916 -0.052824352
0002e0 5b 5f a9 bd b0 1f e6 bc bd 8e 89 3c 05 7e 02 3c
       -0.08270141 -0.028091282 0.016791696 0.007964616
0002f0 bd 1f 54 bd 86 e6 9e 3d b8 1b 02 bc b0 5a f5 bd
       -0.05178808 0.077588126 -0.007941179 -0.11980188
000300 81 bd 14 bc 7d f3 b9 bd d2 fa a9 3c eb 5b af bc
       -0.009078384 -0.09079645 0.020749483 -0.021406135
000310 7b d9 a5 bb ec 63 d6 3d 82 f8 0b 3e 97 ac 7c bc
       -0.005061326 0.10468277 0.13669017 -0.015422008
000320 0f 05 23 bc 12 c1 8e bd 86 72 87 3d 60 4f e5 3c
       -0.0099499365 -0.06970419 0.066136405 0.02799195
000330 dc 2c 56 bd 4a ee c5 bd 21 e7 e3 3c 7e 50 06 3d
       -0.052288875 -0.09664591 0.027820172 0.032791607
000340 ae 6a 81 3d 2c 48 8d bc 83 9c 33 bd 94 61 5a 3d
       0.06319176 -0.017246328 -0.043850433 0.053315714
000350 b2 6d 05 be d6 e8 e5 3c 32 39 b2 bd 42 91 c6 3d
       -0.13030127 0.028065126 -0.087023154 0.096956745
000360 96 95 86 bd 8a dd c9 3c 6f 41 9e 3d ea 31 bf bc
       -0.065715 0.02464177 0.07727324 -0.02333923
000370 16 c5 88 3d 8f 1f f6 bd 16 30 08 be eb f6 1a bd
       0.06678216 -0.12017738 -0.13299593 -0.037833136
000380 4c 77 10 be fd b0 a1 3d 89 19 58 3d d0 af 0d bc
       -0.14108008 0.07895086 0.052758727 -0.008647874
000390 3c d4 74 3d ea 61 8c bd b0 78 30 be ce f0 15 bd
       0.059772715 -0.06854613 -0.17233539 -0.036606602
0003a0 07 5f 85 bd 77 33 9f 3d 13 6e fa 3b ad ba dd bc
       -0.06512266 0.07773488 0.0076425164 -0.027066553
0003b0 36 ff a2 bd 57 9d a1 bd f8 3c b7 bc 29 58 fa 3d
       -0.07958834 -0.07891338 -0.02236794 0.122238465
0003c0 db 0a 44 3e 4d f5 fa 3b 04 0a f3 bc be 58 50 3d
       0.19144766 0.0076586367 -0.029667862 0.05086588
0003d0 ea bd 46 bc aa 42 18 3e 77 51 79 bd df fe 9c bd
       -0.01213024 0.1486918 -0.060868707 -0.076658
0003e0 61 44 bb 3d af f9 9a 3d 4f ff bb 3d 5b 0c a2 bb
       0.091439016 0.075671546 0.091795556 -0.0049453205
0003f0 ed f1 cc bc 30 5f 25 3d 9b 9d 08 3c 28 bd 39 bd
       -0.025017703 0.04037398 0.008338357 -0.04534641

distance_forces.model.6.bias f4 [128]
000000 56 76 ac 3d 5a 66 95 bc 3b 38 c7 3c 7a 15 96 3d
       0.08421008 -0.018237282 0.024318805 0.07328315
000010 05 07 4d bd 9e 3b 8a 3c 05 56 b3 3c 4f 0a b7 bd
       -0.050055522 0.01687413 0.021891603 -0.08937513
000020 b4 42 b7 bd 0f 8d 2b bd 3a 26 b0 bc 7e f2 0f 3d
       -0.089482695 -0.04188257 -0.021502603 0.035143368
000030 42 55 c0 bd 57 d1 08 bd 6d e3 4b bd ab b2 62 3d
       -0.09391262 -0.033402767 -0.049777437 0.055346172
000040 9a 18 01 3d 1c 19 23 3d b3 bc 52 3d 2e 9a c4 3c
       0.031517603 0.039818868 0.05144949 0.0239993
000050 8e 3c 08 3c 9d 40 c7 ba bf 0c 06 bc 87 80 ac 3d
       0.008315219 -0.0015201751 -0.00818175 0.08422952
000060 61 67 92 3d d0 5f 72 bd db 16 42 3d da 80 97 bc
       0.07148624 -0.059173405 0.047385078 -0.018494058
000070 30 58 d5 bb 4b ce e4 3c ad d7 86 3c 37 74 50 3d
       -0.006510757 0.0279304 0.016460264 0.05089208
000080 ca 8c 95 3d be 47 4d bd 70 c6 b1 3c 4f 6b 5e 3d
       0.07302244 -0.050117247 0.021701068 0.054301556
000090 39 41 93 bb 88 0c 88 bc 82 45 93 3d a6 28 16 bd
       -0.004493859 -0.016607538 0.07190992 -0.03665986
0000a0 49 99 e0 3a 16 5a 90 3b d9 9e 30 bd 54 f8 7c 3d
       0.0017135526 0.0044052703 -0.04312024 0.06176026
0000b0 e4 db 84 bd b6 3f 4a 3d fb 99 27 bc 33 66 9e bd
       -0.06487253 0.049377166 -0.010229583 -0.07734337
0000c0 31 7f 82 3b 8c 9c 7a bd b6 d7 9e bc 7d 34 9c bb
       0.0039824476 -0.06118445 -0.019389968 -0.0047669993
0000d0 6e c7 20 bd 0d d3 7c 3d dd 7c c3 bc 96 c7 95 3b
       -0.03925269 0.06172471 -0.02386325 0.0045709116
0000e0 47 53 74 3d 38 11 aa bd 8d e7 6f 3d 59 ed 9f bd
       0.059649732 -0.083040655 0.058570433 -0.07808942
0000f0 13 61 a3 bb db 14 f1 3c 34 e9 77 bc ad 6a 96 bd
       -0.0049859374 0.02942889 -0.015131284 -0.073445655
000100 d4 73 8b bd 26 e6 47 3d c5 ef 29 3d 31 df 61 bd
       -0.06809202 0.04880347 0.041488428 -0.055144493
000110 a5 ae b1 bd 0b cc 84 3c e5 e4 d7 3a db 8b 4e bd
       -0.08675889 0.016210577 0.0016471414 -0.050426345
000120 ea ea d4 bc 7d 88 b3 bc 57 a9 13 3d f5 13 05 bd
       -0.025990922 -0.021915669 0.036050167 -0.032489736
000130 ed 93 04 bb ed b7 01 bb da 49 b8 bc 87 34 6b 3d
       -0.0020229772 -0.0019793466 -0.022496153 0.05742314
000140 1c 9c f7 ba 65 b2 17 bd 3a b2 56 bd 13 04 57 3d
       -0.0018891129 -0.037035365 -0.052416064 0.05249412
000150 3c f0 d8 3c 45 c7 1e 3d 9b 53 b0 bc 0a 19 20 bc
       0.02648174 0.038764257 -0.021524241 -0.009771595
000160 aa 66 33 3d 44 d2 fc 3c b9 98 a3 3d 66 cf bc 3d
       0.04379908 0.030861981 0.07988114 0.092192456
000170 1c 81 a2 bb 54 8c 85 bd a0 ba a4 3d 86 db bc bd
       -0.0049592387 -0.06520906 0.080434084 -0.09221558
000180 7f a1 3b 3d 68 21 69 3d 1f 80 99 bd 4b f8 b0 bd
       0.04580831 0.056916624 -0.0749514 -0.08641108
000190 65 16 a9 bb 52 b9 ad 3d 50 db 98 bd 35 f3 de 3c
       -0.0051601403 0.08482613 -0.074637055 0.02721558
0001a0 5b d6 5b 3d 69 8d 7a 3b 84 bb 86 bd 2f 78 b0 bd
       0.053671222 0.003823126 -0.065787345 -0.08616673
0001b0 02 db 55 3d 28 ac 32 3d 45 9a a3 bd 85 5f 96 3d
       0.052210815 0.043621212 -0.07988409 0.07342438
0001c0 62 00 e8 3c da 36 07 3c 1a 3a ac 3d ea 81 28 3d
       0.028320495 0.008252824 0.084095195 0.04113952
0001d0 4f 85 95 3d f9 58 59 3c 9f d8 9a 3d 17 ba 03 3d
       0.07300817 0.013265842 0.075608484 0.03215989
0001e0 72 36 29 bd 33 c1 22 bc 7d 3c 33 3b e0 dc 7b bd
       -0.04131169 -0.009933758 0.0027349286 -0.06148994
0001f0 62 aa 13 3d 8f 19 d9 3c 82 79 a9 bd cf 6e e6 bb
       0.03605116 0.026501445 -0.08275129 -0.0070322524

distance_forces.model.8.weight f4 [128, 128]
000000 1a d2 17 bd 01 da a3 3d bd a6 25 bd 4b 1a 51 3d
       -0.037065603 0.08000565 -0.040442217 0.051050466
000010 11 31 91 3a a8 d1 64 3d 2c 2b 52 3d 2e f0 8e bd
       0.0011077245 0.055864006 0.051310703 -0.069794044
000020 9e ea aa bc 5c 26 b5 3c 18 90 3d bd 0e 52 2f bd
       -0.020863827 0.022113018 -0.046279997 -0.042802863
000030 3c 43 49 bd 83 1f ad bd 73 6f 23 3d ef 65 e3 bc
       -0.049136385 -0.08453276 0.039901208 -0.027758567
000040 41 d8 7f bd 30 f1 8c bd cd ed 1d 3c 26 9c 90 bc
       -0.062462095 -0.0688194 0.009639216 -0.017652582
000050 d1 94 6e 3d 61 df 97 bd 67 71 7a 3d 59 12 41 3c
       0.05824739 -0.07415653 0.061143305 0.01178416
000060 d2 7e a5 3d 91 a6 03 3c e1 d1 1c bd 40 08 53 bd
       0.0808083 0.008035318 -0.038286094 -0.05152154
000070 10 8b 64 3d 19 31 4a bd 98 c9 65 bd ab 9c 8c bd
       0.055796683 -0.04936323 -0.056100458 -0.068658195
000080 73 9c 78 bd 5d 0d a3 3d 88 de ab 3d 01 1b 90 bd
       -0.060696077 0.07961533 0.08392054 -0.070364006
000090 4f 88 26 3d c9 23 5b bd 3b 0f 05 3d 4c d6 3b bd
       0.040657338 -0.053500924 0.032485228 -0.045858666
0000a0 74 22 81 3c 8a aa f5 bc 2a 69 56 3c 76 e3 b9 ba
       0.015763499 -0.029988546 0.0130865965 -0.0014182169
0000b0 c1 36 79 bd 42 58 26 bd 25 89 54 3d 17 48 98 bd
       -0.060843233 -0.040611513 0.051888604 -0.07435625
0000c0 cd a0 b0 bd e9 17 3b 3d a8 b3 69 3d 93 9d 92 3d
       -0.0862442 0.0456771 0.0570561 0.07158961
0000d0 ef ff 5a bd cb 52 40 bd 9e 49 70 bd 82 0a 9e 3c
       -0.053466734 -0.046953958 -0.058663957 0.01929212
0000e0 0a d6 1a bd 8a 2c 15 bb 9b 9a 6c 3d 79 c6 e4 bc
       -0.03780178 -0.0022762143 0.05776463 -0.02792667
0000f0 ad ee 36 3d 95 d2 2b 3c 01 71 9e 3d fd ad 8b 3d
       0.044661213 0.010487218 0.077363975 0.06820295
000100 22 93 91 bd a7 a0 87 3d 53 08 97 3d a4 51 86 bd
       -0.071081415 0.06622439 0.073746346 -0.065585405
000110 32 28 76 3d 23 15 2f bd 39 b5 8a bc 7f b9 4b 3d
       0.060096927 -0.042744767 -0.016932117 0.04973745
000120 5e 6b 3e bc 3b 8b 2f 3d c3 69 40 3d 12 ce 71 3c
       -0.011622278 0.04285739 0.046975862 0.014758604
000130 26 30 40 bd 32 6a 7b bd 98 04 79 3d 43 3b 68 bd
       -0.046920918 -0.061380573 0.060795397 -0.05669714
000140 d1 6b 8a bd 62 14 33 3d ab f3 b9 3c 9b b5 88 bc
       -0.067588456 0.04372061 0.022699198 -0.016688159
000150 08 ec 73 bd 43 dc c2 bc 69 6a 24 bd ed d4 44 bd
       -0.05955127 -0.02378667 -0.040140543 -0.048054624
000160 5b 2c 91 3d 02 bd 2a 3c 34 04 23 3c 1c 6c 1e bd
       0.07088538 0.01042104 0.009949733 -0.03867732
000170 ce 08 7f 3d 11 6d b4 bd 24 8d a7 bc 63 a1 47 3b
       0.062264256 -0.08809865 -0.020453043 0.0030461184
000180 9a ee 40 bd de 98 31 bd 25 3d 8f 3b 83 1c a7 3d
       -0.04710255 -0.043358676 0.0043713027 0.08159735
000190 57 ea 95 bd 9a df aa bd f3 8b 05 3d 83 7e 84 3d
       -0.073200874 -0.0834343 0.03260417 0.06469443
0001a0 1b 6d 84 3d ba 66 8a 3d 4b 1a 94 bd 29 9b 32 bc
       0.06466123 0.06757875 -0.072315775 -0.010901251
0001b0 5c 65 65 3d d1 3e f1 bc ae 9a a0 bc 99 23 1e 3d
       0.056004867 -0.029448899 -0.019605007 0.038608167
0001c0 9e 61 f4 3c 84 9a 58 3d 9a bf d6 bc e3 9a bc 3c
       0.029831704 0.052881733 -0.02621441 0.023023074
0001d0 fe ad 44 3d 42 b7 b2 3d 4a 3e aa 3d a0 70 a2 bd
       0.048017494 0.0872636 0.08312662 -0.07931638
0001e0 9e 1e 55 3d b5 74 e9 bc 54 b9 ce 3c fd 39 2d bd
       0.052031152 -0.028498033 0.025234856 -0.04229163
0001f0 d5 73 bf 3c 7f 23 e8 bc 7e 5f 59 3c 23 3e 9d bd
       0.023370663 -0.028337238 0.013267396 -0.07677867
000200 a9 ba a9 bd 1b f1 a9 bd c5 8d 01 bd f7 ec 98 bb
       -0.08287556 -0.0829794 -0.031629343 -0.0046669203
000210 a6 48 0e bd 91 5b 07 3d 8a 56 58 bd e1 9e a8 3d
       -0.03473725 0.03304631 -0.052816905 0.08233429
000220 58 d1 90 3c 13 1d 0e 3d f1 bf c6 bb df d8 0f 3c
       0.017677948 0.034695696 -0.0060653617 0.008779733
000230 76 b7 13 bd 56 5a 9b 3d 2c 41 0b 3d 09 88 23 bc
       -0.036063634 0.075855896 0.0339977 -0.009981164
000240 d9 1f 48 bd 58 bb 3a bd 45 d7 a7 3c b1 f3 85 bd
       -0.048858497 -0.04558882 0.02048839 -0.06540621
000250 56 79 9b 3d 82 91 03 3c ef ee 16 3d 78 cb 9d 3d
       0.07591502 0.008030297 0.03684896 0.07704824
000260 40 a3 8c 3c 93 b1 2a 3d 97 b2 17 bd 32 19 1f 3d
       0.017167687 0.041673254 -0.03703555 0.038842387
000270 4c 5b 9e bd 48 aa c5 bc 27 e2 b0 bd 58 bf 96 bc
       -0.07732257 -0.024129048 -0.08636885 -0.018401787
000280 0f fc 47 bd a3 0f aa 3d cd ca 7d 3c a8 a2 a2 3d
       -0.048824366 0.08303764 0.015490246 0.079411805
000290 a6 76 09 3d b2 3a a8 bd 7d f4 66 3d ba 85 53 bd
       0.033560418 -0.0821432 0.056385506 -0.051641203
0002a0 c7 14 81 3d 37 9a b8 3c 4a ad 9f 3d 7e e9 88 3b
       0.06302791 0.022534473 0.07796724 0.004178225
0002b0 3c b0 84 bd 88 bb 5a 3c 79 a8 b3 bd a1 44 b5 3b
       -0.064789265 0.013350375 -0.08772368 0.005531863
0002c0 34 fb 98 bd 92 67 a2 bd 8f 5f 00 bd 36 47 c1 ba
       -0.07469788 -0.07929911 -0.03134113 -0.0014745954
0002d0 5c 23 4e bb 58 a5 c9 bc 63 98 5e bd ab 38 a4 3d
       -0.0031454181 -0.024614975 -0.054344546 0.08018621
0002e0 97 3f ba bd 75 e1 63 bc 80 86 56 bd 1d 50 65 bd
       -0.0909416 -0.013908734 -0.052374363 -0.055984605
0002f0 e2 13 c3 bd 5b 11 44 3c 63 40 d7 bc bf f5 c1 3a
       -0.09525277 0.0119670285 -0.02627582 0.001479797
000300 b2 96 f1 3c f7 b9 59 bc ef ef 16 bd 6e 15 80 bd
       0.029490802 -0.013288966 -0.036849912 -0.062540874
000310 82 b1 95 bd d8 7d 9e 3c 30 02 f7 bc 33 0a f6 bc
       -0.073092476 0.019347116 -0.03015241 -0.03003416
000320 e1 9b ab bc 6c fc c9 3b bd 3c ff 3c 36 40 ba 39
       -0.020948352 0.0061641242 0.031156892 0.00035524525
000330 00 4d 08 bd c1 2d 01 bd 29 e3 a8 3d e1 fb 82 bd
       -0.033276558 -0.031537775 0.08246452 -0.06395698
000340 cf bb 31 3c 5e a8 3c 3d a4 0f ac bd 70 b5 ff 3b
       0.010848 0.046059005 -0.08401421 0.0078036115
000350 b3 2e f0 3c 61 66 bf ba 1a 71 84 bd 65 a3 40 bb
       0.029319143 -0.0014602655 -0.06466885 -0.0029394266
000360 de af e9 3c 7a 3d c1 3c 13 c0 58 3d 46 d6 89 3d
       0.028526243 0.023588885 0.05291755 0.067303225
000370 6a ba 99 bd 08 90 10 3d 1e bc 97 3c c8 d6 98 bd
       -0.07506259 0.03529361 0.018522318 -0.07462841
000380 1c 9c c1 bd 5c 63 84 bc 7c ef ae 3d 8d 61 8a 3d
       -0.094536036 -0.01616066 0.08541772 0.067568876
000390 45 be 43 3c a3 5e 21 3d 02 b8 66 bd 88 93 f5 3c
       0.011947219 0.039396893 -0.056327827 0.029977575
0003a0 84 6f 32 3d d6 58 ac bd f5 1d 91 bd dd 19 b3 3a
       0.04356338 -0.084153816 -0.07085792 0.0013664324
0003b0 f3 1f 5b 3d 50 6f 4c 3b 1a 01 24 3d fb 71 54 bd
       0.053497266 0.0031194277 0.040040113 -0.051866513
0003c0 46 6b 01 bd 35 f7 13 3d da 6a db 3c 07 f0 c7 3b
       -0.031596445 0.036124427 0.02678435 0.0061016115
0003d0 56 60 da bc 60 2c c4 3c 13 32 bd 3c 84 99 7f bd
       -0.026657265 0.02394694 0.023095166 -0.062402263
0003e0 01 e8 c9 bc 17 96 5e bd 5c 39 71 3d f8 02 9b 3b
       -0.02464676 -0.054342356 0.058892593 0.0047305785
0003f0 07 57 ac bd fe 28 a8 3c c0 ce 1e bb 90 8c 6b bd
       -0.08415037 0.02052736 -0.002423212 -0.057507098
