models/current_pot.pt (torch, 617611 bytes, 25 tensors)

distance_forces.model.0.weight f4 [128, 26]
0	0x3e88e8eb	0.26740202
1	0x3d82b196	0.06381528
2	0x3e8355b0	0.25651312
3	0x3db488f1	0.08815182
4	0x3e40325a	0.18769208
5	0xbebaa1f5	-0.36451688
6	0x3e594740	0.21218586
7	0x3dfa7943	0.1223016
8	0x3dd1976c	0.102339596
9	0x3dd5509f	0.10415768
10	0x3e0bb75b	0.13644163
11	0x3e6af46c	0.22944802
12	0xbdfcc9bc	-0.12343165
13	0x3e3baecc	0.18328398
14	0xbe5411ed	-0.20709963
15	0xbe856b0d	-0.26058236
16	0x3d9936df	0.07481169
17	0xbe646094	-0.22302467
18	0x3e4f8ade	0.20267817
19	0xbe79b48d	-0.24385281
20	0x3e70449d	0.23463674
21	0xbeaea327	-0.3410885
22	0xbd9c6dc4	-0.07638124
23	0x3e4e9645	0.20174511
24	0xbe4ab48b	-0.19795434
25	0xbeb75c86	-0.35812777
26	0x3ce0e14f	0.027451186
27	0x3bd22bb4	0.006413901
28	0xbe778f7b	-0.24175827
29	0xbe0fde58	-0.14049661
30	0x3e7cf591	0.24703051
31	0x3dc91306	0.098180816
32	0x3e8b6fcb	0.2723373
33	0x3ccad22e	0.024758425
34	0xbe2c6f70	-0.16839385
35	0xbe776d4e	-0.2416279
36	0x3ebdf861	0.3710356
37	0xbed21d7e	-0.41038126
38	0xbdbdb01e	-0.09262107
39	0x3d059fed	0.03262322
40	0xbc26cbed	-0.010180456
41	0xbe9350f3	-0.28772697
42	0x3d1c1336	0.03810426
43	0xbd64afc6	-0.055831693
44	0x3d70e0cf	0.058808144
45	0xbe6e412d	-0.2326705
46	0xbec1797b	-0.37787995
47	0x3c4bb1f1	0.012432561
48	0x3e0a3675	0.13497336
49	0xbea0a2a3	-0.31374082
50	0xbe0bab03	-0.13639455
51	0xbe8b7bab	-0.2724279
52	0xbe093be9	-0.1340176
53	0xbe044be4	-0.12919575
54	0xbc418dd6	-0.0118136015
55	0xbd8634e8	-0.0655306
56	0xbd945263	-0.072422765
57	0x3dfdbecc	0.12389907
58	0xbe109f42	-0.14123252
59	0xbd99d11d	-0.07510588
60	0xbe2b5ca9	-0.16734566
61	0x3ce3dd0c	0.027815364
62	0xbd414d72	-0.047193
63	0xbd8e93db	-0.06961795
64	0xbdd08dec	-0.101833194
65	0x3d9e095d	0.0771663
66	0x3d068e51	0.032850567
67	0x3e0a0136	0.13477024
68	0x3cc3c14e	0.023895886
69	0xbdd3ed0a	-0.10347946
70	0xbde943a8	-0.113898575
71	0x3dee1d1a	0.116266444
72	0x3e1c1db9	0.15245713
73	0x3e181a3b	0.14853756
74	0x3d6da41d	0.05801784
75	0xbd9224a2	-0.071358934
76	0xbd62efb5	-0.055404384
77	0xbe0e716a	-0.13910452
78	0xbdeee997	-0.116656475
79	0xbdccdb44	-0.10002759
80	0x3e9d0e60	0.3067503
81	0x3dd4923c	0.103794545
82	0x3e168446	0.14698896
83	0x3c396617	0.011315844
84	0x3d6907b9	0.05689213
85	0x3c452873	0.01203357
86	0x3e95fcea	0.2929452
87	0x3d3bc7fa	0.04584501
88	0x3d87d552	0.066324845
89	0x3ddee598	0.10883635
90	0x3d3fce98	0.046827883
91	0x3df8a32b	0.12140497
92	0x3d77d7ab	0.06050841
93	0x3e70add8	0.23503816
94	0x3e25c8f2	0.16189936
95	0xbe7df419	-0.24800147
96	0x3cffd048	0.031227246
97	0x3de3586b	0.11100849
98	0x3e84b802	0.25921637
99	0x3e42ef38	0.19036567
100	0x3dd5f869	0.10447771
101	0x3e040828	0.12893736
102	0xbebd53e7	-0.36978075
103	0x3d03fcfc	0.032223687
104	0xbec91650	-0.39274836
105	0x3eadc05f	0.3393583
106	0xbe8a3594	-0.26994002
107	0xbd984025	-0.074341096
108	0x3c777cc6	0.015105432
109	0x3db0717e	0.08615397
110	0xbe51732a	-0.20454088
111	0x3bd1391f	0.006384983
112	0xbef80ab5	-0.4844567
113	0xbeb5bc76	-0.35495347
114	0x3e6eed96	0.2333282
115	0xbe479f49	-0.19494356
116	0x3e339ee5	0.17541082
117	0x3e37a25f	0.17933033
118	0xbe7a00c8	-0.2441436
119	0xbdef3f05	-0.11681942
120	0xbe1cc486	-0.15309343
121	0xbe49fdbf	-0.19725703
122	0x3e1b713d	0.15179916
123	0xbe2c6407	-0.16835032
124	0xbdfdf295	-0.123997845
125	0x3dac2d6f	0.08407103
126	0xbe6af8e1	-0.22946502
127	0xbd9f5ad7	-0.07780998
128	0x3d3fec7f	0.0468564
129	0xbd10e461	-0.03537405
130	0x3d198b74	0.03748651
131	0xbd55c075	-0.052185494
132	0xbe2a392d	-0.16623373
133	0x3d150f64	0.03639163
134	0x3d07bf27	0.03314128
135	0xbd997401	-0.07492829
136	0xbe17714c	-0.14789313
137	0xbac6232c	-0.0015116683
138	0xbddba595	-0.10724942
139	0x3eb6b464	0.35684502
140	0x3e685e3f	0.22692202
141	0xbe11afa8	-0.14227164
142	0x3cf5406d	0.029937947
143	0xbd8cf56f	-0.0688275
144	0xbe0050ce	-0.12530825
145	0x3d057d60	0.03259027
146	0x3d4b7488	0.04967168
147	0xbcfbbcc4	-0.030729659
148	0x3e93c1f1	0.28858903
149	0xbea3b145	-0.31971183
150	0x3da46fb8	0.08029121
151	0xbeab05a2	-0.33402735
152	0xbea5b8f3	-0.32367668
153	0xbecd0c7b	-0.40048584
154	0xbd857aba	-0.06517549
155	0xbdad58c4	-0.08464196
156	0x3cc27140	0.023735642
157	0xbe9c2d14	-0.30503142
158	0x3d1b71ba	0.037950255
159	0x3df856c5	0.12125925
160	0xbe10076b	-0.1406533
161	0x3d919bd0	0.07109797
162	0xbd583980	-0.05278921
163	0xbe96bbf6	-0.29440278
164	0x3e9f4ffe	0.31115717
165	0xbe33fdeb	-0.17577331
166	0xbe6e6ac8	-0.23282921
167	0x3e69bb07	0.22825252
168	0xbd8c58f3	-0.06852903
169	0x3ee11fe6	0.4396965
170	0xbeb7b9f2	-0.35884053
171	0x3db2d4a6	0.08731966
172	0xbe45496e	-0.19266292
173	0x3e40ed81	0.188406
174	0xbddf8833	-0.1091465
175	0xbea073de	-0.313384
176	0xbd42cc60	-0.04755819
177	0xbde76a8b	-0.11299618
178	0xbe905fa8	-0.2819798
179	0xbe4363a3	-0.19080977
180	0xbde00da5	-0.109401025
181	0xbdaa47b7	-0.0831446
182	0x3e373fbb	0.17895405
183	0xbdee7237	-0.116428785
184	0xbf1402d7	-0.57816833
185	0x3eeedd83	0.46653375
186	0xbe675341	-0.22590353
187	0x3e1d3362	0.15351632
188	0xbeb728f3	-0.3577343
189	0x3dcd1bf1	0.10015095
190	0xbe974e83	-0.29552087
191	0x3e9221a5	0.28541294
192	0x3e0fee3d	0.14055724
193	0x3ddd4f35	0.10806123
194	0xbd72c8d5	-0.05927356
195	0x3e06c31d	0.13160367
196	0xba662a70	-0.00087801274
197	0xbe44f9e9	-0.19235958
198	0x3e45a131	0.19299771
199	0xbc90d20c	-0.017678283
200	0xbe80fa72	-0.25191075
201	0xbe06ffc9	-0.13183512
202	0xbe71cfcb	-0.23614423
203	0x3d171f22	0.036894925
204	0x3b9a57fc	0.0047101956
205	0x3cd85897	0.02640943
206	0x3dcfb2e7	0.10141545
207	0x3e8bca76	0.27302903
208	0x3e29af01	0.16570665
209	0xbe9981ea	-0.2998193
210	0xba28c321	-0.0006437768
211	0xbde95f52	-0.11395134
212	0x3d38f2db	0.04515348
213	0x3b8176cd	0.0039509297
214	0xbd97e9f7	-0.07417672
215	0xbe9b3936	-0.30317086
216	0xbcb97a4c	-0.022641324
217	0xbeb51e21	-0.3537455
218	0xbdbae44f	-0.09125578
219	0x3e545e7f	0.20739172
220	0xbde4cbf3	-0.11171713
221	0x3e911890	0.28339052
222	0xbdfcfb6f	-0.12352645
223	0xbe5c70b9	-0.21527375
224	0x3dba828f	0.09106933
225	0xbde45c58	-0.11150426
226	0xbce36ebd	-0.027762765
227	0xbdcf5463	-0.10123517
228	0xbd9e32cf	-0.07724535
229	0x3ba2ac05	0.004964354
230	0xbe955c39	-0.29171923
231	0x3cc3069e	0.023806866
232	0xbe15383e	-0.14572236
233	0x3e9ff77f	0.31243512
234	0x3e8529f8	0.26008582
235	0xbee71efa	-0.4514082
236	0xbdf964d1	-0.12177432
237	0x3e05fef2	0.13085535
238	0xbda40e66	-0.08010559
239	0xbd50761d	-0.05089389
240	0x3e0e6086	0.13904008
241	0x3de1ec2d	0.11031375
242	0xbe5b5eab	-0.21422832
243	0xbdc4a947	-0.096025996
244	0xbe4daaba	-0.20084658
245	0x3e44588b	0.19174401
246	0x3da24843	0.07923939
247	0x3df58f7e	0.119902596
248	0x3e34481b	0.17605631
249	0xbd1d3239	-0.038377974
250	0x3ddff38d	0.109351255
251	0x3e79f46b	0.24409644
252	0xbe6c226a	-0.23060003
253	0xbdb4e5e6	-0.08832912
254	0x3a8580ff	0.0010185539
255	0xbd54e8c4	-0.051979795

distance_forces.model.0.bias f4 [128]
0	0x3e0ba82e	0.13638374
1	0x3dbcb50c	0.092142195
2	0xbe91cfad	-0.28478757
3	0x3e4af923	0.198216
4	0x3d1e9e79	0.03872535
5	0xbd90e26a	-0.07074435
6	0xbe6ebef0	-0.23315024
7	0x3cf9d90c	0.030499004
8	0xbec5e231	-0.38649133
9	0x3c3e42b3	0.011612582
10	0x3e4c0dbc	0.19927114
11	0xbe140f6c	-0.14459008
12	0xbe3e40a9	-0.18579353
13	0x3da862c5	0.08221964
14	0xbb759ab0	-0.0037476234
15	0xbc14fade	-0.0090930145
16	0xbe42edbb	-0.19036
17	0x3c934678	0.017977938
18	0x3e01507c	0.12628359
19	0xbdf39a02	-0.11894609
20	0xbd4bece8	-0.04978648
21	0xbd2f8fa0	-0.04286158
22	0x3c6a71aa	0.014309326
23	0xbda37ec3	-0.07983162
24	0xbdb79b0d	-0.089651205
25	0xbe6a374c	-0.22872657
26	0xbe8ddfd4	-0.2770983
27	0x3e56d4ea	0.20979658
28	0x3cb6405f	0.022247491
29	0xbe79ac4e	-0.24382135
30	0xbc30fc1d	-0.010802296
31	0xbd2284e2	-0.03967751
32	0x3dfacf35	0.12246553
33	0xbd76d5b2	-0.06026239
34	0x3e024530	0.12721705
35	0xbca5f10f	-0.020256547
36	0xbd4e2edb	-0.050337654
37	0xbd671092	-0.056412287
38	0x3e3bad31	0.18327786
39	0xbdd130a8	-0.102143586
40	0x3e1115a2	0.14168409
41	0xbda2b7e8	-0.079452336
42	0x3ee624ad	0.44949856
43	0xbd1f6a7f	-0.038919922
44	0xbe0cd57a	-0.1375331
45	0xbd9983c3	-0.07495835
46	0xbe2f930e	-0.1714594
47	0xbe5c631d	-0.21522184
48	0xbe0bc9a3	-0.13651137
49	0xbea21159	-0.3165386
50	0xbd4250fa	-0.047440507
51	0xbe5f8cb7	-0.21831022
52	0x3ccdccf9	0.025122153
53	0x3db5dd42	0.08880092
54	0xbc366b69	-0.011134007
55	0xbe83d38f	-0.25747344
56	0x3e12cbf9	0.14335622
57	0xbe85821f	-0.26075837
58	0x3d133ace	0.035944752
59	0xbce88198	-0.028382108
60	0x3d57c1ff	0.052675243
61	0x3b783b5f	0.0037877185
62	0xbe660f01	-0.22466661
63	0x3dd907cd	0.10597191
64	0x3cf82a12	0.030293498
65	0x3dab0796	0.08351056
66	0x3e28a547	0.16469298
67	0xbdd384e4	-0.10328081
68	0xbe98cf91	-0.2984586
69	0xbe4ca78c	-0.19985789
70	0xbe037ea5	-0.1284128
71	0x3e2a6e0b	0.1664354
72	0xbc6a9729	-0.014318266
73	0xbdfcabaf	-0.123374335
74	0xbe34c0f5	-0.17651732
75	0xbe7f10ad	-0.24908705
76	0xbdb9f4af	-0.09079873
77	0xbe6d760a	-0.2318956
78	0xbda22ebb	-0.079190694
79	0xbd7547a9	-0.059882794
80	0x3d5dba4b	0.05413274
81	0xbe80c9cc	-0.2515396
82	0xbc5c39c5	-0.013441508
83	0xbeb4c428	-0.35305905
84	0xbbf120ff	-0.00735867
85	0x3e5ecbdd	0.21757455
86	0xbe7a8a50	-0.24466825
87	0xbe882523	-0.26590833
88	0x3d6a797c	0.057244763
89	0x3dd4cb30	0.103903174
90	0xbe4641b9	-0.19361009
91	0x3dbfa39d	0.09357379
92	0x3d0fea48	0.035135537
93	0x3d39eb4a	0.045390405
94	0xbca0f9f2	-0.019650433
95	0xbd184eed	-0.037184644
96	0xbe1f9de5	-0.15587576
97	0xbd49f9dc	-0.04931055
98	0xbe21e9ea	-0.15811887
99	0x3d2712dd	0.040789474
100	0x3de9396b	0.11387905
101	0x3e3d42d8	0.1848253
102	0xbe9d62f5	-0.3073956
103	0xbd372073	-0.04470868
104	0x3d68d359	0.05684218
105	0xbdfcf7ea	-0.12351973
106	0xbe40c891	-0.1882651
107	0x3cade657	0.021227999
108	0x3deaeaff	0.11470603
109	0xbe0a0b63	-0.13480906
110	0x3e31f576	0.17378792
111	0xbc5566fe	-0.0130250435
112	0xbe446b0d	-0.19181462
113	0x3d38bc32	0.045101352
114	0x3ea6c72b	0.32573828
115	0xbe5b6755	-0.21426137
116	0x3ddcc7ef	0.10780322
117	0xbd487f34	-0.048949435
118	0xbe014b2f	-0.12626337
119	0xbe8d0c83	-0.27548608
120	0x3bf51de4	0.00748037
121	0x3d2ffd80	0.042966366
122	0xbe9b7c50	-0.3036828
123	0x3e44c4bb	0.19215672
124	0xbe8f8caa	-0.28037006
125	0xbe0e4d79	-0.13896741
126	0x3d994c39	0.074852414
127	0xbe5266b8	-0.20546997

distance_forces.model.2.weight f4 [128, 128]
0	0xbe590874	-0.21194631
1	0xbdd838a5	-0.10557679
2	0x3bc6a6ef	0.0060623805
3	0x3c80f5cf	0.01574221
4	0xbe34da34	-0.17661363
5	0xbe092e76	-0.1339663
6	0x3bb59700	0.0055416822
7	0xbdcd4cf7	-0.100244455
8	0xbc6474ed	-0.013943893
9	0xbd3bdc0c	-0.04586415
10	0x3c4527ac	0.012033384
11	0xbdf987f5	-0.12184135
12	0x39d6ec72	0.00040993426
13	0xbe2b3cfb	-0.16722481
14	0x3c624b8d	0.013811958
15	0xbd7788ff	-0.060433384
16	0xbc30f236	-0.010799935
17	0xbdf9c054	-0.12194887
18	0x3ca0160e	0.019541766
19	0xbd34cf1f	-0.04414284
20	0xbd118718	-0.035529226
21	0x3d3957fd	0.045249928
22	0xbd66b8dc	-0.05632864
23	0xbda9fe06	-0.08300404
24	0xbd5051e1	-0.050859336
25	0xbdc6cec2	-0.09707405
26	0xbdb66f5a	-0.089079574
27	0x3ceb1637	0.028697116
28	0x3cbee75c	0.02330368
29	0xbda06ab1	-0.0783285
30	0xbb5f2bd6	-0.0034053228
31	0xbd10e342	-0.03537298
32	0xbdbf0243	-0.09326603
33	0xbdac4235	-0.084110655
34	0xbcc57cef	-0.024107425
35	0xbe591822	-0.21200612
36	0xbda3214b	-0.079653345
37	0xbd8e9e64	-0.06963804
38	0x3cdd4333	0.027009582
39	0x3d8752dd	0.06607602
40	0xbd05d278	-0.03267142
41	0xbd206455	-0.039158184
42	0xbe00c357	-0.12574516
43	0xbd54d6c4	-0.05196263
44	0xbace6165	-0.0015745579
45	0x3d23fcc9	0.040035997
46	0xbe0f4b66	-0.13993606
47	0x3ce06a18	0.02739434
48	0xbd289750	-0.041159928
49	0xbd54f8d3	-0.05199511
50	0xbd61cd14	-0.05512722
51	0xbd030e5f	-0.031996127
52	0xbc56dbaf	-0.0131139
53	0xbd0505d7	-0.032476272
54	0x3d1dd982	0.03853751
55	0xbdd9f47a	-0.10642333
56	0xbe424411	-0.18971278
57	0xbc8864a6	-0.016649555
58	0x3b6a5645	0.0035756987
59	0xbd0410a1	-0.03224242
60	0xbdaba662	-0.083813444
61	0xbd4dbaa9	-0.05022684
62	0xbbafeb16	-0.0053686006
63	0x3cb8042f	0.022462932
64	0xbdeda34d	-0.11603413
65	0xbd55aaf4	-0.052164987
66	0x3bf43911	0.007453092
67	0xbdf5cb29	-0.1200164
68	0xbd5870af	-0.05284184
69	0x3b0ad6c8	0.0021185149
70	0x3d04fdbf	0.032468554
71	0xbc86a8a6	-0.01643784
72	0xbe2426b6	-0.16030392
73	0xbc5f734d	-0.01363833
74	0xbdd17a6b	-0.102284275
75	0xbced2b40	-0.028951287
76	0xbd02978b	-0.031882804
77	0x3ce3a617	0.027789159
78	0x3cb00b16	0.021489661
79	0xbd162627	-0.03665748
80	0xbd3457f8	-0.044029206
81	0x3d852375	0.065009035
82	0xbc85353d	-0.016260738
83	0xbdf54977	-0.11976903
84	0xbe07001d	-0.13183637
85	0xbd6892ba	-0.056780554
86	0x3b840f4c	0.004030144
87	0xbdae2ffc	-0.08505246
88	0xbc316233	-0.010826635
89	0xbe27196b	-0.1631829
90	0x3d636a47	0.055521276
91	0x3d89757b	0.06711861
92	0xbda99b68	-0.082815945
93	0xbd98af23	-0.0745528
94	0xbd74cc86	-0.05976536
95	0x3d155209	0.036455188
96	0x3c481bf9	0.0122137
97	0xbdf1d326	-0.118078515
98	0xbcf4fe0c	-0.029906295
99	0xbd961723	-0.07328632
100	0xbe1376d8	-0.14400804
101	0x3d886750	0.0666033
102	0xbe32a623	-0.17446189
103	0xbdff6110	-0.12469685
104	0xbe042ee4	-0.12908512
105	0xbd953625	-0.07285718
106	0xbd9981e8	-0.07495481
107	0x3d093691	0.033499304
108	0xbe030abd	-0.12797065
109	0xbdc369fd	-0.095417
110	0x3d0d3949	0.03447846
111	0xbe027480	-0.12739754
112	0xbd811886	-0.063035056
113	0x3ddc0400	0.107429504
114	0xbc697944	-0.014250103
115	0x3d2e1495	0.042500097
116	0xbd9c6f19	-0.07638378
117	0xbdd52e92	-0.10409273
118	0x3d1be178	0.03805682
119	0xbde1dac2	-0.11028053
120	0x3b879458	0.004137557
121	0xbdaec027	-0.08532744
122	0x3ce67ebd	0.028136605
123	0xbdad02e5	-0.08447818
124	0xbd512729	-0.051062737
125	0xbd48296f	-0.04886764
126	0x3d1128e4	0.035439387
127	0x3cddab7d	0.027059311
128	0x3c564661	0.013078303
129	0xbde34747	-0.110975794
130	0xbd7d4798	-0.061835855
131	0xbbcd7ac1	-0.006270737
132	0xbd812d48	-0.06307465
133	0x3cd3a617	0.025836034
134	0x3d1d7c42	0.03844858
135	0x3ce393ce	0.02778044
136	0xbc397840	-0.011320174
137	0xbcb1dd41	-0.021711947
138	0xbe1e9354	-0.15485889
139	0xbd064520	-0.032780766
140	0xbdbda845	-0.092606105
141	0x3bc0a207	0.00587869
142	0x3d15b126	0.036545895
143	0xbd25619d	-0.040376294
144	0xbc94c9d1	-0.01816264
145	0xbd136ef3	-0.03599448
146	0x3ddde681	0.10834981
147	0x3d318f36	0.043349467
148	0xbc4a87ca	-0.012361476
149	0x3c98e206	0.018662464
150	0x3d49d16d	0.04927199
151	0x3d83dc58	0.064385116
152	0xbc9a99bf	-0.01887214
153	0xbd8f0338	-0.06983036
154	0x3d99a8ad	0.075028755
155	0xbd1ea12c	-0.038727924
156	0xbb8f62f9	-0.004375812
157	0x3d4fda1b	0.05074511
158	0xbc36bf34	-0.011153985
159	0x3cab180d	0.020885492
160	0x3d5af11e	0.053452604
161	0xbd2ba19b	-0.041902166
162	0xbdf34dc3	-0.11880066
163	0xbc0d6fc6	-0.008632606
164	0x3ba7c498	0.0051198713
165	0x3d2f89f3	0.042856168
166	0xbd04c6e6	-0.032416247
167	0x3db4d7a2	0.08830191
168	0xbc26cf72	-0.010181295
169	0x3d088c64	0.033337012
170	0xbd35ba26	-0.044366978
171	0xbd165efb	-0.036711674
172	0xbdd970b8	-0.106172025
173	0xbd2704bf	-0.04077601
174	0x3d0fdbb9	0.035121653
175	0x3d1b41f0	0.03790468
176	0xbdcdb20d	-0.10043726
177	0x3d91db10	0.07121861
178	0xbd8518ed	-0.06498895
179	0x3cc3d31c	0.023904376
180	0x3d79dd85	0.061002273
181	0xbda450e7	-0.080232434
182	0xbc225ac0	-0.009909332
183	0xbd8f807c	-0.07006928
184	0x3d2f0641	0.042730574
185	0x3cbf668a	0.023364324
186	0xbdc0eab8	-0.09419769
187	0x3d0cf775	0.03441568
188	0xbd5f115a	-0.054459907
189	0xbd4ab9b1	-0.049493495
190	0x3d3b8ed8	0.045790523
191	0xbdda2d7f	-0.10653209
192	0xba8ddaa2	-0.0010822604
193	0xbcab5a35	-0.020917038
194	0xbc338aab	-0.010958354
195	0xbdf143d4	-0.11780515
196	0xbc0c2133	-0.008552837
197	0xbc8d421c	-0.017243437
198	0xbc0388c1	-0.00802821
199	0xbca7ae31	-0.020468803
200	0xbd19109f	-0.037369367
201	0xbcc31059	-0.023811506
202	0xbdbb019c	-0.09131166
203	0x3d063bd5	0.032771904
204	0x3aabacbf	0.0013097747
205	0xbe0a207c	-0.13488954
206	0xbbe1ca05	-0.0068905377
207	0xbd6e110e	-0.058121733
208	0xbd82b157	-0.06381481
209	0xbcc0405f	-0.023468195
210	0xbd39dfca	-0.045379438
211	0xbd60ac3f	-0.054851767
212	0xbce0b84e	-0.027431633
213	0x3cad8da6	0.021185707
214	0xbdd020ac	-0.10162482
215	0xbd955246	-0.07291083
216	0x3bfc2585	0.0076949024
217	0xbcce0486	-0.025148641
218	0x3d6561a8	0.056001335
219	0xbd6c660f	-0.05771452
220	0x3c872033	0.016494846
221	0xbcf5e288	-0.030015245
222	0xbdd3619a	-0.103213504
223	0xbd0f915a	-0.035050727
224	0xbda004d5	-0.07813422
225	0xbdc1789a	-0.09446831
226	0xbd8a6f48	-0.067595065
227	0x3c902393	0.017595088
228	0xbcc4d823	-0.024028843
229	0xbd31251d	-0.043248285
230	0xbc674fe6	-0.01411817
231	0xbd967e90	-0.07348359
232	0x3cfea80a	0.031085987
233	0x3d221a85	0.039576072
234	0x3dd07cf3	0.10180082
235	0x3cfb05f9	0.030642496
236	0xbc57fbae	-0.013182564
237	0xbc9bb76b	-0.019008359
238	0xbdd8713d	-0.105684735
239	0x3bfbe694	0.007687399
240	0xbd4c2bdd	-0.04984652
241	0xbd5976c6	-0.053091787
242	0xbe07ce5e	-0.13262317
243	0x3cb7a40b	0.022417089
244	0xbcf071bb	-0.029351106
245	0xbd98ec61	-0.07466961
246	0xbd7074ca	-0.05870513
247	0x3ce27989	0.027645843
248	0x3d967cf9	0.073480554
249	0xbe0820bd	-0.13293739
250	0xbbb9b378	-0.0056671463
251	0xbdee3ca9	-0.11632664
252	0xbd1417f1	-0.036155645
253	0xbcf8f9bc	-0.03039252
254	0xbc4533c2	-0.012036266
255	0xbc7757d8	-0.015096627

distance_forces.model.2.bias f4 [128]
0	0xbe41ad1a	-0.1891369
1	0xbdcc17bb	-0.09965464
2	0xbb252796	-0.0025200597
3	0xbbd3efef	-0.0064678113
4	0x3e084165	0.13306196
5	0x3e15d378	0.1463145
6	0xb8d8100e	-0.00010302673
7	0xbdae146d	-0.0849999
8	0xbdf2088b	-0.11818036
9	0x3d2d1730	0.04225844
10	0xbdbc7b7a	-0.09203239
11	0x3e8bf5a7	0.27335855
12	0xbe5a734b	-0.21333043
13	0xbd356a3f	-0.044290777
14	0xbc58a596	-0.0132230725
15	0xbe258af0	-0.16166282
16	0xbe17e078	-0.14831722
17	0xbd914cd5	-0.07094733
18	0xbd23ac34	-0.039959148
19	0xbd4c7aa9	-0.049921665
20	0xbdbacf14	-0.09121528
21	0xbe33a27e	-0.17542455
22	0xbe2f530e	-0.17121527
23	0xbd3ff5fa	-0.04686544
24	0xbc282521	-0.0102627585
25	0xbd4220f9	-0.047394726
26	0xbcf6491e	-0.030064162
27	0xbd9f972f	-0.07792508
28	0xbd13e9cd	-0.03611164
29	0xbd999522	-0.07499148
30	0x3f1f3b75	0.622001
31	0xbc9c2c9a	-0.019064236
32	0xbe2c5f3c	-0.16833204
33	0x3e2b799d	0.1674561
34	0x3ea326af	0.3186545
35	0x3e45ed0d	0.19328709
36	0xbdcac01e	-0.09899925
37	0x3cf22ff3	0.02956388
38	0xbde709d9	-0.11281175
39	0xbdb75586	-0.08951859
40	0xbd4c47cf	-0.04987317
41	0xbddfe8c9	-0.10933072
42	0x3dcc092e	0.099626884
43	0xbd8e807e	-0.06958102
44	0xbdfe4423	-0.1241534
45	0x3e84ff6b	0.25976118
46	0xbdcb2db1	-0.09920824
47	0xbd3d2d8e	-0.046186022
48	0x3e84e7b3	0.25958022
49	0xbdedd4ed	-0.11612878
50	0xbe37b04c	-0.17938346
51	0x3e137348	0.14399445
52	0xbdd38683	-0.103283904
53	0xbe1c6bc4	-0.15275484
54	0xbd714b7f	-0.05890989
55	0x3d63bf28	0.055602223
56	0x3efcea13	0.49397334
57	0xbe01b303	-0.12665944
58	0x3e8aa9b6	0.27082604
59	0xbe03b651	-0.12862517
60	0xbdf6ec9c	-0.120568484
61	0xbdb79eec	-0.08965859
62	0x3ba3195d	0.004977389
63	0xbbd95656	-0.0066326065
64	0xbda24fb9	-0.07925362
65	0x3e090325	0.13380106
66	0xbbb52235	-0.0055277594
67	0xbd99d08f	-0.075104825
68	0x3cbc43f7	0.022981627
69	0xbe217f55	-0.1577123
70	0xbde9fc70	-0.11425102
71	0xbe6d2816	-0.23159823
72	0xbde8feb3	-0.11376705
73	0xbe08a994	-0.13345939
74	0xbdc9ef71	-0.09860123
75	0xbd7ccb17	-0.06171712
76	0x3db74aed	0.08949838
77	0xbe3d4e7a	-0.18486968
78	0x3dfc82f0	0.12329662
79	0xbdf7e570	-0.121043086
80	0x3d9445c6	0.07239871
81	0x3e247df7	0.16063677
82	0xbe15779d	-0.1459641
83	0xbe0d62e7	-0.1380726
84	0x3e4776ba	0.19478884
85	0xbdc76201	-0.0973549
86	0xbe5b0ab4	-0.21390802
87	0x3d3f97f3	0.04677577
88	0xbd1c407b	-0.03814743
89	0x3e8e33dd	0.27773944
90	0xbcb6ec85	-0.022329578
91	0x3dec42f6	0.11536209
92	0xbd7740d7	-0.06036457
93	0x3e550b5b	0.20805113
94	0xbd49c92c	-0.049264118
95	0xbde0de87	-0.10979944
96	0x3e86a747	0.26299497
97	0x3e1b140d	0.15144368
98	0xbe3def14	-0.18548232
99	0xbc63957b	-0.013890619
100	0x3eab2772	0.33428532
101	0xbe38b244	-0.18036753
102	0x3e8cf13e	0.27527803
103	0xbd9a7913	-0.07542624
104	0x3df168b9	0.117875524
105	0x3e754565	0.23952253
106	0x3e992267	0.2990906
107	0xbdc22132	-0.09478988
108	0xbdb41a77	-0.0879411
109	0xbe0cc299	-0.13746108
110	0xbc8c6634	-0.017138578
111	0x3e063315	0.13105424
112	0xbe104476	-0.14088616
113	0x3ea77389	0.32705334
114	0xbe1c92b5	-0.1529034
115	0xbdf177c6	-0.11790423
116	0xbda5828f	-0.08081543
117	0x3e6ad941	0.22934438
118	0x3e730a8a	0.23734489
119	0xbd874367	-0.06604653
120	0xbc7d4ee4	-0.0154607035
121	0xbdd036d4	-0.10166708
122	0xbd91f655	-0.07127062
123	0xbd92bd52	-0.07165016
124	0xbdc07d1b	-0.09398862
125	0x3eb92e4f	0.36168143
126	0x3e6bfc7d	0.23045535
127	0x3ef9acea	0.48764735

distance_forces.model.4.weight f4 [128, 128]
0	0xbda1ad77	-0.07894414
1	0x3d4958fb	0.049157124
2	0xbd91e104	-0.071229964
3	0xbd9f3613	-0.07773986
4	0xbcc0119d	-0.023445899
5	0x3da75117	0.081697635
6	0x3dcab05b	0.098969184
7	0xbe3d6bb8	-0.18498123
8	0xbc95121a	-0.018197108
9	0xbc9e74bb	-0.01934277
10	0x3ce5499e	0.027989205
11	0xbcd933b2	-0.026513908
12	0xbc1d2000	-0.009590149
13	0xbdb3c854	-0.08778444
14	0xbc95405d	-0.018219167
15	0xbde36d1d	-0.11104796
16	0x3b480bce	0.0030524614
17	0xbdd26aea	-0.102742985
18	0x3c9cb186	0.019127619
19	0xbdc50534	-0.09620133
20	0xbdc59f1b	-0.096494876
21	0x3d843bd2	0.06456722
22	0x3c0b37f5	0.008497228
23	0xbdd6df28	-0.104917824
24	0xbd7d66a1	-0.061865453
25	0xbc8ca101	-0.017166616
26	0x3cf6c087	0.030121101
27	0x3ce392c4	0.027779944
28	0xbd4e2e2f	-0.050337013
29	0xbcebc7be	-0.028781768
30	0x3e09c78c	0.13455027
31	0xbbc6befe	-0.0060652485
32	0xbd83cab5	-0.06435148
33	0x3de23141	0.11044551
34	0x3d826006	0.06365971
35	0xbe6362f0	-0.2220571
36	0xbe25ce41	-0.16191961
37	0x3d75852d	0.05994146
38	0x3d7cdb4b	0.06173257
39	0xbdf0120d	-0.11722193
40	0xbd8fc750	-0.07020438
41	0xbc7a8f22	-0.015292915
42	0x3df51231	0.1196636
43	0x3dfa70f5	0.12228576
44	0x3ea307b5	0.31841817
45	0x3d98e33c	0.074652165
46	0xbb3e5717	-0.0029043609
47	0x3baf42d2	0.005348542
48	0xbea7ee1c	-0.3279885
49	0x3d8eb0bb	0.069673024
50	0xbd06bbc7	-0.032893922
51	0x3e16d856	0.14730963
52	0x3ca310a7	0.019905401
53	0xbdc6f018	-0.09713763
54	0x3e26fc7d	0.16307254
55	0xbcd9642f	-0.02653703
56	0x3e098622	0.13430074
57	0xbcf8c710	-0.030368358
58	0x3afd8f26	0.001934503
59	0x3da4db45	0.08049635
60	0x3d99f85e	0.075180754
61	0x3e06bf87	0.13159
62	0x3e0509f0	0.12992072
63	0xbd9e8dd3	-0.077418946
64	0xbe1587e4	-0.1460262
65	0x3e0933f6	0.13398728
66	0x3be88988	0.007096473
67	0xbc896b67	-0.016774846
68	0xbb840d5a	-0.004029912
69	0x3d4ac5a1	0.04950488
70	0x3df8db89	0.12151248
71	0x3bf5a5d9	0.007496577
72	0xbcc52623	-0.024066037
73	0xbc27775f	-0.010221331
74	0xbcac5334	-0.021035768
75	0x3d8f30e1	0.06991745
76	0xbd72eb02	-0.059306152
77	0x3c746120	0.0149157345
78	0x3dc412d1	0.095739014
79	0x3dd3cf3b	0.103422605
80	0xbcd8da04	-0.026471145
81	0x3a247c06	0.00062745844
82	0x3db61704	0.08891109
83	0xbc883f16	-0.016631644
84	0x3e0321c4	0.1280585
85	0x3de7ecbb	0.1132445
86	0xbe0859be	-0.13315484
87	0xbd40d706	-0.047080062
88	0xbc88f179	-0.016716706
89	0x3b489acc	0.0030609844
90	0x3d6f2b20	0.058390737
91	0x3e2e9e93	0.17052679
92	0x3e87a652	0.2649408
93	0x3cb425c3	0.021990662
94	0x3eb3539e	0.35024732
95	0xbdb4d1a0	-0.08829045
96	0x3d94bfa6	0.072631165
97	0x3d3fdeaa	0.04684321
98	0xbdc35839	-0.095383115
99	0x3d45c7ea	0.048286356
100	0x3d5c4f00	0.053786278
101	0x3d869ba2	0.06572653
102	0x3dba688d	0.09101973
103	0x3e08ed22	0.13371709
104	0x3d4e96cd	0.050436784
105	0xbcdc2038	-0.026870832
106	0x3c0ca23d	0.0085836025
107	0x3d2345df	0.039861556
108	0x3c79eeaf	0.0152546605
109	0x3d934362	0.071905866
110	0x3d38a569	0.045079622
111	0xbdc777b1	-0.09739626
112	0x3ca35b6c	0.019941054
113	0xbc6f50b5	-0.014606644
114	0xbcea4874	-0.028599001
115	0x3e04de24	0.12975365
116	0x3d81e9fc	0.06343457
117	0x3d7f5996	0.062341295
118	0x3db5dba9	0.088797875
119	0xbd530258	-0.051515907
120	0xbcc20fdf	-0.023689209
121	0x3c0f0498	0.008729123
122	0x3c5a8a50	0.01333864
123	0x3d4445e9	0.047918234
124	0x3ddd348f	0.108010404
125	0x3dfdbac6	0.1238914
126	0x3d6c9fc8	0.057769567
127	0xbcba5f7b	-0.022750607
128	0x3c58fe8f	0.013244285
129	0x3cf53aa0	0.029935181
130	0x3d8e8126	0.06958227
131	0xbc89c3b9	-0.01681696
132	0xbe11c170	-0.14233947
133	0xbde33b56	-0.11095302
134	0xbc1d18c1	-0.009588421
135	0xbdb3a373	-0.0877141
136	0x3ae667c9	0.0017578538
137	0xbd9372bd	-0.07199619
138	0x3da10448	0.07862145
139	0xbd8375c3	-0.06418946
140	0x3db4efa4	0.0883477
141	0x3c48b6c6	0.012250608
142	0xbb044831	-0.002018463
143	0x3dc9c939	0.09852833
144	0xbdc91078	-0.09817594
145	0xbbf12392	-0.0073589766
146	0x3d0d239b	0.034457784
147	0xbc7ee486	-0.015557414
148	0xbcf4de28	-0.029891089
149	0xbccc2433	-0.024919605
150	0x3d89ac0e	0.0672227
151	0xbd2eed46	-0.04270675
152	0xbcd0c503	-0.025484568
153	0x3cae85f2	0.021304104
154	0x3d8af260	0.067845106
155	0x3c375396	0.011189362
156	0x3d265360	0.040606856
157	0xbc4477b7	-0.011991433
158	0xbe63c360	-0.22242498
159	0xbdc618a9	-0.09672672
160	0xbd21a9f2	-0.039468713
161	0xbdb6a915	-0.089189686
162	0xbd898c49	-0.067162104
163	0xbdbf10ac	-0.09329352
164	0x3d445baa	0.04793898
165	0x3ddeb8cb	0.1087509
166	0x3d97f5ca	0.074199274
167	0x3da12c81	0.078698166
168	0x3deb1399	0.11478347
169	0xbdac1fe1	-0.08404518
170	0xbda56184	-0.0807524
171	0x3ddad970	0.10686004
172	0xbd2244e4	-0.03961648
173	0xbe26443a	-0.16236964
174	0xbc64d612	-0.013967054
175	0x3bed2545	0.007237109
176	0x3b917892	0.004439422
177	0x3deeec81	0.11666203
178	0xbd234087	-0.03985646
179	0xbd1b3cff	-0.037899967
180	0xbb9dae71	-0.004812055
181	0x3d849229	0.0647319
182	0xbe324134	-0.17407686
183	0x3b3bb2b4	0.002864045
184	0xbe2effb5	-0.17089732
185	0x3dbf3d15	0.09337822
186	0xbc69f880	-0.014280438
187	0xbccd42b7	-0.025056226
188	0x3b7f1ac5	0.0038925868
189	0x3da36dde	0.0797994
190	0x3d8f6e42	0.07003452
191	0xbd54ba9a	-0.05193577
192	0x3d3e0de0	0.04639995
193	0xbe5961b8	-0.21228683
194	0x3ce81fe1	0.028335514
195	0xbdacd78b	-0.08439549
196	0xbd185e0b	-0.03719906
197	0xbd7d9ae0	-0.06191528
198	0xbcc011b5	-0.023445943
199	0xbd058590	-0.03259808
200	0x3d8dfc7c	0.06932923
201	0x3b25334a	0.0025207573
202	0xbd623351	-0.05522472
203	0xbd945b2f	-0.072439544
204	0xbdad26e0	-0.084546804
205	0xbd9666f1	-0.07343853
206	0x3ca8b63e	0.020594712
207	0x3c558e35	0.013034393
208	0xbcdd2929	-0.026997166
209	0xbb2aee6e	-0.0026082057
210	0x3d632e01	0.055463795
211	0xbcca2cbd	-0.024679536
212	0xbe1c8a8d	-0.15287228
213	0xbd866e65	-0.06564025
214	0x3c4a43c0	0.012345254
215	0xbdc1e051	-0.09466613
216	0xbdcae14a	-0.09906252
217	0xbdf62795	-0.120192684
218	0xbda3ebae	-0.08003937
219	0xbe044318	-0.12916219
220	0xbdd1eb15	-0.102499165
221	0xbdd03885	-0.1016703
222	0xbd383cd7	-0.044979896
223	0xbd2308e0	-0.039803386
224	0xbdf184d4	-0.11792913
225	0x3d0a996b	0.033837717
226	0x3cccd819	0.025005387
227	0xbcd733f9	-0.0262699
228	0xbe094369	-0.13404621
229	0xbc4f02b0	-0.012634918
230	0xbd3e4b28	-0.046458393
231	0xbde1aa39	-0.110187955
232	0xbe154ef2	-0.14580896
233	0xbdd3f19d	-0.103488185
234	0xbdbe07f0	-0.09278858
235	0xbd834770	-0.0641011
236	0x3db59637	0.08866542
237	0x3dc65696	0.09684484
238	0xbd968bb7	-0.07350867
239	0xbd47a8cf	-0.048744973
240	0x3ad5ea40	0.0016320422
241	0xbd27c229	-0.04095665
242	0xbc609aa6	-0.013708746
243	0xbdad2d95	-0.0845596
244	0xbd2600df	-0.040528174
245	0xbe459f35	-0.19299014
246	0xbd4153e6	-0.047199152
247	0x3bd5b312	0.006521591
248	0xbd9341aa	-0.07190259
249	0x3daf33a9	0.08554775
250	0xbdd3aece	-0.10336076
251	0x3c95c45d	0.01828211
252	0x3da1d238	0.07901424
253	0x3cb89619	0.02253251
254	0xbdb4713e	-0.08810662
255	0xbdf8d0a1	-0.12149168

distance_forces.model.4.bias f4 [128]
0	0x3f2ef825	0.6834739
1	0xbd1980d8	-0.03747639
2	0xbdbda0f9	-0.09259219
3	0x3e05aa40	0.13053226
4	0xbced418c	-0.02896192
5	0x3ea14ed3	0.3150545
6	0x3e99b5c8	0.300215
7	0xbdb06004	-0.086120635
8	0xbe2cc76f	-0.16872953
9	0x3c0acefe	0.008472202
10	0xbd8da40a	-0.069160536
11	0x3f1e5dce	0.61861885
12	0xbde808c5	-0.11329798
13	0x3ed3ffc9	0.41406086
14	0x3f47aa5c	0.7799432
15	0x3c8b6803	0.01701737
16	0xbd1327fb	-0.0359268
17	0xbdf13143	-0.11776974
18	0x3d05157e	0.0324912
19	0xbdcfdb21	-0.101492174
20	0xbddd4885	-0.10804848
21	0xbd9b8860	-0.07594371
22	0xbd4c9678	-0.049948186
23	0xbda7182e	-0.08158909
24	0xbdd83ce5	-0.1055849
25	0x3f4171ac	0.75564075
26	0x3ed71584	0.42008603
27	0xbe297d88	-0.16551793
28	0xbdc939b5	-0.0982546
29	0xbd6db65f	-0.05803525
30	0xbdc5f243	-0.096653484
31	0xbcdaa545	-0.026690135
32	0x3d6f0ac5	0.05835988
33	0xbd841468	-0.06449205
34	0xbd7bcff3	-0.061477613
35	0x3ee59817	0.44842598
36	0x3f36d1de	0.7141398
37	0xbb9fef8b	-0.0048808507
38	0x3e676325	0.22596414
39	0xbba61612	-0.005068549
40	0x3f043fd8	0.5165992
41	0xbe068d92	-0.13139942
42	0x3d7dc30b	0.061953586
43	0xbc7257e1	-0.01479146
44	0xbe1e4132	-0.15454558
45	0xbdc6ffa6	-0.0971673
46	0xbdcf493c	-0.1012139
47	0x3d1b41e1	0.037904624
48	0x3e4ceb96	0.20011744
49	0xbd19d4fc	-0.037556633
50	0xbce128d7	-0.027485294
51	0x3d493f0e	0.0491324
52	0xbdabe335	-0.08392946
53	0x3e126edc	0.14300102
54	0x39d8d9d2	0.0004136102
55	0x3f3f353b	0.746906
56	0xbe179962	-0.14804605
57	0x3ed676b7	0.41887447
58	0x3f146d66	0.5797943
59	0xbdeb9d18	-0.11504573
60	0xbd79c94d	-0.06098299
61	0x3ec29a13	0.38008174
62	0x3cfb04e9	0.03064199
63	0xbdd03f79	-0.101683564
64	0x3ca08952	0.01959673
65	0x3c9b613d	0.018967265
66	0x3cec66b6	0.02885757
67	0x3ea69813	0.32537898
68	0xbd2ba9f6	-0.041910134
69	0x3e9e5e26	0.30931205
70	0xbc815534	-0.015787698
71	0x3ea028bf	0.31281087
72	0xbe2b046a	-0.16700903
73	0xbcde2842	-0.027118806
74	0xbda6d744	-0.081465274
75	0xbc37c841	-0.011217178
76	0xbd8fbad0	-0.070180535
77	0x3da1e1a2	0.07904364
78	0xbc06013f	-0.008179008
79	0x3db124db	0.08649608
80	0xbde59e2c	-0.112118095
81	0xbd315280	-0.04329157
82	0xbc994050	-0.018707424
83	0xbd866f86	-0.0656424
84	0xbd3f52c4	-0.04670979
85	0x3e050d3b	0.12993328
86	0x3e7306d5	0.23733075
87	0x3ce84f74	0.028358199
88	0xbdbf3d86	-0.093379065
89	0xbd169ebe	-0.036772482
90	0xbe14fe8d	-0.14550228
91	0x3d08fbd4	0.033443287
92	0xbdd959fa	-0.10612865
93	0x3b9a89a5	0.0047161155
94	0xbdac6d51	-0.08419288
95	0x3efa68ae	0.4890799
96	0xbe4d8500	-0.20070267
97	0x3dabf0f7	0.0839557
98	0xbdb380af	-0.08764779
99	0x3cc08093	0.023498809
100	0x3f4f09d8	0.80874395
101	0xbc59ae25	-0.013286148
102	0xbda82579	-0.08210272
103	0xbc3cf180	-0.011532187
104	0x3cc60a7b	0.02417492
105	0x3d0a2d83	0.03373481
106	0x3e1041a4	0.1408754
107	0xbc86c7a5	-0.01645262
108	0x3f381277	0.71903175
109	0xbbc3df9a	-0.005977583
110	0xbdc5f87f	-0.096665375
111	0xbd69a8cf	-0.057045754
112	0x3e79f4fd	0.24409862
113	0x3eb7ac09	0.3587344
114	0xbd4e981c	-0.05043803
115	0xbc1c6f7e	-0.009548066
116	0x3908b11a	0.00013035946
117	0xbd682008	-0.056671172
118	0xbe14c50d	-0.14528294
119	0x3d761ff1	0.060089055
120	0xbb044591	-0.0020183066
121	0x3e3c4128	0.1838423
122	0x3ecceeed	0.40026036
123	0x3d71bfd6	0.05902084
124	0x3cf66845	0.030079016
125	0x3cbbf014	0.022941627
126	0xbd2bd4c8	-0.04195097
127	0xbdae7513	-0.08518424

distance_forces.model.6.weight f4 [128, 128]
0	0x3dc7218e	0.09723197
1	0xbd4ba136	-0.04971429
2	0x3d09385b	0.03350101
3	0xbc955dc5	-0.01823319
4	0x3c7e5465	0.015523051
5	0xbdc518d2	-0.09623875
6	0x3d25fbbf	0.040523287
7	0x3d52d437	0.051471915
8	0x3d9fe525	0.07807378
9	0xbc63b958	-0.01389917
10	0x3cf994b0	0.030466408
11	0xbdc4e5c2	-0.09614135
12	0xbd9bdce3	-0.0761049
13	0xbcfa621c	-0.03056436
14	0xbd02d9fb	-0.031946164
15	0xbbff75cc	-0.007796025
16	0xbdb7dfe2	-0.08978249
17	0xbd253967	-0.040337946
18	0x3d8ab0ba	0.06771989
19	0xbd333c86	-0.04375889
20	0x3d4cfc8d	0.05004554
21	0xbd387c03	-0.04504014
22	0xbdfd947b	-0.12381836
23	0x3a668aa2	0.00087944616
24	0x3c84af0f	0.016196756
25	0xbd63e550	-0.05563861
26	0x3d91d90b	0.07121476
27	0x3db5594e	0.08854924
28	0x3c21ffa0	0.009887606
29	0xbd3fdfaf	-0.04684418
30	0x3b799517	0.003808325
31	0x3d1e542a	0.038654484
32	0x3bc13c2c	0.0058970656
33	0xbd9da61c	-0.076976985
34	0xbc5d89eb	-0.013521652
35	0x3d42e7c5	0.047584314
36	0x3c0f1837	0.008733801
37	0x3d72892c	0.05921285
38	0xbd68e522	-0.056859143
39	0xbdb0433f	-0.08606576
40	0x3ca867e9	0.02055736
41	0xbd3224fc	-0.043492302
42	0x3d274099	0.04083309
43	0xbdbfafe2	-0.09359719
44	0xbd06e904	-0.032937065
45	0xbbfa0def	-0.0076310555
46	0x3b126f48	0.002234416
47	0x3cb381d4	0.021912493
48	0xbd58a2c5	-0.052889604
49	0x3d71fa25	0.059076447
50	0x3c3f8b9f	0.011691003
51	0xbdcd54e1	-0.10025955
52	0x3db635a1	0.08896948
53	0x3d29c7a7	0.04145017
54	0x3cc8b142	0.024498586
55	0xbd722777	-0.059119668
56	0xbd3008ff	-0.04297733
57	0x3d1fe0cc	0.039032742
58	0x3d7db9e5	0.06194486
59	0x3d869505	0.06571392
60	0x3dd9c8a0	0.10633969
61	0xbd68eaaa	-0.056864418
62	0xbdb17474	-0.0866479
63	0x3d49db92	0.049281664
64	0xbd568a13	-0.05237777
65	0xbd8bddc9	-0.068294115
66	0xbd95f77d	-0.07322595
67	0xbdc70cc2	-0.0971923
68	0xbdaa4b1c	-0.08315107
69	0xbd75bff4	-0.059997514
70	0xbd85bd38	-0.06530231
71	0x3c9e99fe	0.019360539
72	0x3c8012d1	0.015633972
73	0x3d2c7079	0.04209945
74	0xbdda6121	-0.10663057
75	0x3d8905ff	0.06690597
76	0xbd87d553	-0.06632485
77	0xbc367ca4	-0.011138115
78	0x3d0615b2	0.032735534
79	0xbcf2c5b0	-0.02963528
80	0xbb9fd843	-0.0048780753
81	0xbb99d5b1	-0.0046946635
82	0xbd891a6c	-0.06694493
83	0x3d407c51	0.046993557
84	0xbd9638fa	-0.07335086
85	0xbdd346ce	-0.10316239
86	0xbd973e2e	-0.07384907
87	0xbcd15b7c	-0.025556318
88	0x3cab9d17	0.02094893
89	0xbd38839b	-0.045047384
90	0xbd64fc9f	-0.05590498
91	0xbd0ac796	-0.033881746
92	0xbcccf593	-0.025019443
93	0x3d008363	0.0313753
94	0xbb74c1f8	-0.003734706
95	0xbd6d20e1	-0.057892684
96	0x3d41857e	0.04724645
97	0xbda27b46	-0.07933669
98	0xbd0834d8	-0.03325352
99	0xbd587a3a	-0.05285094
100	0x3d77b073	0.06047101
101	0x3bb575ec	0.005537739
102	0xbd4ba2e3	-0.049715888
103	0xbdd9a73d	-0.10627601
104	0x3d059051	0.032608334
105	0x3cf97ee7	0.03045602
106	0x3bc9217c	0.006138025
107	0xbd388247	-0.045046117
108	0xbd821904	-0.063524276
109	0x3db960f7	0.09051698
110	0x3d729fef	0.059234556
111	0x3c2076b4	0.009793926
112	0xbd080425	-0.033207078
113	0xbdf3d6ad	-0.119061805
114	0xbdaa9d8c	-0.08330831
115	0xbb42b903	-0.0029712326
116	0xbd685d12	-0.056729384
117	0x3de79ccf	0.11309206
118	0xbd34bdb8	-0.044126242
119	0xbd317242	-0.043321855
120	0xbdb258eb	-0.08708366
121	0xbdc19b59	-0.09453458
122	0x3cc57d98	0.02410774
123	0xbb8a0f7f	-0.004213273
124	0xbd8fc73f	-0.07020425
125	0xbce65769	-0.028117852
126	0x3d850ef2	0.06496991
127	0x3d96ec00	0.07369232
128	0x3de395d3	0.11112561
129	0xbd1497e2	-0.03627766
130	0xbda2afb5	-0.0794367
131	0xbcb73cc7	-0.022367848
132	0xbd2afcd5	-0.041745026
133	0xbd56a414	-0.05240257
134	0xbc9f33ee	-0.019433942
135	0xbda455ee	-0.08024202
136	0x3c52ffc1	0.012878359
137	0x3d94be46	0.07262854
138	0xbd63bab9	-0.055597994
139	0xbcc23a99	-0.023709582
140	0x3d6c844c	0.057743356
141	0x3d2467fb	0.040138226
142	0xbd6385de	-0.055547588
143	0x3cb61bda	0.022230078
144	0xbdd3be41	-0.103390224
145	0xbad27f31	-0.0016059635
146	0xbd9e228d	-0.07721434
147	0xbdcca5fa	-0.09992595
148	0x38ca3437	9.6418364e-05
149	0xbd98efb5	-0.074675955
150	0xbbb3fd8a	-0.0054928707
151	0xbd8ae709	-0.06782348
152	0x3c499adb	0.012304987
153	0xbd88aa24	-0.06673077
154	0xbd12d465	-0.035847086
155	0xbdc02342	-0.09381725
156	0xbd8533cf	-0.06504022
157	0x3c622f2f	0.013805195
158	0x3c7b01c1	0.015320242
159	0xbceb3a2d	-0.028714264
160	0xbd557e14	-0.05212219
161	0x3ce5c10f	0.02804616
162	0xbcea1d8a	-0.028578538
163	0x3c5c1911	0.013433711
164	0x3d4ad192	0.049516268
165	0xbbab7121	-0.005231992
166	0xbcafc8cd	-0.021458054
167	0xbdbf1413	-0.09330001
168	0x3cc8264a	0.02443232
169	0x3cff9be3	0.031202262
170	0xbcd73ef4	-0.026275136
171	0x3dd09ad8	0.10185784
172	0xbd144419	-0.036197755
173	0xbda5084e	-0.080582246
174	0xbca0eec2	-0.019645099
175	0x3d86871b	0.06568738
176	0xbcfb8fb2	-0.030708168
177	0x3daa99aa	0.0833009
178	0xbdc3ae27	-0.09554701
179	0xbd28f575	-0.04124971
180	0x3c099ba4	0.008398924
181	0xbd945264	-0.07242277
182	0xbddfb31b	-0.109228335
183	0xbd92d201	-0.07168961
184	0xbd0fa17f	-0.035066124
185	0x3c056605	0.008141999
186	0xbd4dd4a6	-0.050251625
187	0x3db5d527	0.08878546
188	0xbc5071da	-0.012722457
189	0x3cf488af	0.029850332
190	0xbba19555	-0.004931132
191	0xbd460b89	-0.048350845
192	0x3c7d836d	0.015473229
193	0x3cb3ecec	0.02196356
194	0xbd6fbda8	-0.05853048
195	0xbda56371	-0.080756076
196	0xbc84b6f0	-0.016200513
197	0xbde40472	-0.111336604
198	0xbc5188a4	-0.012788925
199	0xbdd88c7a	-0.10573669
200	0x3da81f3f	0.08209085
201	0x3dbcd5a7	0.092204385
202	0x3d1775e3	0.03697766
203	0x3cb687d8	0.022281572
204	0xbd163119	-0.036667917
205	0x3986abe0	0.00025686529
206	0x3d8f9a49	0.070118494
207	0xbc7f053d	-0.015565214
208	0x3d39633d	0.045260657
209	0x3dce20b6	0.10064833
210	0x3d080aa3	0.03321327
211	0x3d1fcff6	0.039016686
212	0xbdf4dc8c	-0.119561285
213	0x3c10ffe7	0.008850074
214	0x3cedb7fc	0.029018395
215	0xbd40e268	-0.047090918
216	0xbd72be86	-0.05926373
217	0x3da23dd5	0.0792195
218	0xbcd4f52f	-0.025995819
219	0x3dc46e29	0.09591324
220	0x3c751694	0.014958996
221	0xbdb85379	-0.09000296
222	0x3bafc655	0.005364219
223	0xbc9f7464	-0.019464679
224	0xbd7a65c3	-0.061132204
225	0xbde4b625	-0.11167554
226	0x3dcaec80	0.0990839
227	0x3c8ad747	0.016948355
228	0xbdae3d7a	-0.085078195
229	0x3d8a2730	0.06745756
230	0x3d5043e9	0.050846014
231	0xbd3ca533	-0.046055984
232	0xbc05f32b	-0.008175652
233	0xbdc3189d	-0.09526179
234	0xbd1dfa13	-0.038568567
235	0xbd2d0eff	-0.04225063
236	0xbd1c7436	-0.038196765
237	0xbca0753d	-0.019587154
238	0xbd953c36	-0.07286875
239	0xbd880d8a	-0.06643207
240	0xbd702033	-0.058624458
241	0xbde399ec	-0.11113343
242	0xbd1af68d	-0.037832785
243	0x3c657cc3	0.014006796
244	0x3d0f7b1b	0.035029512
245	0x3d9c339a	0.0762703
246	0x3d1394e9	0.036030684
247	0xbd8665b8	-0.0656237
248	0xbd26e8ca	-0.04074935
249	0x3cb53759	0.022121118
250	0x3d0850fa	0.03328035
251	0xbcb0ea08	-0.02159597
252	0xbc7d6513	-0.0154659925
253	0xbcd66376	-0.026170474
254	0x3d7249dc	0.05915247
255	0xbd44889a	-0.047981836

distance_forces.model.6.bias f4 [128]
0	0x3ccab522	0.024744574
1	0x3ca162e9	0.019700484
2	0x3b5c28e5	0.003359371
3	0x3e4d5bf3	0.20054607
4	0xbc8532fc	-0.016259663
5	0xbdc1f110	-0.09469807
6	0x3d117951	0.035516087
7	0xbd9a6097	-0.07537954
8	0xbde0086b	-0.109391056
9	0x3ce8f053	0.028434908
10	0x3e41c5cf	0.18923114
11	0x3ed4de6e	0.4157595
12	0xbbce77c3	-0.006300898
13	0xbd8a9ae8	-0.06767827
14	0x3ea21a75	0.3166081
15	0xbda183e6	-0.07886486
16	0x3f0543ec	0.52056766
17	0xbdd3e617	-0.103466205
18	0xbb893d75	-0.0041882345
19	0xbd9fb3f2	-0.07797994
20	0x3dadf35a	0.08493681
21	0xbcd87eab	-0.026427587
22	0x3eb9bea1	0.3627825
23	0x3c86a8ae	0.016437855
24	0x3d5a411d	0.053284753
25	0xbdb58778	-0.08863729
26	0x3e8280d0	0.254889
27	0xbd004ae8	-0.031321436
28	0x3d319930	0.04335898
29	0xbd6b76ed	-0.057486463
30	0xbdc5270f	-0.096265905
31	0x3d181f2a	0.037139095
32	0x3edbd486	0.4293558
33	0x3c69c2b5	0.014267613
34	0x3e89fa52	0.26948792
35	0xbd61d7c9	-0.05513743
36	0x3f036145	0.51320297
37	0x3e805753	0.25066623
38	0x3cc543dd	0.024080211
39	0xbd804840	-0.062637806
40	0xbcfd9314	-0.030953921
41	0xbdac12ca	-0.08402021
42	0x3f1f0b01	0.62126166
43	0xbd626a1c	-0.055276975
44	0xbd80fc03	-0.062980674
45	0xbc4393f5	-0.011937131
46	0xbd192815	-0.03739174
47	0xbdfd0cfb	-0.123559915
48	0xbd827ef6	-0.06371872
49	0x3dd4d229	0.10391647
50	0x3edfc93e	0.43708223
51	0x3e430237	0.19043814
52	0x3e6fe2d2	0.23426369
53	0x3c09b403	0.008404735
54	0xbcfbc917	-0.030735536
55	0xbdd9122d	-0.1059917
56	0x3d5dd514	0.054158285
57	0x3dffd96c	0.12492642
58	0xbdbc2431	-0.091865905
59	0x3ef054e7	0.46939775
60	0x3e85046d	0.2597994
61	0x3d401b89	0.04690126
62	0x3e906e62	0.28209215
63	0xbbabd6ab	-0.0052440963
64	0x3e933e8e	0.28758663
65	0x3ddffb08	0.10936552
66	0xbd0ea641	-0.03482652
67	0xbda9f620	-0.08298898
68	0xbddc6c6b	-0.107628666
69	0x3e3652ff	0.17805098
70	0x3c68b562	0.014203401
71	0xbd305161	-0.04304636
72	0xbdcfa035	-0.10137979
73	0x3f20f622	0.6287557
74	0x3f15bb32	0.5848876
75	0x3d1470f5	0.036240537
76	0x3f1009c6	0.56264913
77	0x3d3f7eb6	0.0467517
78	0xbd7e77d6	-0.062126003
79	0xbd0adb05	-0.03390028
80	0xb9bc43b1	-0.00035908588
81	0x3d119715	0.035544474
82	0xbdcc3972	-0.09971894
83	0x3d1e6e94	0.038679674
84	0xbd91328c	-0.07089719
85	0xbd5d651d	-0.054051507
86	0xbd860858	-0.0654456
87	0x3c1ef893	0.009702819
88	0xbd4a8430	-0.04944247
89	0xbca02957	-0.019550962
90	0x3d6fb1f1	0.058519308
91	0x3e8d12a7	0.27553293
92	0x3d451e9e	0.048124902
93	0x3ed2cfa6	0.41174048
94	0x3e91e923	0.28498182
95	0x3f095f30	0.5366087
96	0xbc30c5aa	-0.010789314
97	0xbc631d90	-0.013862029
98	0xbdfa1dc5	-0.12212709
99	0xbc6167af	-0.01375763
100	0xbd34be6b	-0.04412691
101	0x3ea8fb33	0.3300415
102	0x3e69b4a1	0.2282281
103	0x3d109bb3	0.035304736
104	0xbccd75a1	-0.025080504
105	0xbcbff4bd	-0.02343213
106	0xbd008a5a	-0.031381942
107	0xbda66f1d	-0.08126662
108	0xbdc1bcd2	-0.09459843
109	0xbcc783a2	-0.02435476
110	0x3d642282	0.05569697
111	0x3e48b9d0	0.19602132
112	0xbe02522e	-0.12726662
113	0xbd08b41f	-0.0333749
114	0x3ea701cb	0.32618555
115	0x3f122020	0.5708027
116	0xbd75fae6	-0.06005373
117	0x3e847a86	0.25874728
118	0x3c45ed1d	0.012080458
119	0x3b30e766	0.0026993393
120	0xbd7a2789	-0.06107286
121	0xbd9cf5df	-0.07664084
122	0x3d5fd265	0.054644007
123	0x3e831aaa	0.2560628
124	0xbd5f9d8b	-0.054593604
125	0xbc5a9fee	-0.013343794
126	0x3e82b989	0.25532177
127	0xbc76c59a	-0.01506176

distance_forces.model.8.weight f4 [128, 128]
0	0x3d9722d7	0.07379692
1	0xbd05f2bf	-0.032702204
2	0xbd8275ad	-0.06370101
3	0xbd35e226	-0.044405125
4	0x3c8b3bc6	0.016996276
5	0xbd1989b3	-0.037484836
6	0x3d80344d	0.062599756
7	0x3db2be4e	0.08727704
8	0xbd8827a5	-0.066481866
9	0xbd5d9f14	-0.054106787
10	0x3d4eeb58	0.05051741
11	0xbddfa1d9	-0.10919542
12	0xbd799376	-0.060931645
13	0xbc6c0b5b	-0.014407004
14	0xbde8839a	-0.11353226
15	0x3d069271	0.0328545
16	0x3cc25dfd	0.023726458
17	0x3c46e5eb	0.012139778
18	0xbd23410c	-0.039856955
19	0x3d73fc4c	0.05956678
20	0x3db27b3f	0.087149136
21	0x3d271ab9	0.04079697
22	0x3d422d75	0.047406632
23	0xbdaa7d4c	-0.0832468
24	0xbd8c96ff	-0.06864738
25	0x3d7d3f40	0.061827898
26	0xbd95872d	-0.07301173
27	0xbd2990be	-0.041397803
28	0xbcc3722b	-0.02385815
29	0x3d6a99b4	0.05727549
30	0x3d83c2e5	0.064336576
31	0x3b730eec	0.0037087752
32	0xbda721b1	-0.08160723
33	0xbd985b80	-0.07439327
34	0xbd807072	-0.06271447
35	0x3c31694a	0.0108283255
36	0xbc189f54	-0.009315331
37	0x3d2d46ef	0.042303976
38	0xbd574f9d	-0.05256616
39	0xbd930c82	-0.0718012
40	0x3d359237	0.044328894
41	0x3cde9315	0.027169744
42	0xbd81a600	-0.0633049
43	0x3d2b0e5c	0.04176174
44	0x3d10b539	0.035329077
45	0x3da0e65a	0.07856436
46	0x3c818b65	0.015813539
47	0xbca14a5a	-0.019688774
48	0x3c56ee5d	0.013118354
49	0xbdb32e9d	-0.08749125
50	0xbda20042	-0.079102054
51	0xbbb13b6e	-0.005408696
52	0xbd990262	-0.074711576
53	0xbd9d6c23	-0.07686641
54	0xbcc47f95	-0.023986617
55	0x3cd49021	0.025947632
56	0xbb2a8487	-0.0026018934
57	0xbc862418	-0.016374633
58	0x3d91df31	0.071226485
59	0x3c935dd3	0.017989075
60	0x3c2223a6	0.009896195
61	0x3d9971a9	0.07492382
62	0x3af99f9f	0.0019044763
63	0x3cef9a44	0.029248364
64	0x3d241a6c	0.04006426
65	0xbd27aaed	-0.040934492
66	0xbcb5353b	-0.022120109
67	0xbb820c9f	-0.0039687897
68	0xbdaab927	-0.08336096
69	0xbcf011e7	-0.029305412
70	0xbb7da1e7	-0.0038701238
71	0xba9f12fc	-0.0012136395
72	0x3d3b5cd2	0.045742817
73	0xbd1c8503	-0.038212787
74	0xbcc8040b	-0.02441599
75	0x3d9cd476	0.07657711
76	0xbda098b8	-0.07841629
77	0x3cccf5d7	0.02501957
78	0xbd8b1e17	-0.067928486
79	0xbda23e00	-0.07921982
80	0xbd3744b6	-0.044743262
81	0x3d1ae681	0.037817482
82	0x3cddee76	0.027091246
83	0xbda87f8c	-0.08227453
84	0xbd599385	-0.0531192
85	0x3d113221	0.035448197
86	0xbcdc6e42	-0.026908044
87	0xbd20b1fb	-0.039232235
88	0xbc41ee41	-0.011836589
89	0xbd483ad5	-0.04888423
90	0xbc70b483	-0.014691475
91	0xbd9689bf	-0.07350492
92	0xbd447df4	-0.04797168
93	0xbcc944c8	-0.02456893
94	0xbca2c597	-0.019869609
95	0xbdf3785f	-0.11888193
96	0xbd3c6ae7	-0.046000388
97	0xbd68725c	-0.056749687
98	0x3d8466a9	0.06464893
99	0xbc34339a	-0.010998631
100	0x3d750936	0.059823237
101	0xbdbeda1b	-0.09318944
102	0x3c6cf11c	0.014461782
103	0x3d9cc8e6	0.07655506
104	0xbc33141e	-0.010930089
105	0x3dad1909	0.08452041
106	0xbc90573c	-0.017619722
107	0xbd636ec9	-0.055525575
108	0xbcd7c3b6	-0.02633844
109	0x3d3a1724	0.045432225
110	0xba3a3a8d	-0.00071040617
111	0xbd0e8958	-0.03479895
112	0x3d1eca96	0.03876742
113	0x3c029c2a	0.007971803
114	0xbdea4d30	-0.114405036
115	0xb9a0234e	-0.00030543882
116	0x3d006d5c	0.031354293
117	0xbd958798	-0.07301253
118	0x3d880e34	0.06643334
119	0x3abf0727	0.0014574275
120	0xbd80fbe9	-0.06298048
121	0xbcb77997	-0.022396846
122	0x3d08d29c	0.033403978
123	0x3b4dd67b	0.0031408358
124	0x3cc5bf69	0.024139123
125	0xbce23bd3	-0.027616417
126	0x3d9fe346	0.07807021
127	0x3cd540ff	0.02603197
128	0xbd082e0b	-0.033247035
129	0x3d26d622	0.040731557
130	0x3d7acd9b	0.061231237
131	0x3bc6c066	0.006065416
132	0x3cd03bb8	0.025419101
133	0xbc811ce9	-0.015760856
134	0x3cca162f	0.024668781
135	0xbd18f9ac	-0.03734748
136	0x3ca3c4a6	0.01999123
137	0xbda0d5a1	-0.078532465
138	0x3d21c341	0.03949285
139	0xbd209396	-0.03920325
140	0x3da0e501	0.07856179
141	0xbad9f626	-0.0016629144
142	0x3cf0a949	0.029377596
143	0x3db1664b	0.08662089
144	0xbd923558	-0.07139081
145	0xbdac7885	-0.08421425
146	0x3d69dfc8	0.05709818
147	0xbab31d0c	-0.0013665273
148	0xbcf6d7bf	-0.030132173
149	0x3c8c6a91	0.017140659
150	0x3c3c12b9	0.011479073
151	0xbc85ae82	-0.016318563
152	0x3d914ff7	0.0709533
153	0xbc4f4bec	-0.0126523785
154	0x3d08ac98	0.033367723
155	0xbcdaaa92	-0.026692662
156	0xbd678adf	-0.056528922
157	0xbc8f4579	-0.017489182
158	0x3c19a344	0.009377304
159	0x3bd05f13	0.00635899
160	0xbd39c0d5	-0.045349915
161	0x3db2d405	0.08731846
162	0xbd6c7566	-0.057729147
163	0xbc9e708d	-0.019340778
164	0xbaa3eb9b	-0.0012506129
165	0xbca2a272	-0.01985285
166	0x3d4e49b5	0.05036326
167	0xbd1b048e	-0.03784614
168	0xbd3e7648	-0.04649952
169	0x3da70358	0.08154935
170	0xbd788cfe	-0.060681336
171	0x3d1cedee	0.038312845
172	0x3d5fb587	0.054616477
173	0x3d25ebed	0.0405082
174	0x3d804e9b	0.06264993
175	0xbc8815c2	-0.016611937
176	0x3a9783fd	0.0011559721
177	0xbdacebd7	-0.084434204
178	0x3cdd3051	0.027000578
179	0xbc3bf577	-0.011472098
180	0xbc6bb8fa	-0.014387364
181	0xbcbb4f9b	-0.022865107
182	0xbd216749	-0.03940514
183	0x3d875742	0.0660844
184	0x3c9a6bcc	0.01885023
185	0x3d0ec3b0	0.03485459
186	0x3d8e7dab	0.06957563
187	0xbd311d58	-0.043240875
188	0xba080086	-0.0005188066
189	0x3d3a43d3	0.04547484
190	0xbd917f1d	-0.07104323
191	0xbc1a43a6	-0.009415543
192	0x3d049bf1	0.03237528
193	0x3d87c6f2	0.06629743
194	0xbc07e591	-0.008294479
195	0xbda62170	-0.081118464
196	0xbd5a02fa	-0.053225495
197	0x3d8ebd25	0.0696967
198	0x3d6b238c	0.057406947
199	0xbcb40352	-0.02197424
200	0x3d2e8a27	0.04261222
201	0x3d5b1cba	0.053494193
202	0xbcbc49ae	-0.022984352
203	0xbd44ace6	-0.04801645
204	0x3d90dd72	0.07073487
205	0xbd846546	-0.06464629
206	0xbda7af16	-0.08187692
207	0x3d78c95c	0.060738906
208	0x3bd9d0f0	0.0066472217
209	0xbcd9420f	-0.026520757
210	0xbd6c2f2d	-0.057662178
211	0xbd5276af	-0.051382717
212	0xbd5a36d9	-0.053274963
213	0xbd15a6b4	-0.036535934
214	0x3da4de24	0.080501825
215	0x3d2ce9ca	0.042215146
216	0xbd9a63f6	-0.07538597
217	0x3d953761	0.07285953
218	0xbd9ff9fd	-0.07811353
219	0x3d0ea323	0.034823548
220	0x3d38fef3	0.045165014
221	0xbd3f8635	-0.04675885
222	0x3d5221b3	0.05130167
223	0xbd099b4f	-0.03359538
224	0xbd95ed00	-0.07320595
225	0xbc61c25b	-0.013779248
226	0x3d08ac8a	0.03336767
227	0x3a21eb4e	0.0006176726
228	0x3da861b1	0.08221758
229	0xbda9a709	-0.082838126
230	0xbc2b96e3	-0.010472986
231	0xbd153e73	-0.03643651
232	0x3ac70146	0.0015182875
233	0x3ce57ac3	0.028012639
234	0xbd1c1944	-0.038110033
235	0x3d4d31cd	0.05009632
236	0x3d989754	0.074507385
237	0x3cb8c9ee	0.022557225
238	0x3dac0ccb	0.084008776
239	0xbd59ce30	-0.05317515
240	0xbd0f7ba8	-0.035030037
241	0x3d6a23f6	0.0571632
242	0x3b6508c3	0.003494785
243	0x3cab9650	0.020945698
244	0x3d2b0ecd	0.041762162
245	0xbd2adb95	-0.041713316
246	0x3d854570	0.06507385
247	0xb998f355	-0.00029172996
248	0xba703a7d	-0.0009163989
249	0x3dae6572	0.08515443
250	0x3d359390	0.04433018
251	0xbdb40db2	-0.08791675
252	0xbd84fcd9	-0.06493539
253	0xbd2dd966	-0.042443655
254	0xbda9f428	-0.08298522
255	0xbd66efc8	-0.056381017
