models/current.pt (torch, 751183 bytes, 29 tensors)

distance_forces.model.0.weight f4 [128, 26]
0	0xbe270f8b	-0.16314523
1	0x3e2bb229	0.16767181
2	0xbde61efd	-0.11236379
3	0x3e211ea6	0.15734348
4	0xbe0c7072	-0.1371477
5	0x3dc98d51	0.09841407
6	0x3db5032d	0.08838496
7	0xbe1ed350	-0.15510297
8	0xbe501a5e	-0.20322558
9	0x3dc56e5e	0.096401915
10	0xbe3f2646	-0.18666944
11	0xbe1a0c55	-0.15043767
12	0xbca3af5b	-0.019981077
13	0x3ddc7003	0.10763552
14	0x3bd3961a	0.0064571025
15	0x3e00b91e	0.12570617
16	0x3e07631a	0.13221398
17	0x3c25b610	0.010114208
18	0xbd845031	-0.06460608
19	0xbcb60ef4	-0.022223927
20	0xbe16181f	-0.14657639
21	0x3dd813cb	0.1055065
22	0xbd313edc	-0.043272838
23	0xbcb2e42a	-0.021837313
24	0xbdcfa1a1	-0.1013825
25	0x3e3f5c51	0.1868756
26	0x3deaf5c5	0.11472658
27	0xbe129ec0	-0.14318371
28	0x3c89aa28	0.01680477
29	0x3e07d2e4	0.13264042
30	0x3d80ec1d	0.06295035
31	0x3dc8c500	0.098032
32	0x3d145380	0.036212444
33	0xbd235ee8	-0.03988543
34	0xbdfc71bd	-0.12326381
35	0xbd6e940c	-0.058246657
36	0xbe0124d8	-0.12611711
37	0xbdc9e809	-0.0985871
38	0xbd73bedc	-0.05950819
39	0x3dce196c	0.100634426
40	0xbc84b88d	-0.016201282
41	0xbe1874f9	-0.14888372
42	0x3e2a91f3	0.16657238
43	0xbb7034c7	-0.0036652551
44	0xbe2ffc0c	-0.17185992
45	0x3da2262e	0.079174384
46	0xbdff222a	-0.12457688
47	0xbe53a9d1	-0.20670249
48	0xbd86ef45	-0.06588606
49	0x3da98ca3	0.082787775
50	0x3bfc57b6	0.0077008856
51	0xbeae6936	-0.34064645
52	0xbd05ef69	-0.032699022
53	0x3ddd01b4	0.107913405
54	0xbdfea503	-0.12433817
55	0x3deb301d	0.11483786
56	0xbdbe3143	-0.0928674
57	0xbcb44357	-0.022004766
58	0xbe17a850	-0.148103
59	0xbb82c99d	-0.0039913193
60	0x3da39e6a	0.079891995
61	0xbe0ccd1c	-0.13750118
62	0x3e09b7ff	0.13449095
63	0xbdb8ab4b	-0.090170465
64	0xbe109b4c	-0.14121741
65	0xbe3d8e60	-0.18511343
66	0xbdc99d58	-0.09844464
67	0xbe01970e	-0.12655279
68	0x3db9fef9	0.09081835
69	0xbd65cc32	-0.05610294
70	0x3e4eaa14	0.20182067
71	0x3d5d1c9b	0.05398236
72	0xbdba8403	-0.091072105
73	0x3e1b7b8c	0.15183848
74	0x3d49aeab	0.049238842
75	0x3d5ede4f	0.05441123
76	0xbd99c24e	-0.07507764
77	0xbe07963c	-0.13240904
78	0xbdb917ae	-0.0903772
79	0xbbe2aca9	-0.0069175554
80	0xbda3637d	-0.0797796
81	0x3e311ca0	0.17296076
82	0xbdddcd60	-0.10830188
83	0xbd3838cb	-0.044976037
84	0xbd64cd3e	-0.055859797
85	0xbddb0ab5	-0.106954016
86	0x3dc99617	0.098430805
87	0x3ddadd9c	0.106868
88	0x3c2ccdb6	0.010547092
89	0xbd98c6cc	-0.074597925
90	0x3d5468ea	0.051857866
91	0x3e09ee3c	0.13469785
92	0x3ddfc8f0	0.10926998
93	0x3e077126	0.13226756
94	0x3dc79ea9	0.09747059
95	0x3db8442e	0.08997379
96	0xbddf77fd	-0.10911558
97	0x3e0b6b3c	0.13615125
98	0xbe0d1aee	-0.13779804
99	0xbc99af95	-0.018760482
100	0x3e26125e	0.16217944
101	0xbca35d20	-0.019941866
102	0x3e0789e1	0.1323619
103	0x3e1f324a	0.15546528
104	0x3e0ca4eb	0.13734786
105	0xbde5a767	-0.1121357
106	0x3e22af72	0.1588724
107	0xbe6cae61	-0.23113395
108	0x3d31fc0b	0.043453258
109	0xbd096fc1	-0.033553842
110	0x3da51d0c	0.08062181
111	0x3d593418	0.053028196
112	0x3c69b4fb	0.0142643405
113	0x3cd70f34	0.026252367
114	0x3e33ac89	0.17546286
115	0xbce55d0b	-0.027998468
116	0x3e1634e3	0.14668612
117	0x3e2e6a21	0.17032672
118	0xbb2fd97f	-0.0026832519
119	0x3c17eb22	0.009272369
120	0x3d8473b0	0.06467378
121	0x3e27aea1	0.1637521
122	0x3d73cddf	0.059522506
123	0x3d616753	0.05503018
124	0x3d06358b	0.032765906
125	0xbdefc2f8	-0.11707109
126	0x3e2ab670	0.16671157
127	0x3bd4a103	0.0064889207
128	0xbe50ef65	-0.20403822
129	0xbd8f8137	-0.07007068
130	0xbe052e3b	-0.13005917
131	0x3d38a409	0.04507831
132	0xbe3cb4c1	-0.18428327
133	0x3dbe1b07	0.09282499
134	0x3dbc60aa	0.09198125
135	0xbd0b1a3b	-0.033960562
136	0x3c8e1837	0.01734553
137	0xbd7712c9	-0.06032065
138	0x3e3fc162	0.18726113
139	0xbe4925c1	-0.19643308
140	0xbde8454c	-0.11341342
141	0x3e396a9c	0.18107074
142	0x3e23a623	0.15981345
143	0x3dd15c11	0.102226384
144	0xbd769b80	-0.06020689
145	0x3e23cc2c	0.15995854
146	0x3e00083e	0.12503144
147	0xbd99ea3e	-0.07515381
148	0xbcaab2ba	-0.020837177
149	0x3e26d3c3	0.16291718
150	0x3d39aab7	0.045328822
151	0xbda288c4	-0.07936242
152	0x3df2bfe9	0.1185301
153	0x3e14bd0b	0.14525239
154	0xbd0b3d1c	-0.033993825
155	0xbe9ac872	-0.30231053
156	0x3d0d4d9b	0.03449784
157	0x3c97a6e0	0.01851219
158	0x3e14f314	0.14545852
159	0xbe46bce7	-0.19407998
160	0x3d8bbe7e	0.06823443
161	0x3d70e7cc	0.05881481
162	0x3ca284d5	0.01983873
163	0x3baac1ce	0.0052110916
164	0xbe8131e7	-0.25233385
165	0x3e1cefba	0.15325823
166	0xbe565d3f	-0.20934008
167	0xbbfc0bde	-0.0076918444
168	0xbe58fef8	-0.21191013
169	0xbbac7583	-0.005263032
170	0xbc8342af	-0.016023008
171	0xbc9bd63e	-0.019023057
172	0xbe0d7754	-0.13815051
173	0x3d028f06	0.03187468
174	0xbc3ffed9	-0.011718475
175	0xbd14d671	-0.03633732
176	0x3d9aaa6c	0.07552037
177	0xbd7c11cf	-0.06154042
178	0xbce8ae34	-0.028403379
179	0xbc160a4a	-0.009157727
180	0x3e215f77	0.15759073
181	0x3dfe6237	0.12421077
182	0xbe000ba5	-0.12504442
183	0xbd07e750	-0.03317958
184	0xbd5ba494	-0.05362375
185	0xbd71a87f	-0.05899858
186	0xbe196e6b	-0.14983527
187	0xbd80d290	-0.062901616
188	0x3dd038cb	0.101670824
189	0x3d2a3bbd	0.041560877
190	0x3e424217	0.18970524
191	0xbde101af	-0.10986649
192	0x3e0695ec	0.13143128
193	0x3e342f69	0.1759621
194	0x3caeacf3	0.021322703
195	0x3e037c2b	0.12840335
196	0xbe22cc53	-0.15898256
197	0xbd19d87b	-0.037559967
198	0x3d5fec9e	0.054669015
199	0xbe440758	-0.19143426
200	0x3e3a1154	0.18170673
201	0x3e2cd260	0.16877127
202	0xbdd6d4ac	-0.10489783
203	0x3c6d194f	0.014471366
204	0x3d689ae0	0.056788325
205	0x3d55d760	0.05220735
206	0x3e462e98	0.19353712
207	0xbe7365d5	-0.23769315
208	0xba7ed3d8	-0.0009720898
209	0xbe0a0ea3	-0.13482146
210	0x3e3de7a1	0.1854539
211	0x3dd6c9c4	0.104877025
212	0x3da40861	0.08009411
213	0xbc8849c8	-0.016636744
214	0x3db84715	0.08997933
215	0x3c761be5	0.015021299
216	0xbbf57eeb	-0.0074919364
217	0x3dfb2465	0.12262801
218	0xbd993786	-0.074812934
219	0xbd04db42	-0.032435663
220	0xbd334c3b	-0.04377387
221	0xbd0d0050	-0.034424126
222	0x3d3a1dd9	0.04543862
223	0x3e0b6196	0.13611445
224	0x3d459229	0.048235092
225	0xbd127616	-0.035757147
226	0x3e07a544	0.13246638
227	0x3d4ef737	0.05052873
228	0x3e17919a	0.14801636
229	0x3e01527b	0.1262912
230	0x3bd7cb93	0.0065855472
231	0x3da30b81	0.079611786
232	0xbe51d938	-0.20493019
233	0xbc92b24a	-0.01790728
234	0x3e04ca5e	0.12967822
235	0x3e09d14d	0.13458748
236	0xbe0fa032	-0.14025953
237	0xbdcb6d7c	-0.09932992
238	0xbe4636aa	-0.1935679
239	0xbdae7233	-0.085178755
240	0x3d84afcd	0.06478844
241	0xbd830fce	-0.06399499
242	0xbe4cf964	-0.2001701
243	0x3dfdc3ab	0.12390836
244	0xbda12409	-0.07868201
245	0x3e39273a	0.1808137
246	0x3e0bcdc1	0.13652708
247	0x3df10a58	0.11769551
248	0xbd874fb1	-0.06606997
249	0xbd8fa8b6	-0.07014601
250	0x3d4e9a43	0.050440084
251	0xbe10aedf	-0.14129208
252	0xbe09565d	-0.13411851
253	0x3da06ba9	0.078330345
254	0x3d942fa2	0.07235648
255	0x3d1c0673	0.038092088

distance_forces.model.0.bias f4 [128]
0	0xbd5e34c1	-0.05424953
1	0x3e1f09c9	0.15531076
2	0xbdca62bd	-0.09882114
3	0xbe1617c7	-0.14657508
4	0x3d2425d4	0.04007514
5	0x3d3a3aaf	0.04546612
6	0xbe3634a8	-0.17793524
7	0x3dd4f84f	0.103989236
8	0x3e3db857	0.18527351
9	0xbe524a5b	-0.20536177
10	0x3e324d55	0.17412312
11	0xbe206a57	-0.15665565
12	0xbdd724a9	-0.10505039
13	0x3b903f5b	0.004402084
14	0x3e625956	0.22104391
15	0xbe208219	-0.15674628
16	0x3e1f4aaa	0.15555826
17	0xbd96562b	-0.07340654
18	0x3cfed347	0.031106604
19	0x3d807690	0.06272614
20	0x3d898217	0.06714266
21	0x3c3368af	0.0109502515
22	0x3e1622e2	0.14661744
23	0x3df2b518	0.11850947
24	0xbddf84bc	-0.10913989
25	0x3e2009c1	0.15628721
26	0xbbeb10fa	-0.0071736546
27	0x3e321456	0.1739057
28	0xbb2dae43	-0.0026501573
29	0x3e10bdcc	0.14134902
30	0x3ccdf2ba	0.025140155
31	0x3e0958d5	0.13412793
32	0xbde13df1	-0.109981425
33	0xbe1dbbe6	-0.15403709
34	0xbce98e66	-0.028510284
35	0xbdc786c7	-0.097425036
36	0xbd720779	-0.059089158
37	0x3cf346f0	0.029696912
38	0x3e4d0469	0.20021214
39	0xbd5fb3aa	-0.0546147
40	0xbde5b07d	-0.11215303
41	0xbbf1912f	-0.0073720436
42	0xbdd5da7a	-0.10442062
43	0x3c6cb9fb	0.014448638
44	0xbce67daa	-0.028136093
45	0x3ca047c6	0.019565474
46	0x3d20d4d6	0.039265476
47	0x3e37b5f3	0.17940502
48	0x3d84b9c5	0.06480745
49	0x3d26d577	0.04073092
50	0x3d0f9942	0.035058267
51	0xbdf1176c	-0.117720455
52	0x3bdcecde	0.006742104
53	0xbe235c3a	-0.1595315
54	0x3e0821e5	0.1329418
55	0xbe38f22f	-0.18061136
56	0xbcad2aa8	-0.021138504
57	0xbe41280c	-0.18862933
58	0xbdfc1475	-0.12308589
59	0xbe12f7ac	-0.14352292
60	0x3e2016e4	0.15633732
61	0x3d06ec21	0.032940034
62	0x3df5323f	0.11972474
63	0x3d457f28	0.04821697
64	0xbdba40d7	-0.090943985
65	0x3c9f2e2d	0.019431198
66	0xbcc11799	-0.023570823
67	0xbdcbb2ef	-0.09946238
68	0xbdfe87bc	-0.12428233
69	0xbd50fa16	-0.05101975
70	0x3e088825	0.13333185
71	0xbdec3f32	-0.11535491
72	0xbdf36ffa	-0.11886592
73	0xbda47727	-0.08030539
74	0x3e43a28b	0.19104974
75	0xbdc304c8	-0.09522396
76	0xbd3ba674	-0.04581304
77	0x3e268722	0.16262487
78	0x3dbdccdd	0.0926759
79	0x3e1f0df9	0.15532674
80	0xbdf02db9	-0.11727471
81	0x3e389308	0.18024838
82	0xbd68c8e5	-0.056832213
83	0xbdd5900b	-0.10427865
84	0xbcd433e3	-0.025903648
85	0x3e31b4b2	0.17354086
86	0x3e1f2e95	0.15545113
87	0x3db03d7d	0.08605478
88	0x3d26b896	0.04070338
89	0x3da3e7bd	0.08003185
90	0x3e1180fd	0.14209361
91	0x3d59feed	0.05322163
92	0xbe2d04f6	-0.16896424
93	0xbd863f19	-0.06555004
94	0xbe1e58d7	-0.15463577
95	0xbd10fb54	-0.035395935
96	0x3d3c86be	0.046026938
97	0xbb244dfa	-0.0025070892
98	0xbb3f1b3a	-0.0029160515
99	0x3d4c3c65	0.049862284
100	0x3dd52755	0.104078926
101	0xbe39d90b	-0.18149202
102	0x3b64376d	0.0034823075
103	0xbe17580f	-0.14779685
104	0xbdacb90e	-0.08433734
105	0x3d9d6de5	0.07686976
106	0xbd44e276	-0.048067532
107	0x3d6ebec5	0.0582874
108	0x3dd16ede	0.10226224
109	0xbe253be8	-0.16136134
110	0xbdf7c886	-0.12098794
111	0xbd6aef1a	-0.05735693
112	0x3d3ab9c1	0.045587305
113	0xbdefaf7c	-0.11703393
114	0x3de0b672	0.10972299
115	0x3e19b401	0.15010072
116	0xbdfb0f83	-0.12258818
117	0xbd5408b2	-0.051766105
118	0x3e5172e2	0.2045398
119	0x3dcd9e02	0.10039903
120	0xbcfeafe7	-0.031089736
121	0xbdbede6c	-0.09319767
122	0xbe1769bb	-0.14786427
123	0x3d821c93	0.06353106
124	0xbe362505	-0.1778756
125	0x3e63af90	0.2223494
126	0x3e62f4a9	0.22163643
127	0xbc8fd4c9	-0.017557519

distance_forces.model.2.weight f4 [128, 128]
0	0xbdba7ae4	-0.09105471
1	0x3c40e884	0.011774186
2	0x3d81dd3b	0.063410245
3	0xbda12446	-0.07868247
4	0x3c374d1f	0.011187821
5	0xbd5ace97	-0.053419676
6	0xbcb4df65	-0.022079179
7	0xbc2de1e3	-0.010612938
8	0xbdb184f2	-0.086679354
9	0xbccaadbd	-0.024741048
10	0x3db17348	0.08664566
11	0xbd81ac9b	-0.0633175
12	0x3c80815d	0.015686685
13	0xbd534766	-0.051581763
14	0xbd67baf2	-0.05657477
15	0x3d6aa456	0.05728563
16	0x3d41cd0f	0.0473147
17	0x3bbd54a6	0.005777913
18	0x3d85691a	0.06514187
19	0xbc8aa97f	-0.016926525
20	0xbb244988	-0.0025068242
21	0xbd5a0f5d	-0.053237308
22	0x3cbc47ce	0.022983458
23	0x3cdd15d3	0.026987946
24	0x3d4be7c9	0.049781594
25	0x3d28a871	0.041176263
26	0x3c6aeacf	0.014338209
27	0xbdd70c23	-0.10500362
28	0xbc816de8	-0.015799478
29	0xbc86cf59	-0.016456293
30	0xbd3fb73c	-0.046805605
31	0xbda8e0c6	-0.08245997
32	0xbd1f254a	-0.03885392
33	0xbcbeb581	-0.023279907
34	0x3d1584a2	0.03650344
35	0xbd93aa06	-0.07210164
36	0xbd41dd7a	-0.047330357
37	0x3d9eade8	0.07748014
38	0xbdd3e8b8	-0.10347122
39	0xbd4300c1	-0.04760814
40	0xbcf46f11	-0.029838117
41	0xbb8cc65b	-0.0042961068
42	0x3dae42a5	0.08508805
43	0xbda7880b	-0.08180245
44	0x3d6e2b9b	0.058147054
45	0xbd9d5c75	-0.076836504
46	0xbc81fabb	-0.015866628
47	0x3d341f94	0.043975428
48	0x3dbd5f4d	0.09246693
49	0xbd837414	-0.064186245
50	0x3d051b37	0.032496657
51	0x3c9891d6	0.018624227
52	0xbb3981e1	-0.0028306174
53	0xbd6095a0	-0.054830194
54	0xbd401674	-0.046896413
55	0xbdb87397	-0.09006422
56	0xbd1eab60	-0.038737655
57	0x3d7b6ed8	0.061385006
58	0xbc3c5bed	-0.011496526
59	0x3dd062a7	0.101750664
60	0x3dad995a	0.08476515
61	0xbd4c86cd	-0.049933244
62	0x3cb45e04	0.022017486
63	0x3ca5c45b	0.020235231
64	0xbd2e4131	-0.04254264
65	0xbba13886	-0.004920068
66	0xbc122fea	-0.008922556
67	0xbd6dc4a5	-0.058048863
68	0xbb704dda	-0.0036667497
69	0xbc8cda5f	-0.017193971
70	0x3d836f64	0.064177305
71	0x3d1400c0	0.036133528
72	0xbcdd768f	-0.027034072
73	0x3d2de5f7	0.04245564
74	0x3d52d254	0.051470116
75	0x3d5cc9be	0.053903334
76	0x3da7d05f	0.081940405
77	0x3da53927	0.080675416
78	0xbde7687a	-0.11299224
79	0xbc513b7d	-0.012770531
80	0xbd8f6719	-0.07002086
81	0xbda68a49	-0.081318446
82	0xbd28dfa9	-0.041228924
83	0xbd572497	-0.05252513
84	0xbdf8528a	-0.12125118
85	0xbd653eea	-0.055968203
86	0x3dbcd92f	0.09221112
87	0x3c909260	0.017647922
88	0xbc96eddf	-0.018423973
89	0xbdd01140	-0.1015954
90	0xbcc4bcff	-0.024015902
91	0x3dd16856	0.102249786
92	0xbcc356b8	-0.023845062
93	0x3d39eb7d	0.045390595
94	0x3dc31f80	0.095274925
95	0x3db74f84	0.08950713
96	0x3da71df6	0.081600115
97	0xbccb071b	-0.024783662
98	0x3bf339a4	0.007422643
99	0xbbea8d40	-0.0071579516
100	0x3d3bd038	0.04585287
101	0xb90670d7	-0.00012821272
102	0xbc6fe779	-0.01464259
103	0xbd7ee0da	-0.062226154
104	0xbe20a6f0	-0.15688682
105	0x3cbc1ee3	0.022963947
106	0x3d70eed1	0.058821503
107	0x3d1c7256	0.038194977
108	0xbda477e8	-0.08030683
109	0x3db90e3f	0.0903592
110	0xbda66f32	-0.081266776
111	0xbd14a3e8	-0.036289126
112	0xbdee319e	-0.116305575
113	0x3d86f3f6	0.065895006
114	0xbcbc4ff8	-0.02298735
115	0xbda40c1b	-0.080101214
116	0xbd87c1f7	-0.06628793
117	0x3d61b56f	0.05510467
118	0xbd91a1a7	-0.07110911
119	0xbd3b0c96	-0.0456663
120	0x3ca90dc5	0.020636449
121	0x3db7680f	0.089553945
122	0xbde61f35	-0.11236421
123	0x3c354ec4	0.0110661425
124	0x3d7e7432	0.06212253
125	0x3d8558bd	0.06511066
126	0xbd3179c9	-0.043329034
127	0xbb79abfa	-0.003809689
128	0x3e40150d	0.1875803
129	0xbcd0d39b	-0.025491526
130	0xbdd1d5ce	-0.10245858
131	0x3dd6ef40	0.10494852
132	0xbe6195f8	-0.22029865
133	0xbcdd0cbe	-0.026983615
134	0x3d156492	0.036472864
135	0x3d8cffd1	0.068847306
136	0x3d2e505c	0.042557105
137	0xbd5fc74c	-0.054633424
138	0xbd7611f4	-0.060075715
139	0x3d5ae5bc	0.053441748
140	0xbce78990	-0.028263837
141	0x3db64f99	0.08901901
142	0x3cc35622	0.023844782
143	0x3dacff48	0.084471285
144	0x3d8c4482	0.06849004
145	0x3ddba542	0.1072488
146	0x3d890ef0	0.06692302
147	0x3d7beda9	0.061505947
148	0xbda4ee24	-0.08053234
149	0x3c8d2814	0.017231025
150	0xbd223da1	-0.039609555
151	0xbd1b7b23	-0.03795923
152	0xbdb4d883	-0.08830359
153	0xbd5d0f40	-0.05396962
154	0xbbefc61b	-0.007317317
155	0xbcef0a71	-0.029179784
156	0x3c680ec7	0.014163679
157	0x3db99c19	0.090629764
158	0xbbc0648d	-0.0058713616
159	0x3db92fe3	0.09042337
160	0x3db09c58	0.0862357
161	0xbc8e197a	-0.017346133
162	0x3c48b44f	0.01225002
163	0xbcbdfd80	-0.023192167
164	0x3e99e915	0.3006064
165	0x3d01b23a	0.03166411
166	0xbc442443	-0.011971536
167	0xbda38314	-0.079839855
168	0xbd406754	-0.04697354
169	0xbcf58bdf	-0.029973922
170	0x3c5dcbdf	0.013537376
171	0x3d7651eb	0.060136717
172	0x3d65d367	0.056109812
173	0xbd8aa182	-0.067690864
174	0xbd1d05ea	-0.03833572
175	0xbdaedba9	-0.085379906
176	0xbde98bef	-0.11403643
177	0x3cfa1937	0.030529601
178	0xbd08df8d	-0.03341632
179	0x3d33807e	0.04382371
180	0x3d7ff8c2	0.062493093
181	0x3da054ca	0.07828672
182	0x3c837027	0.01604469
183	0xbd41170e	-0.047141127
184	0x3e1d63d0	0.15370107
185	0x3dbad67c	0.09122941
186	0x3db6f9c0	0.08934355
187	0xbd83db43	-0.06438305
188	0x3b5df379	0.0033867045
189	0xbcad4f5d	-0.021156007
190	0xbce3faff	-0.027829645
191	0xbcb1d357	-0.02170722
192	0xbd78aca6	-0.060711525
193	0xbe0455b0	-0.12923312
194	0x3d14ff38	0.036376208
195	0x3e1ce1b1	0.1532047
196	0x3e2a0ac6	0.16605672
197	0xbd476033	-0.048675727
198	0x3c938828	0.01800926
199	0xbe19f966	-0.15036544
200	0x3c289b8e	0.010290993
201	0x3bd49eb5	0.006488646
202	0xbd53388a	-0.05156759
203	0x3d625d09	0.055264506
204	0x3d831d36	0.06402056
205	0xbd448f88	-0.047988445
206	0x3a438f7e	0.00074600417
207	0x3d1b8fcc	0.037978932
208	0xbdb069f2	-0.086139575
209	0x3dc47677	0.09592908
210	0xbba20699	-0.004944634
211	0x3dc42249	0.09576852
212	0x3cd24a51	0.025670202
213	0xbd64bea7	-0.055845883
214	0xbd2a910b	-0.04164223
215	0xbd9ab9bf	-0.075549595
216	0x3dad303f	0.08456468
217	0x3e15f386	0.14643678
218	0x3d634ddb	0.05549417
219	0x390d948b	0.00013502144
220	0x3d574820	0.052559018
221	0xbd551c3a	-0.052028872
222	0xbd3ca113	-0.04605205
223	0xba98700f	-0.0011630076
224	0xbd5afcd8	-0.053463787
225	0xbb152798	-0.0022759195
226	0xbdc201be	-0.094729885
227	0xbd686620	-0.05673802
228	0xbe0bdfb5	-0.13659556
229	0x3e190e10	0.1494677
230	0x3d4a1c76	0.04934355
231	0x3d5514ef	0.052021917
232	0x3de57539	0.11203999
233	0xbda2d5c9	-0.079509325
234	0x3db681d6	0.08911483
235	0xbc28fc16	-0.010314008
236	0xbdc83482	-0.0977564
237	0x3c81c9e0	0.015843332
238	0xbcac029c	-0.020997338
239	0x3db4cbeb	0.08827957
240	0x3e40a1af	0.18811677
241	0x3d4fb59a	0.050710298
242	0xbe04dbec	-0.12974519
243	0x3d1284e7	0.035771277
244	0x3c5f3f8d	0.0136259915
245	0x3c8aa3c8	0.0169238
246	0xbd9975d4	-0.07493177
247	0x3d8979db	0.06712695
248	0xbd862473	-0.06549921
249	0x3b3c8c1e	0.002877004
250	0xbd459247	-0.048235204
251	0xbdb314e6	-0.087442204
252	0x3db6a743	0.089186214
253	0xbe0d5eca	-0.1380569
254	0x3e34cb78	0.17655742
255	0xbd54d9d9	-0.05196557

distance_forces.model.2.bias f4 [128]
0	0xbd9097d2	-0.070602074
1	0xbb8c596a	-0.00428312
2	0x3d96a939	0.073564954
3	0x3d6b4f87	0.05744889
4	0x3d3fbd37	0.04681131
5	0x3d3a3ba5	0.045467038
6	0x3d6e1747	0.058127668
7	0xbd4c6fb4	-0.049911216
8	0xbd9dac43	-0.07698872
9	0xbcd2c510	-0.025728732
10	0x3d49faae	0.049311332
11	0xbd0bdced	-0.034146238
12	0xbc46b580	-0.012128234
13	0x3d103c2a	0.035213627
14	0xbc65012b	-0.013977329
15	0xbd70f7fc	-0.058830246
16	0x3c0f471c	0.008744981
17	0xbd438074	-0.047729924
18	0xbd7e27ff	-0.062049862
19	0x3d7213b5	0.059100825
20	0xbd211e3b	-0.03933547
21	0x3de7f018	0.11325091
22	0x3d3dd8ba	0.046349265
23	0x3dd496a4	0.10380295
24	0xbb27f5ad	-0.0025628612
25	0xbd7d7776	-0.061881505
26	0x3ddbd2c9	0.107335635
27	0xbd2b8836	-0.041877948
28	0x3dad8995	0.08473507
29	0x3d3738fb	0.044732075
30	0xbd293b6d	-0.04131644
31	0xbcaa1d89	-0.020766037
32	0x3d9d47df	0.07679724
33	0x3c5dba7e	0.013533233
34	0xbc837440	-0.016046643
35	0x3d764285	0.06012203
36	0xbc947451	-0.01812187
37	0xbd094684	-0.033514515
38	0xbd030d39	-0.031995032
39	0xbdbfa233	-0.09357109
40	0x3d48e5fc	0.049047455
41	0x3d6b9a64	0.057520285
42	0x3d8a04f6	0.067392275
43	0x3d5773b6	0.052600585
44	0xbcf91d5a	-0.030409504
45	0xbc27a0f0	-0.010231242
46	0xbdd7f9b6	-0.105456755
47	0xbb5620f7	-0.0032673457
48	0x3d44b69e	0.04802572
49	0xbd8a0288	-0.06738764
50	0xbd897299	-0.06711311
51	0x3d95ee59	0.07320852
52	0x3c3f1129	0.011661806
53	0xbd681771	-0.05666298
54	0x3bb0d771	0.0053967764
55	0x3caa2bb1	0.020772787
56	0x3d5b4262	0.053530104
57	0x3db0599b	0.08610841
58	0xbd3fece9	-0.046856795
59	0xbcffcf85	-0.031226883
60	0xbd9807c5	-0.07423357
61	0xbd91295a	-0.07087965
62	0x3c434f5f	0.011920779
63	0x3da47afa	0.080312684
64	0x3be73a51	0.0070565124
65	0xbb8b8890	-0.004258223
66	0xbd329329	-0.043597374
67	0xbd969da6	-0.07354288
68	0x3d75e9df	0.06003749
69	0x3cc9a156	0.024613064
70	0xbc38b9ed	-0.011274797
71	0x3cf50aae	0.029912319
72	0x3db8a9aa	0.09016736
73	0xbd742304	-0.059603706
74	0x3d77fd03	0.060544025
75	0xbc31860b	-0.010835181
76	0x3e0b64bc	0.13612646
77	0x3dbcbc6d	0.09215627
78	0xbd06c889	-0.03290609
79	0xbda80a8b	-0.08205136
80	0x3d5c733a	0.053820826
81	0xbcced0d6	-0.025246065
82	0xbda34f3e	-0.079740986
83	0xbcf493c8	-0.029855624
84	0xbca1c6b8	-0.019748077
85	0xbc8a121b	-0.016854336
86	0xbcb38cb7	-0.021917684
87	0xbd79250c	-0.060826346
88	0xbd8801ce	-0.06640969
89	0xbc25a83c	-0.010110911
90	0xba9098a9	-0.0011031824
91	0x3d87f327	0.066381745
92	0xbbcf4f56	-0.0063265963
93	0x3d5eed07	0.054425266
94	0x3d7749ea	0.060373224
95	0x3db93cf8	0.09044832
96	0xbd7124b4	-0.058872893
97	0x3cc7c981	0.024388077
98	0x3db7c36e	0.08972822
99	0xbd39c145	-0.04535033
100	0x3d087e05	0.033323307
101	0xbd4e032e	-0.050296
102	0xbcf35f4e	-0.02970853
103	0x3d83b145	0.06430296
104	0x3ccec186	0.025238764
105	0xbdaeb7f8	-0.08531183
106	0xbcf3422e	-0.029694643
107	0xbd49bdb8	-0.049253196
108	0x3b7c0f7e	0.0038461383
109	0xbb2fa7bb	-0.0026802856
110	0xbc70ddef	-0.014701351
111	0xbd63b0e2	-0.05558861
112	0x3dbfdd54	0.09368387
113	0xbafccea6	-0.001928766
114	0xbd7f7920	-0.062371373
115	0xbd91eef8	-0.07125658
116	0xbd2325e2	-0.03983105
117	0x3b8b76c5	0.004256102
118	0xbd02fda7	-0.031980183
119	0x3c87f24d	0.01659503
120	0x3d7b566f	0.061361726
121	0xbcfd0047	-0.030883921
122	0x3cd50d18	0.02600722
123	0x3b9603f1	0.0045781066
124	0x3c81cd52	0.015844975
125	0xbc458851	-0.012056426
126	0x3c4dc224	0.012558494
127	0xbda6f501	-0.081521995

distance_forces.model.4.weight f4 [128, 128]
0	0x3c8740a9	0.016510325
1	0xbe17f7f6	-0.14840683
2	0x3a371d42	0.0006985256
3	0x3d15f340	0.036608934
4	0x3e0ceff5	0.13763411
5	0x3d5fcda7	0.054639485
6	0xbd7e3e7f	-0.06207132
7	0x3d170472	0.036869474
8	0x3dbee2de	0.09320615
9	0x3e2ed09c	0.17071766
10	0x3e06e399	0.13172759
11	0xbc95bc30	-0.018278211
12	0xbbb2111d	-0.005434169
13	0x3cfe2648	0.031024113
14	0xbd0b2865	-0.03397407
15	0x3d075911	0.033043925
16	0x3dae7166	0.08517723
17	0xbdb2f995	-0.0873901
18	0xbcf4b9fa	-0.029873837
19	0x3cd1b65d	0.025599653
20	0x3d8d627d	0.06903551
21	0x3d934eff	0.07192802
22	0xbb442bec	-0.0029933406
23	0x3e1db9d3	0.15402918
24	0xbde4f230	-0.11179006
25	0x3deb9088	0.115021765
26	0x3e51a67c	0.20473665
27	0xbe23b11b	-0.15985529
28	0x3e27ade3	0.16374926
29	0xbd702432	-0.05862827
30	0x3d4ec9ba	0.05048535
31	0x3d6f3823	0.058403146
32	0x3cbd53c3	0.02311123
33	0xbcd62d9b	-0.026144793
34	0x3d63db99	0.055629347
35	0x3d2d4fb3	0.042312335
36	0x3a8beb77	0.0010675032
37	0x3cd090b4	0.025459625
38	0x3d6977b6	0.05699893
39	0xbd2ee320	-0.042697072
40	0x3e0d3711	0.13790537
41	0x3d382b90	0.04496342
42	0x3dbd4a97	0.092427425
43	0x3d267baf	0.040645298
44	0xbd3db6d9	-0.046316955
45	0x3bba9221	0.0056936895
46	0xbc8f9ca5	-0.017530749
47	0xbd562952	-0.0522855
48	0x3c1f36f6	0.009717694
49	0xbd460aea	-0.048350252
50	0xbdc6ba36	-0.09703486
51	0x3da2ffa7	0.07958918
52	0x3d22a84c	0.03971128
53	0x3d9caa5d	0.07649682
54	0x3d06d0ae	0.032913856
55	0x3dffb54f	0.12485754
56	0x3c501283	0.012699726
57	0x3c9e9048	0.019355908
58	0x3e5b2c6a	0.21403661
59	0xbe1d6ba4	-0.15373093
60	0xbddbe575	-0.10737125
61	0x3da4374e	0.08018361
62	0x3d984dbb	0.07436701
63	0x3d0895af	0.033345874
64	0xbd0ba826	-0.034095906
65	0xbd9cb300	-0.07651329
66	0x3d933c8c	0.07189283
67	0xbd8d81a4	-0.069094926
68	0x3c0f2b60	0.008738369
69	0x3d9f5da5	0.07781533
70	0xbe20e154	-0.15710956
71	0xbe05eecc	-0.13079375
72	0x3d9be576	0.076121256
73	0x3d8986b3	0.06715145
74	0x3d8ac0eb	0.067750774
75	0x3dc38874	0.09547511
76	0x3d7590a8	0.059952408
77	0x3df8209b	0.12115594
78	0xbc66cf9e	-0.014087586
79	0xbcc62361	-0.024186792
80	0xbbd62838	-0.006535556
81	0x3cfd2eb5	0.03090606
82	0xbd9b8b17	-0.07594889
83	0x3d873859	0.06602544
84	0x3dbc741f	0.09201836
85	0xbdc7f4c3	-0.097634815
86	0xbc9252f5	-0.017861823
87	0x3e012262	0.12610772
88	0x3d96247a	0.07331176
89	0x3dddc71a	0.10828991
90	0x3d52894a	0.05140046
91	0x3d919b00	0.07109642
92	0xbd255213	-0.040361475
93	0xbd69f3e1	-0.057117347
94	0xbe278974	-0.16361028
95	0xbe024663	-0.12722163
96	0x3e13b384	0.14423949
97	0x3d9a7153	0.07541146
98	0x3dc10bf0	0.09426105
99	0x3d05ee3f	0.032697912
100	0xbd4a87f3	-0.049446058
101	0x3c15d467	0.009144879
102	0x3d819b5a	0.06328459
103	0xbd8f9afe	-0.07011984
104	0xbd7b4b62	-0.061351188
105	0xbe136be4	-0.14396626
106	0xbcabad7d	-0.02095675
107	0xbd7754bb	-0.06038354
108	0xbd8f6bca	-0.07002981
109	0x3d609f6b	0.054839533
110	0x3e0dc7e4	0.13845783
111	0xbd8dad70	-0.06917846
112	0x3bcca653	0.0062454133
113	0x3d27bd0d	0.040951777
114	0xbe07fdaa	-0.13280359
115	0xbd1211db	-0.03566156
116	0xbe9d396f	-0.3070788
117	0xbc892136	-0.016739469
118	0xbdb640db	-0.08899089
119	0xbdb0069d	-0.085950114
120	0x3dbe95f3	0.09305944
121	0xbd9cca16	-0.07655732
122	0x3dafb1e7	0.08578854
123	0x3d2e2e82	0.042524822
124	0xbd2b70a2	-0.041855462
125	0xbc9a4c18	-0.018835112
126	0x3d9b49f6	0.07582466
127	0x3cb56f2e	0.022147741
128	0x3b9161e0	0.0044367164
129	0x3dbe8437	0.09302562
130	0x3db21cdd	0.086969115
131	0x3d007717	0.031363573
132	0xbd2f921e	-0.042863958
133	0x3dbd7801	0.092514046
134	0xbcb5c2a0	-0.022187531
135	0xbdacb79d	-0.08433459
136	0x3d558d76	0.05213686
137	0xbd79f882	-0.06102801
138	0xbc5a8a70	-0.01333867
139	0x3d6b26d9	0.057410095
140	0x3d639cfa	0.055569626
141	0xbda688cf	-0.08131563
142	0x3bfb9556	0.0076777143
143	0xbd8208e3	-0.06349351
144	0xbac64c25	-0.0015128894
145	0x3da70b0e	0.081564054
146	0x3e1b1949	0.15146364
147	0xbd35165a	-0.04421077
148	0xbdad2822	-0.0845492
149	0xbda2049c	-0.079110354
150	0x3b53ece1	0.0032337236
151	0x3dad864b	0.0847288
152	0x3cfba82a	0.030719835
153	0xbd2a1d49	-0.041531835
154	0x38b29282	8.5149906e-05
155	0x3db4650b	0.08808335
156	0x3d6c3f1f	0.057677384
157	0x3d962d80	0.07332897
158	0x3d802104	0.06256297
159	0x3da4912c	0.08035502
160	0xbca472ef	-0.020074336
161	0x3dc1e36b	0.09467205
162	0xbae213f9	-0.0017248384
163	0x3d9b95dd	0.075969435
164	0x3b9c648a	0.0047727274
165	0xbdbdc184	-0.09265426
166	0x3d2dd0c6	0.04243543
167	0x3c5b1391	0.013371364
168	0xbda36f78	-0.07980245
169	0x3d19be5b	0.037535053
170	0xbd913c39	-0.07091565
171	0xbe10e68f	-0.14150451
172	0x3d23fee6	0.040038012
173	0xbdd92820	-0.10603356
174	0x3d2e1fa3	0.04251064
175	0x3c29145b	0.0103197945
176	0x3d20b2e0	0.03923309
177	0x3cbcd113	0.023048913
178	0xbb9d48c5	-0.0047999346
179	0xbd9a01c5	-0.07519869
180	0xbde5ee0b	-0.11227044
181	0xbd322498	-0.04349193
182	0x3d684096	0.05670222
183	0xba8457aa	-0.0010096927
184	0x3dd84ef1	0.10561932
185	0x3ad2f855	0.0016095737
186	0xbd06a80b	-0.032875102
187	0x3d890b90	0.066916585
188	0x3d448c41	0.04798532
189	0xbd861afa	-0.06548114
190	0xbd58136e	-0.052752905
191	0x3cfdae92	0.03096703
192	0x3d23d256	0.039995514
193	0xbde8a991	-0.11360467
194	0x3d541f72	0.0517878
195	0x3cb35dcb	0.02189531
196	0x3d8feb5e	0.070273146
197	0x3c1239bb	0.008924897
198	0x3d3a5973	0.04549546
199	0x3da9fb1c	0.082998484
200	0xbb97ba72	-0.0046303803
201	0x3d844c6f	0.06459891
202	0xbcb1ee79	-0.021720158
203	0xba3539b4	-0.00069132005
204	0x3c96c88b	0.018406173
205	0xbc6fb15f	-0.014629691
206	0x3daa484a	0.08314569
207	0xbdbbf7d9	-0.091781326
208	0xbc19e90a	-0.00939394
209	0x3e11e4da	0.14247456
210	0xbc9d9c84	-0.019239672
211	0xbdaf18e8	-0.08549672
212	0xbc8c9eb1	-0.017165514
213	0xbc3f1e52	-0.011664944
214	0x3d722006	0.05911257
215	0x3d07fb3b	0.033198576
216	0x3dd77a46	0.10521369
217	0xbcfe8583	-0.031069523
218	0x3dad31b8	0.08456749
219	0xbbb50fe2	-0.005525575
220	0x3e317dac	0.17333096
221	0x3d35985c	0.044334754
222	0x3e2ed2a8	0.17072546
223	0x3d92e912	0.07173361
224	0xbca18f9f	-0.019721804
225	0x3d0992a6	0.03358712
226	0x3d02c364	0.03192462
227	0xbba03ed0	-0.0048903003
228	0xbce18a3d	-0.027531737
229	0xbbf161f6	-0.007366414
230	0x3da75808	0.081710875
231	0x3b7ff21a	0.0039054216
232	0xbd975d8a	-0.07390888
233	0x3da559a7	0.080737405
234	0x3cc55824	0.02408988
235	0x3d09b53d	0.033620108
236	0x3d58706c	0.05284159
237	0x3bc11dfe	0.005893468
238	0x3c377d1b	0.011199261
239	0xbdb18d30	-0.086695075
240	0x3d8369c2	0.06416656
241	0xbc148fea	-0.009067515
242	0x3d2dfb57	0.042476024
243	0xbe0781ad	-0.13233061
244	0x3de513e2	0.11185433
245	0xbcf89c61	-0.030348005
246	0xbd3bb59e	-0.0458275
247	0xbd3a51c6	-0.04548814
248	0x3d627aa7	0.05529275
249	0xbd9014a0	-0.07035184
250	0xbd11e113	-0.035615038
251	0xbd70b0be	-0.058762304
252	0xbd510821	-0.051033143
253	0xbde37e25	-0.111080445
254	0xbccfb0f1	-0.025352927
255	0xbd6d3897	-0.057915296

distance_forces.model.4.bias f4 [128]
0	0x3d2666b7	0.0406253
1	0xbb3f6400	-0.0029203892
2	0xbc91904d	-0.017769003
3	0x3bc6fc0f	0.006072528
4	0xbd624040	-0.055237055
5	0xbdd9276b	-0.106032215
6	0x3cd7846e	0.026308265
7	0x3d5ccad9	0.053904388
8	0x3d6601c2	0.05615402
9	0xbda4ea42	-0.08052494
10	0xbcd59a6d	-0.026074613
11	0x3d6b9b2a	0.057521023
12	0xbd9296e8	-0.07157689
13	0x3d765c35	0.06014653
14	0xbd83bbdd	-0.064323165
15	0x3d51af53	0.051192593
16	0xbd477021	-0.04869092
17	0xbce9c458	-0.028536007
18	0xbdcab12e	-0.098970756
19	0xbd19a1d9	-0.037507866
20	0xbcd7e482	-0.026354078
21	0x3d5e5174	0.0542769
22	0x3cb7e749	0.022449153
23	0xbb8162f5	-0.003948564
24	0x3d498272	0.049196668
25	0x3d26fe2e	0.04076975
26	0x3d0f4b12	0.034983702
27	0x3df0da4c	0.11760387
28	0xbd646c34	-0.055767253
29	0xbd080430	-0.03320712
30	0xbd2917d4	-0.04128249
31	0x3d8af0c0	0.06784201
32	0x3dfcf5b7	0.12351554
33	0xbd2c7dcc	-0.042112157
34	0x3d2ece98	0.042677492
35	0x3d006b3c	0.031352267
36	0x3d09a45a	0.033604003
37	0xbd2327f9	-0.039833043
38	0x3c826778	0.015918478
39	0xbb3f9003	-0.0029230125
40	0x3da484c0	0.080331326
41	0x3bce83cc	0.0063023325
42	0x3cceb604	0.025233276
43	0xbd870d5e	-0.065943465
44	0x3da956f9	0.08268542
45	0xbdafb688	-0.08579737
46	0x3d6d7c04	0.0579796
47	0xbc1e6f69	-0.009670117
48	0xbd8dc0a9	-0.06921513
49	0x3d888b69	0.066672154
50	0xbd4026c8	-0.046911985
51	0xbd9bf439	-0.07614941
52	0x3dabc533	0.08387222
53	0x3d05c83a	0.032661654
54	0x3db41f12	0.08794989
55	0x3d1124ed	0.035435606
56	0xbd97a3f4	-0.074043185
57	0x3da08e37	0.07839625
58	0xbdf22802	-0.11824037
59	0xbd69ef48	-0.057112962
60	0xbcb7b526	-0.022425245
61	0xbd99043e	-0.07471512
62	0x3c8af2f9	0.016961562
63	0xbdbd2b6e	-0.09236799
64	0x3bef2fbd	0.007299392
65	0xbd2ce150	-0.042207062
66	0x3d9fffa9	0.07812435
67	0xbd86c20d	-0.06579981
68	0x3c965b82	0.018354181
69	0xbc2efb02	-0.010679962
70	0x3da8ee7f	0.082486145
71	0xbd91ad32	-0.071131125
72	0xbd1bef6b	-0.038070124
73	0xbb9a1c33	-0.0047030686
74	0x3c6d0f25	0.014468943
75	0xbc60d100	-0.0137217045
76	0x3c4f3e14	0.012649078
77	0x3d708512	0.058720656
78	0xbc17b5cc	-0.009259652
79	0x3d8f9624	0.07011059
80	0xbb902fe2	-0.0044002393
81	0x3d6893b9	0.056781504
82	0x3c9a6a2f	0.01884946
83	0x3dc0e7b8	0.09419197
84	0xbd27036a	-0.04077474
85	0x3d323677	0.043508973
86	0xbc1a68a3	-0.009424361
87	0x3dbd067f	0.09229755
88	0xbcb48128	-0.022034243
89	0xbd2faa5e	-0.042887084
90	0xbdaecab3	-0.085347556
91	0xbbd8bdbd	-0.0066144154
92	0xbd8df714	-0.06931892
93	0x3cfcc7e5	0.030857036
94	0x3d21b0ed	0.03947537
95	0xbc48ed12	-0.012263553
96	0xbb98e1a9	-0.0046655727
97	0xbd61ed68	-0.05515805
98	0x3db3bc86	0.08776192
99	0xbd288dae	-0.04115074
100	0x3da7d801	0.08195496
101	0x3d0a8fa6	0.0338284
102	0xbcb3286e	-0.021869864
103	0x3d8be6df	0.068311445
104	0xbda45028	-0.08023101
105	0x3c13f7a9	0.009031215
106	0xbd1d28b7	-0.038368907
107	0xbd9fe161	-0.078066595
108	0xbcc352c5	-0.023843179
109	0xbd6edbcc	-0.058315083
110	0xbd4455eb	-0.0479335
111	0x3c3262a1	0.010887773
112	0xbc205cbe	-0.009787736
113	0xbcc792fe	-0.024362084
114	0xbdbd7d18	-0.09252375
115	0x3d81cb80	0.06337643
116	0xbdb48810	-0.08815014
117	0x3d59bb57	0.053157177
118	0xbd08f996	-0.03344115
119	0xbd585a2d	-0.052820373
120	0xbc9bf7f8	-0.01903914
121	0x3db7c5b2	0.08973254
122	0x3ca402e3	0.020020908
123	0x3db5330a	0.088476256
124	0xbd8041ba	-0.06262536
125	0xbcb42534	-0.021990396
126	0x3ddd5fa1	0.108092554
127	0xbd99b72a	-0.07505639

distance_forces.model.6.weight f4 [128, 128]
0	0x3d141d35	0.036160666
1	0x3ca6aaff	0.02034521
2	0x3d929b4b	0.07158526
3	0xbd4a1edf	-0.049345847
4	0x3cf9216c	0.030411445
5	0x3d2f83d1	0.04285032
6	0x3d3b8a61	0.045786265
7	0xbb708bd1	-0.003670443
8	0x3c976b25	0.018483708
9	0xbdab3bf0	-0.083610415
10	0xbdbc562a	-0.09196122
11	0xbd9c8c90	-0.07643998
12	0x3db45eab	0.08807119
13	0xbc143412	-0.009045618
14	0x3c9817cc	0.018566035
15	0x3b670f5f	0.0035256965
16	0x3d97311d	0.073824145
17	0xbccb9bac	-0.024854504
18	0xbca262c4	-0.019822486
19	0x3da89c40	0.08232927
20	0x3c2e52db	0.0106398715
21	0xba091202	-0.00052288186
22	0xbcaf3c71	-0.021391125
23	0x3d6de35d	0.05807816
24	0x3d36838b	0.044559043
25	0x3c971ac3	0.018445378
26	0x3d89622c	0.06708178
27	0x3d8428a4	0.06453064
28	0xbd757e21	-0.05993474
29	0x3d3a2050	0.04544097
30	0x3d2bd1e5	0.041948218
31	0x3d77c901	0.060494427
32	0xbc9ff78c	-0.01952722
33	0xbd413675	-0.047171075
34	0xbdc11e97	-0.09429663
35	0x3c0a7207	0.008450038
36	0xbd885814	-0.066574246
37	0x3cd9c61a	0.02658372
38	0x3d45db4f	0.048304852
39	0xbd92682b	-0.07148775
40	0xbd9ca47a	-0.07648559
41	0xbdbc2440	-0.09186602
42	0x3db69de1	0.08916832
43	0xbd826f9f	-0.06368946
44	0xbd8bf96e	-0.06834684
45	0x3cd785d3	0.02630893
46	0x3cee44a0	0.029085457
47	0x3c0251d1	0.007954077
48	0xbd6acc2a	-0.057323612
49	0x3c8a9e50	0.016921192
50	0xbcb45638	-0.022013769
51	0xbd800eae	-0.062528
52	0x3d780605	0.060552616
53	0xbd3b6030	-0.04574603
54	0xbdadd033	-0.084869765
55	0xbd343ac4	-0.044001356
56	0x3c23cb3b	0.009997184
57	0x3cb4e3fb	0.022081366
58	0x3cac567f	0.021037338
59	0x3ca7c933	0.020481681
60	0xbc06b3a9	-0.008221545
61	0x3b753485	0.0037415337
62	0xbcd7dd12	-0.026350532
63	0x3d69bbb6	0.05706378
64	0xbd9e8fef	-0.07742297
65	0x3cbe5544	0.023234017
66	0x3d17e1ac	0.03708045
67	0xbd973749	-0.07383592
68	0xbd25c1f7	-0.040468182
69	0xbd2d2d4a	-0.04227952
70	0xbdad4a64	-0.084614545
71	0xbcd6b67f	-0.026210068
72	0xbdb0cccc	-0.08632812
73	0xbdc015ed	-0.09379182
74	0xbd9b5e96	-0.075864
75	0xbd440f2e	-0.04786604
76	0xbd96a63a	-0.07355924
77	0x3d0de608	0.034643203
78	0x3d0a1204	0.033708587
79	0x3c052cf7	0.008128396
80	0x3d9acabf	0.07558202
81	0xbd987606	-0.07444386
82	0xbd5de7f4	-0.054176286
83	0x3d8c00ee	0.06836115
84	0x3b7f88c2	0.0038991426
85	0xbd3ee266	-0.04660263
86	0x3c92ef34	0.017936327
87	0x3d8a0f49	0.06741197
88	0xbd295a00	-0.041345596
89	0x3d9914bc	0.07474658
90	0xbd284626	-0.041082524
91	0xbd58227f	-0.052767273
92	0xbd74a7e2	-0.059730418
93	0xbda531a3	-0.08066108
94	0xbd7822d9	-0.06058011
95	0xbcb9203f	-0.022598384
96	0xbda71315	-0.081579365
97	0x3d6f45b0	0.05841607
98	0xbd0948f9	-0.033516858
99	0x3d26e1a0	0.040742517
100	0xbd109bef	-0.03530496
101	0xbdb19909	-0.08671767
102	0x3d4db324	0.05021967
103	0xbd8fc734	-0.07020417
104	0xbbc28467	-0.0059361937
105	0x3cf8b81a	0.030361224
106	0x3d87cce9	0.066308804
107	0xbd67dad3	-0.05660517
108	0xbc0bdf79	-0.008537167
109	0xbd67d0b9	-0.056595538
110	0x3db2344d	0.08701382
111	0xbc9f5eb6	-0.019454341
112	0x3cbe769c	0.023249917
113	0x3bd79629	0.00657918
114	0x3cc60082	0.024170164
115	0xbdc1b4ba	-0.09458299
116	0xbda5b99f	-0.08092045
117	0xbc790029	-0.015197792
118	0x3cd1f2fb	0.025628557
119	0x3d05b879	0.03264663
120	0xbd261978	-0.040551633
121	0xbdb42aed	-0.0879725
122	0x3cf8cd58	0.030371353
123	0x3c8ab277	0.016930802
124	0x3c8de939	0.017323123
125	0x3d19d2f0	0.03755468
126	0xbd4b132f	-0.04957884
127	0x3d9c15bc	0.07621333
128	0x3d0ab598	0.033864588
129	0x3aee77dc	0.001819368
130	0xbd57b54a	-0.052663125
131	0xbda26432	-0.07929267
132	0xbd847ff9	-0.06469721
133	0x3d3157be	0.043296568
134	0xbd19f774	-0.037589505
135	0xbd22d956	-0.03975805
136	0x3c598ce5	0.013278221
137	0xbcaa76ca	-0.020808596
138	0xbdc98542	-0.0983987
139	0x3dc469f9	0.09590525
140	0xbc974536	-0.01846562
141	0x3c746245	0.014916007
142	0xbe0b83f3	-0.13624553
143	0x3d1cc929	0.03827778
144	0xbd20de8a	-0.03927473
145	0x3d4defae	0.050277404
146	0xbddafc79	-0.106926866
147	0xbb7ee58f	-0.0038894152
148	0xbd99c52d	-0.075083114
149	0xbd0de3b8	-0.034640998
150	0x3d1ff934	0.039056018
151	0x3d746e7b	0.059675675
152	0xbd69ea70	-0.057108343
153	0xbdc8152a	-0.09769662
154	0xbdce2e5a	-0.100674346
155	0x3d853f23	0.06506183
156	0xbcdbc203	-0.02682591
157	0xbcd13ec9	-0.025542634
158	0x3d874ccd	0.066064455
159	0xbd0e0de2	-0.03468121
160	0x3d90e923	0.07075717
161	0xb98c5da5	-0.00026772651
162	0xbd2e2fa7	-0.042525914
163	0x3c8612cb	0.016366383
164	0xbd1c99d4	-0.03823264
165	0x3de515f4	0.11185828
166	0x3decdb35	0.11565248
167	0xbd2b9575	-0.04189058
168	0xbcbd6a26	-0.023121905
169	0x3dc5c495	0.09656636
170	0x3d3c9507	0.04604056
171	0xbd5ba922	-0.053628094
172	0xbdd7a059	-0.10528631
173	0x3d5e499f	0.05426943
174	0xbd843f32	-0.06457366
175	0xbdb57570	-0.0886029
176	0xbe0b2ebf	-0.13592051
177	0xbd31ce77	-0.04340979
178	0xbd844437	-0.064583234
179	0x3df985f1	0.121837504
180	0xbc156986	-0.009119397
181	0x3dc290b4	0.09500256
182	0x3c7b3bf8	0.015334122
183	0x3dc3a55d	0.09553025
184	0xbd10c433	-0.03534336
185	0x3c48f04e	0.012264324
186	0x3da18509	0.078867026
187	0xbd7d12d4	-0.061785534
188	0xbdf40033	-0.119141005
189	0x3c906626	0.017626833
190	0x3d427e59	0.047483776
191	0x3da3879b	0.07984849
192	0xbd2eb2f4	-0.04265113
193	0x3cf651c2	0.030068282
194	0x3d877452	0.06613983
195	0xbc6fc130	-0.014633462
196	0x3cfa1f98	0.030532643
197	0xbdcee07e	-0.10101412
198	0x3d901811	0.0703584
199	0xbdd43506	-0.10361676
200	0xbdb224ab	-0.086984
201	0x3db3ca1f	0.08778786
202	0x3c5c0daf	0.013430997
203	0xbd4fbabf	-0.050715204
204	0xbd769ab1	-0.06020612
205	0xbc961755	-0.018321672
206	0x3d804a22	0.0626414
207	0x3d160d3b	0.03663371
208	0x3ca94767	0.02066393
209	0x3dbd9927	0.09257727
210	0xbcc276fd	-0.023738379
211	0xbd734da9	-0.059400234
212	0xbd4e88aa	-0.0504233
213	0x3d984b57	0.07436245
214	0xbd8d32a5	-0.06894425
215	0xbd37b7a3	-0.044852864
216	0xbc8d67db	-0.017261436
217	0x3d04f666	0.032461546
218	0xbd7cec1d	-0.061748613
219	0xbd30952d	-0.043111015
220	0x3d9c1b90	0.07622445
221	0x3a89f8bc	0.0010526399
222	0xbd0be03e	-0.0341494
223	0x3c0b76a0	0.008512169
224	0x3b102704	0.0021995911
225	0xbda73957	-0.081652336
226	0x3d9728b2	0.07380809
227	0x3d9085b2	0.0705675
228	0xbdc63af4	-0.09679213
229	0x3d21ed6b	0.03953306
230	0x3d83bd7a	0.06432624
231	0xbcdde21e	-0.02708536
232	0xbd804e27	-0.062649064
233	0x3cc2642f	0.023729412
234	0xbd83fb68	-0.06444436
235	0x3b1ac01b	0.002361304
236	0xbbc5c212	-0.006035098
237	0xbcf79f7f	-0.03022742
238	0xbc3a46df	-0.011369436
239	0x3b9e97de	0.0048398813
240	0x3d9c429e	0.07629894
241	0xbd66cdbe	-0.056348555
242	0xbc90fba9	-0.017698126
243	0x3d1d83cc	0.03845577
244	0x3c741093	0.01489653
245	0x3cb2f744	0.021846421
246	0x3d88d34f	0.06680929
247	0xbdc5c955	-0.09657542
248	0x3d17375b	0.036918025
249	0xbca05858	-0.019573376
250	0xbd03d4c2	-0.032185324
251	0xbd50336d	-0.050830293
252	0xbdc5cf53	-0.096586846
253	0xbcae6efe	-0.02129316
254	0xbb0ad3da	-0.0021183402
255	0x3dbc52b9	0.091954656

distance_forces.model.6.bias f4 [128]
0	0xbd250a8c	-0.04029326
1	0x3d869322	0.06571032
2	0xbd537469	-0.05162469
3	0x3d93c262	0.0721481
4	0xbc619c0a	-0.013770113
5	0x3dadc65d	0.084851004
6	0x3df4fbf0	0.11962116
7	0xbd8af745	-0.06785444
8	0x3dc0b082	0.09408666
9	0xbd86e46f	-0.06586539
10	0xbdb3244f	-0.0874716
11	0xbb1c8169	-0.0023880845
12	0x3d179263	0.03700484
13	0xbb2341fe	-0.002491116
14	0xbd4ebd79	-0.050473664
15	0xbd578f68	-0.052626997
16	0xbd3f2acc	-0.046671674
17	0x3de0a417	0.10968798
18	0x3d5909db	0.052987915
19	0xbc9db400	-0.01925087
20	0xbd49cf2e	-0.049269848
21	0x39d08415	0.0003977126
22	0xbd3b5c46	-0.045742296
23	0x3c4abbcf	0.012373879
24	0x3d84fc74	0.06493464
25	0xbd4f127b	-0.050554734
26	0xbb8ef8a5	-0.004363137
27	0x3ca07c62	0.01959056
28	0xbbe2bdf0	-0.006919615
29	0xbd7896c9	-0.060690675
30	0xbda55b3a	-0.08074041
31	0xbcfc6903	-0.030811792
32	0x3dbe285c	0.09285042
33	0x3d8330b0	0.06405771
34	0xbd66e73f	-0.056372877
35	0x3c115111	0.008869425
36	0x3cb06b79	0.021535622
37	0x3d70fe93	0.05883653
38	0x3c8bffd9	0.017089771
39	0xbdb4c693	-0.088269375
40	0x3dad9df9	0.084773965
41	0x3d96390f	0.07335102
42	0x3ccfbfb0	0.025359958
43	0x3d3af824	0.0456468
44	0xbd223703	-0.039603245
45	0x3dd2bdab	0.102900825
46	0xbd75fe69	-0.060057078
47	0xbcd4cf63	-0.025977796
48	0x3dc093ca	0.094031885
49	0x3bbfb29a	0.0058501484
50	0xbdae93fc	-0.085243195
51	0xbd662092	-0.056183405
52	0x3d4b5372	0.049640127
53	0xbcf1b602	-0.029505733
54	0x3d592163	0.053010356
55	0x3d5e1a53	0.054224323
56	0xbc1462a5	-0.009056722
57	0x3d96fa31	0.07371939
58	0xbd8a922c	-0.06766161
59	0x3d9d2bbb	0.076743565
60	0xbdaf0f59	-0.08547849
61	0x3d295ba0	0.041347146
62	0xbd8fbcac	-0.07018408
63	0x3db4def3	0.08831587
64	0x3d13d902	0.036095627
65	0xbc14d133	-0.00908308
66	0x3d97256e	0.07380186
67	0x3d5c02d8	0.05371365
68	0xbd2ab6bd	-0.04167818
69	0x3dc39c03	0.09551241
70	0x3c9cdec8	0.0191492
71	0xbda0ffad	-0.07861266
72	0xbdb5c0bc	-0.08874652
73	0xbc1095a7	-0.008824742
74	0x3b3a94a3	0.0028469942
75	0xbce1227e	-0.027482267
76	0x3c61801b	0.013763453
77	0x3c805932	0.015667532
78	0x3d607059	0.054794643
79	0x3d8ec10d	0.06970415
80	0xbda1f455	-0.07907931
81	0x3d9be803	0.07612612
82	0x3d6ce950	0.05783969
83	0x3d980b55	0.074240364
84	0xbd2b5b6f	-0.041835245
85	0xbd4d1e56	-0.05007776
86	0x3d797e8a	0.060911693
87	0x3d9f0be0	0.07765937
88	0x3b06b998	0.00205574
89	0xbd82faa7	-0.063954644
90	0x3d1a22e9	0.03763095
91	0x3da1297c	0.07869241
92	0x3c2167e6	0.0098514315
93	0x3c9f16e5	0.019420097
94	0x3d639406	0.055561088
95	0x3d50add0	0.05094701
96	0xba00e083	-0.00049162674
97	0x3dec21e3	0.11529901
98	0xbd1f25e3	-0.03885449
99	0xbd99657a	-0.07490058
100	0xbbfd2ffd	-0.007726668
101	0xb9b6d9d3	-0.00034876037
102	0xbd1f57ea	-0.0389022
103	0xbd93fff1	-0.07226551
104	0xbd030d56	-0.03199514
105	0x3d4d10f5	0.050065
106	0x3d824529	0.063608475
107	0x3db258a3	0.08708312
108	0xbd76857f	-0.060185906
109	0xbca88aed	-0.020574057
110	0xbd7f107d	-0.062271584
111	0x3d353dd8	0.044248432
112	0x3c698ba3	0.014254483
113	0x3de8d2d6	0.11368339
114	0xbda517c4	-0.080611736
115	0x3d7185db	0.058965545
116	0xbc9dee90	-0.019278795
117	0x3d9949e7	0.07484799
118	0xbd19db66	-0.03756275
119	0xbd67db8d	-0.056605864
120	0x3d6dd408	0.058063537
121	0x3db6dc75	0.089287676
122	0xbd941c32	-0.0723194
123	0xbd2d0c09	-0.042247806
124	0x3d39ab39	0.045329306
125	0x3ca1bfa1	0.019744696
126	0x3d188afa	0.037241913
127	0xbd265ebb	-0.040617686

distance_forces.model.8.weight f4 [128, 128]
0	0x3d1b4e72	0.03791661
1	0x3cfdb5e9	0.03097053
2	0x3bba08cb	0.0056773177
3	0x3db9be27	0.09069472
4	0x3e009659	0.12557353
5	0x3d8a5b9e	0.06755756
6	0x3dd34d20	0.10317445
7	0xbd63f635	-0.055654723
8	0x3d76d5c3	0.060262453
9	0xbc7e9a5b	-0.015539731
10	0x3c9e6f3f	0.019340156
11	0x3d3a9b50	0.045558274
12	0x3e26c975	0.16287787
13	0x3cd4cf36	0.025977712
14	0xbd711614	-0.058858946
15	0x3d16fbb2	0.03686113
16	0xbd4471c3	-0.047960054
17	0x3d4edd88	0.050504237
18	0x3b4cdc0d	0.003125909
19	0x3d6ccaf8	0.057810754
20	0xbd1782db	-0.036990028
21	0x3d320465	0.043461222
22	0xbd23615d	-0.039887775
23	0x3cee7925	0.0291105
24	0x3da0a7dc	0.07844517
25	0x3d36775d	0.044547427
26	0x3ceda83f	0.02901089
27	0xbe03512a	-0.1282393
28	0xbcbe7d52	-0.023253117
29	0xbd799c0b	-0.06093983
30	0xbc5e0012	-0.013549821
31	0xbcbb5435	-0.022867301
32	0x3ba68e3b	0.005082873
33	0xbd117737	-0.035514083
34	0xbd94a639	-0.07258267
35	0x3d92fe71	0.07177437
36	0x3db95293	0.09048953
37	0x3cc23473	0.02370665
38	0x3d130201	0.035890583
39	0x3a42f5e2	0.0007437152
40	0xbc9a3b2d	-0.018827045
41	0x3d9438af	0.07237374
42	0x3e1c9bd4	0.15293819
43	0xbc4090a3	-0.011753234
44	0x3c5aab72	0.01334654
45	0xbcfabe7a	-0.030608404
46	0xbd35215a	-0.04422126
47	0x3db35c1c	0.08757803
48	0x3e1a4f26	0.15069255
49	0x3d5992a2	0.053118356
50	0xbda443a9	-0.08020718
51	0x3dd44c93	0.10366168
52	0xbd15021f	-0.036378976
53	0xbe3330cd	-0.17499085
54	0x3d2efd69	0.04272214
55	0x3c4d5938	0.012533478
56	0x3c9f78f0	0.019466847
57	0xbded6bc4	-0.1159282
58	0x3d8fde54	0.070248276
59	0x3cc614ba	0.024179805
60	0x3db0208e	0.08599959
61	0x3dae214d	0.08502445
62	0xbd90dc4d	-0.07073269
63	0xbdd980a7	-0.106202416
64	0xbdc5b84d	-0.09654293
65	0x3d2c9649	0.04213551
66	0x3dfd160f	0.12357723
67	0x3cf668af	0.030079214
68	0x3cce99e4	0.025219865
69	0xbd19f8c9	-0.037590776
70	0x3d0d96c1	0.0345676
71	0xbdb454fc	-0.08805272
72	0x3e043f05	0.12914665
73	0x3d4c5c6d	0.04989283
74	0x3d06eb0d	0.032939006
75	0xbd47da77	-0.04879233
76	0x3ccda6b6	0.025103908
77	0x3c198624	0.0093703605
78	0xbcecd173	-0.028908467
79	0xbbb880ce	-0.005630589
80	0x3d1ea5f8	0.0387325
81	0xbcd80c05	-0.026372919
82	0x3c37e273	0.011223423
83	0xbda5416f	-0.08069121
84	0x3d596194	0.053071573
85	0xba708abf	-0.0009175948
86	0x3bbf9d3b	0.0058476008
87	0x3df183ae	0.11792694
88	0x3cf0af73	0.029380536
89	0xbd4173ba	-0.047229506
90	0x3db142ea	0.08655341
91	0x3d988a40	0.07448244
92	0xbd05fead	-0.03271358
93	0xbd6b5776	-0.057456456
94	0x3d2315d8	0.039815754
95	0xbce5b398	-0.028039739
96	0x3d7cc811	0.061714236
97	0x3d9cb5a0	0.0765183
98	0x3dd2dc89	0.1029597
99	0xbd50ed07	-0.051007297
100	0x3d91b3b7	0.07114356
101	0x3e1808d5	0.14847119
102	0x3d8a4dad	0.06753097
103	0xbd919f00	-0.07110405
104	0x3c03ecc8	0.0080520585
105	0xbe274271	-0.16333939
106	0x3c6ab202	0.014324667
107	0xbd138732	-0.036017604
108	0x3c17e17e	0.00927007
109	0xbc9fcecb	-0.019507786
110	0x3d9582c2	0.07300331
111	0xbd0c66ce	-0.03427773
112	0x3db23a8f	0.087025754
113	0x3d3fe1e0	0.04684627
114	0x3ca0af39	0.019614803
115	0xbc690fd1	-0.014224962
116	0xbd9117fb	-0.07084652
117	0xbde28dfd	-0.11062238
118	0xbc4b4d13	-0.012408513
119	0xbd98d88f	-0.0746318
120	0xbe0de712	-0.13857678
121	0x3cfd5bbb	0.03092753
122	0x3d03b048	0.032150537
123	0xbdad0a71	-0.08449257
124	0x3e04825e	0.12940356
125	0xbdbda3d4	-0.09259763
126	0xbb1e0592	-0.0024112207
127	0xba52cf58	-0.0008041761
128	0xba8afb21	-0.0010603407
129	0xbc851173	-0.016243672
130	0x3daa2848	0.08308464
131	0x3d3a10a9	0.045426045
132	0xbc9560a5	-0.01823456
133	0x3dd380b9	0.10327286
134	0x3dcb1a69	0.09917147
135	0xbd4d9470	-0.05019039
136	0x3d809648	0.06278664
137	0xbd7cccfe	-0.061718933
138	0x3d2a5683	0.04158641
139	0xbbc9e522	-0.006161348
140	0x3e0bebb0	0.13664126
141	0xbd578155	-0.052613575
142	0xbc9060de	-0.017624315
143	0x3c048bb6	0.00808995
144	0x3c959c64	0.01826305
145	0x3dc5dc2a	0.096611336
146	0xbc4948d9	-0.012285435
147	0xbd601577	-0.05470797
148	0x3c1a77f3	0.009428012
149	0x3c7d48ce	0.0154592525
150	0x3bf90ff1	0.0076007773
151	0x3d31709f	0.043320294
152	0x3e114cde	0.14189479
153	0x3e086a59	0.13321818
154	0xbd6552c9	-0.055987153
155	0xbdfb3b37	-0.12267154
156	0xbdfe7ca0	-0.12426114
157	0xba04d292	-0.0005066778
158	0x3c9247cd	0.017856503
159	0xbd8fba54	-0.07017961
160	0x3dac82e4	0.08423403
161	0xbdd0eaac	-0.1020101
162	0xbc84b93a	-0.016201604
163	0x3d8772c9	0.066136904
164	0x3da03563	0.07822683
165	0xbd33f9f6	-0.043939553
166	0x3dd3712a	0.10324319
167	0x3c88eebd	0.016715402
168	0xbd5b73e4	-0.05357732
169	0x3cb9d463	0.022684282
170	0x3e196177	0.14978586
171	0x3d5f7916	0.054558836
172	0xbd89a09f	-0.06720089
173	0xbccc1a25	-0.02491481
174	0x3d31cd9f	0.043408986
175	0x3d3fe9e7	0.046853926
176	0x3debccb2	0.11513652
177	0xbce20480	-0.027590036
178	0x3d20f8a7	0.039299633
179	0xbda468f3	-0.0802783
180	0xbdb50c83	-0.08840277
181	0xbd90663b	-0.07050749
182	0x3df1d691	0.118085034
183	0x3d6fa60f	0.058507975
184	0x3d86ffec	0.06591782
185	0xbc70f2df	-0.0147063425
186	0x3c87b9db	0.016568115
187	0x3db62819	0.08894367
188	0x3d366a66	0.044535063
189	0x3d966492	0.07343401
190	0xbd8c5f78	-0.06854147
191	0x3c42b375	0.011883606
192	0x3d66a260	0.056307197
193	0xbd0e208d	-0.03469901
194	0x3d848c7c	0.06472108
195	0x3cc35d61	0.023848237
196	0x3c669e5b	0.014075841
197	0xbde540ce	-0.11194001
198	0x3d7b950d	0.061421443
199	0x3d9a12c1	0.07523108
200	0xbd2b1e2d	-0.041776825
201	0xbe09dea2	-0.13463834
202	0x3c9fdb4a	0.019513745
203	0xbd813116	-0.063081905
204	0x3d2caf0e	0.042159133
205	0x3d660465	0.056156535
206	0x3cc8d2f8	0.02451466
207	0xbc37d70b	-0.011220704
208	0x3cc29a6f	0.02375528
209	0xbd9326c1	-0.07185126
210	0x3d8a5629	0.06754715
211	0x3bf283b4	0.007400954
212	0xbd874363	-0.0660465
213	0xbdb7f0e7	-0.08981495
214	0xbceed51e	-0.029154357
215	0x3c34735e	0.011013834
216	0xbb0683b5	-0.002052528
217	0xbdb533b8	-0.08847755
218	0xbb4af64e	-0.0030969563
219	0x3d9f6d62	0.07784535
220	0xbdec87f5	-0.11549369
221	0xbdb0e235	-0.086368956
222	0x3b8aa41a	0.004230988
223	0x3d8443fa	0.06458278
224	0x3bec8198	0.007217597
225	0x3d3d0ece	0.046156697
226	0x3dbac30c	0.091192335
227	0x3ce61a21	0.028088631
228	0x3ab5438c	0.0013829335
229	0x3e242c12	0.16032436
230	0x3d4a238b	0.049350303
231	0xbd8ebca9	-0.06969578
232	0x3dc8ea70	0.098103404
233	0xbd706ebe	-0.058699362
234	0x3bca54af	0.006174646
235	0x3c722eaf	0.014781638
236	0xbd28ba6d	-0.041193414
237	0x3cd55e21	0.02604586
238	0xbc75c319	-0.015000128
239	0xbdf08b70	-0.117453456
240	0x3dad70ec	0.08468804
241	0x3d654a2e	0.055978946
242	0x3ad50fab	0.001625528
243	0xbd193c95	-0.03741129
244	0xbdde379a	-0.10850449
245	0x3d03bdb4	0.032163337
246	0xbc8e12e0	-0.017342985
247	0x3b30f877	0.0027003565
248	0x3c87eb9e	0.016591843
249	0x3c79f65f	0.015256493
250	0xbd8415a4	-0.0644944
251	0xbda733c2	-0.08164169
252	0x3bedf462	0.0072617987
253	0xbd0b5d43	-0.03402449
254	0xbd1b74c8	-0.03795317
255	0xbd685cdb	-0.05672918
