models/current.pt (torch, 751183 bytes, 29 tensors)

distance_forces.model.0.weight f4 [128, 26]
000000 98 a4 3d be 57 8b 2f 3e 09 92 e9 bd 7c 33 23 3e
       -0.18519819 0.17142998 -0.11404807 0.15937608
000010 0d a5 10 be ee b4 e2 3d 31 7c a6 3d 30 7c 25 be
       -0.14125462 0.11069666 0.081291564 -0.16160655
000020 6b 42 57 be 23 b5 c8 3d 36 ff 66 be 66 d3 0b be
       -0.2102143 0.09800174 -0.22558293 -0.13654861
000030 8a 9c 9a bc c1 3d c7 3d b4 84 24 3c 9a 7c 06 3e
       -0.018873472 0.097285755 0.0100414045 0.13133469
000040 3c 51 05 3e 79 eb a8 3c 76 33 07 bd 30 c4 b0 bc
       0.1301927 0.020620095 -0.03300806 -0.021577924
000050 fb 64 18 be 72 72 f6 3d 5f 23 d2 bc 31 a6 d9 bc
       -0.14882271 0.120335475 -0.025651632 -0.026568504
000060 19 02 dd bd e7 19 4a 3e 2a c3 da 3d dc 66 18 be
       -0.10791416 0.19736443 0.10681756 -0.14882988
000070 13 ce 99 3c 3a 71 06 3e 17 8a 88 3d d1 ac bb 3d
       0.018775022 0.1312913 0.066669635 0.091638215
000080 67 cd c6 3c c5 25 55 bd 16 48 ca bd 60 74 67 bd
       0.024267865 -0.052037973 -0.098770306 -0.05650747
000090 61 c3 f8 bd 21 af 84 bd 73 34 6e bd 22 1d d2 3d
       -0.121466406 -0.06478716 -0.05815549 0.10259463
0000a0 19 f8 c1 bc 55 a5 14 be 49 60 2d 3e 02 15 af bb
       -0.023677872 -0.14516194 0.16931261 -0.0053430805
0000b0 34 72 3c be 2b 7d 6e 3d 7e 88 de bd f4 08 2d be
       -0.1840294 0.05822484 -0.108658776 -0.16897947
0000c0 a0 e7 95 bd 43 a8 a7 3d 5f 47 47 3c 66 31 bb be
       -0.073195696 0.0818639 0.012163012 -0.36561126
0000d0 66 73 65 bd 31 a9 d7 3d ac 63 06 be 6c 42 00 3e
       -0.056018256 0.105303176 -0.1312396 0.12525338
0000e0 43 31 be bd b3 b8 01 bd 50 a8 17 be b7 cf 71 3c
       -0.0928674 -0.031670284 -0.148103 0.014758996
0000f0 e8 c5 99 3d 1c cd 0c be 6e 3c 1a 3e b8 3e c5 bd
       0.07508451 -0.13750118 0.15062115 -0.09631103
000100 4c 9b 10 be 60 8e 3d be 58 9d c9 bd 0e 97 01 be
       -0.14121741 -0.18511343 -0.09844464 -0.12655279
000110 2b ad a0 3d 57 cf 64 bd a9 88 63 3e 49 aa 60 3d
       0.07845529 -0.055861797 0.222201 0.054849897
000120 03 84 ba bd 6e a5 1b 3e 2a 78 17 3d c9 3b 2a 3d
       -0.091072105 0.15199825 0.03697983 0.04156092
000130 0a 5b a1 bd 7e 94 4c be 21 e2 b9 bd 13 7b bd bc
       -0.078786924 -0.1997852 -0.09076334 -0.023129975
000140 1d b3 95 bd ea 35 35 3e 35 b5 b0 bd 48 3f 43 bd
       -0.07309554 0.17696348 -0.086283125 -0.04766777
000150 98 b7 98 bd 82 5d c2 bd 1e e1 ca 3d 9c af dd 3d
       -0.07456893 -0.094904914 0.09906219 0.108245105
000160 9b 28 6c 3c 68 9e ca bd 0e 68 5c 3d 7b 2e 0f 3e
       0.014413978 -0.09893495 0.05381017 0.13982575
000170 bf 60 d3 3d 3f 1a 03 3e 5a f2 c8 3d 78 e4 be 3d
       0.10321187 0.12802981 0.0981185 0.09320921
000180 55 4e c8 bd 9e 31 01 3e cb b3 0e be 7c f1 1d bd
       -0.09780566 0.12616584 -0.13935773 -0.038560376
000190 5c 05 21 3e 9a 84 fb bc c9 b2 0b 3e 1d 51 2c 3e
       0.157247 -0.030702878 0.1364242 0.16827817
0001a0 64 6f 1f 3e e8 6d 07 be 4c ed 27 3e 7e 82 82 be
       0.15569836 -0.1322552 0.16399115 -0.25490183
0001b0 50 24 71 3d 34 c0 b0 bb a7 ee f0 3d 25 aa a1 3d
       0.05887252 -0.005394006 0.11764269 0.078937806
0001c0 36 18 38 3d 86 c1 5d 3d 7c d4 19 3e 34 4b d6 bc
       0.044944964 0.054139636 0.15022463 -0.026158907
0001d0 a5 2b 12 3e 11 c2 27 3e aa ef a4 3c 68 66 6c 3c
       0.14274462 0.16382624 0.020133812 0.014428712
0001e0 55 da ba 3d 18 ed 06 3e d5 72 5a 3d 0c 5f 80 3d
       0.09123675 0.13176382 0.05333217 0.06268129
0001f0 7b 1f 34 3d a9 a6 02 bd 72 91 10 3e e1 ed 12 3d
       0.043975335 -0.03189722 0.14117983 0.03587139
000200 4e b1 55 be 66 23 49 bd 03 f0 07 be 11 fe a6 3c
       -0.20868418 -0.049106024 -0.13275151 0.02038482
000210 71 42 5b be 50 49 e5 3d 7b 54 e0 3d 57 0e 97 bc
       -0.21412064 0.11195624 0.10953613 -0.018439455
000220 f7 af e6 3c 68 95 49 bd a3 a1 3a 3e fc 24 4d be
       0.028160078 -0.04921475 0.18225722 -0.2003364
000230 b7 de c1 bd 00 79 4d 3e 25 73 1f 3e 62 4b b7 3d
       -0.094663076 0.20065689 0.15571268 0.08949925
000240 f2 13 81 bd 3b 34 24 3e 2f 3a 06 3e 17 e7 a7 bd
       -0.063026324 0.1603555 0.13108133 -0.08198374
000250 57 ba 8f bc ca dd 1e 3e 1d 0c 4d 3d c5 58 d0 bd
       -0.017544908 0.15514293 0.05006038 -0.101731814
000260 cc 34 c7 3d 79 ec 0c 3e 2f 9a 1a bd 69 91 ac be
       0.09726867 0.13762082 -0.037744697 -0.3370469
000270 92 ef 04 3d c2 c4 73 3c 06 19 06 3e 67 9e 4f be
       0.032455035 0.014878454 0.13095483 -0.2027527
000280 ed 09 89 3d 86 47 58 3d ab b1 79 3c ce 52 6f bb
       0.06691346 0.052802585 0.015240113 -0.0036517861
000290 72 c7 7a be db 97 13 3e d9 ad 5c be ca 47 3e bc
       -0.24490145 0.14413397 -0.21550693 -0.0116137955
0002a0 83 a3 77 be 37 93 2b 3a e7 f3 71 bc 5d 99 0b bc
       -0.24183469 0.0006545069 -0.0147676235 -0.008520451
0002b0 73 3f 20 be ab a8 ee 3c 74 7c f1 bb d7 31 ef bc
       -0.15649204 0.029133162 -0.0073695723 -0.02919857
0002c0 7c ed 6d 3d 0e 26 a2 bd 9f 59 0a bd f8 6d cc bc
       0.05808781 -0.079174146 -0.033776876 -0.024954781
0002d0 f9 b7 20 3e 65 2d ff 3d 61 28 f2 bd b9 15 1d bd
       0.1569518 0.1245983 -0.11824108 -0.038350794
0002e0 84 2b 68 bd af 8e 7e bd 79 2d 1a be d3 00 59 bd
       -0.056682125 -0.062147792 -0.15056409 -0.0529793
0002f0 8d 19 d2 3d ef e9 16 3d 7f 84 41 3e 38 49 da bd
       0.1025878 0.03684419 0.188982 -0.106584966
000300 4e af fb 3d 85 1b 36 3e fe 2e 85 3c b7 89 f9 3d
       0.12289296 0.17783935 0.01625776 0.1218447
000310 26 db 1e be c5 7a 19 bd 9a 90 4a 3d dc 02 43 be
       -0.15513286 -0.037470598 0.04945431 -0.1904406
000320 26 87 34 3e 35 ae 2e 3e ea 90 dd bd ab c4 87 3c
       0.1762968 0.17058642 -0.10818656 0.01657327
000330 9b 8c 53 3d 4b 48 47 3d 5b 5b 47 3e 63 0f 8b be
       0.051647764 0.04865293 0.19468443 -0.27160177
000340 61 b4 a9 3c 60 cb de bd 38 f4 46 3e 29 61 9b 3d
       0.020715894 -0.108786345 0.194291 0.07586891
000350 e7 56 a7 3d 48 8f 13 3d 60 1f c6 3d f4 31 f3 3c
       0.08170872 0.036025316 0.09673953 0.029686905
000360 c7 53 fd bb 93 b6 d8 3d 80 d9 b2 3b b2 c6 cd 3c
       -0.0077309343 0.10581698 0.005458057 0.02511916
000370 07 ec 31 bb c8 3f 03 3d e5 ef 91 3d e4 da f0 3d
       -0.002714874 0.03204325 0.071258344 0.117605
000380 41 cc fb 3c bd 7e 94 3c 83 59 ff 3d 30 18 6d 3d
       0.030737044 0.01812684 0.12468245 0.057884395
000390 2e 70 0b 3e 29 8c bf 3d 13 6d 2e 3d 55 b1 da 3d
       0.13617012 0.09352905 0.04258449 0.10678355
0003a0 9a ef 58 be b8 7c 98 bb e1 a3 0a 3e 30 2e f9 3d
       -0.2118515 -0.0046535395 0.13539077 0.12167013
0003b0 85 f6 fe bd d3 44 b7 bd ce a4 5b be 4a 30 d3 bd
       -0.124493636 -0.08948674 -0.21449587 -0.10311945
0003c0 c2 69 67 3d 46 e6 2b bd b0 2c 42 be ef e0 08 3e
       0.056497343 -0.041967653 -0.1896236 0.13367055
0003d0 3f 12 88 bd 4b 30 3b 3e 3a 6d e7 3d 6e fe fa 3d
       -0.06644105 0.18280141 0.1130013 0.1225556
0003e0 46 46 b2 bd 6c 99 75 bd c5 d2 93 3d 59 f3 c6 bd
       -0.0870481 -0.059960768 0.072179355 -0.09714384
0003f0 c8 96 31 be 96 ff 8f 3d ac 72 8e 3d 5c 64 7b 3d
       -0.17342675 0.07031171 0.06955466 0.061375007

distance_forces.model.0.bias f4 [128]
000000 88 41 57 bd 45 48 1c 3e 87 50 d0 bd 06 08 18 be
       -0.05255273 0.15261944 -0.10171609 -0.1484681
000010 b0 76 44 3d 3c 0c 22 3d 7a f0 3c be 86 c9 cf 3d
       0.04796475 0.03956245 -0.1845111 0.101458594
000020 77 48 47 3e 53 e0 4e be 11 20 30 3e e1 99 28 be
       0.19461237 -0.2020276 0.17199732 -0.1646495
000030 e1 2c d2 bd 0d 82 3e 3c b9 38 67 3e 71 af 27 be
       -0.10262466 0.011627686 0.22580232 -0.1637552
000040 fe 59 25 3e 05 77 b0 bd cf 9c 0d 3d 43 da 75 3d
       0.1614761 -0.08616451 0.034573372 0.060022604
000050 4f d6 8d 3d c1 e6 44 3c ea 25 20 3e 24 23 09 3e
       0.06925642 0.012017907 0.15639463 0.13392311
000060 d5 f2 df bd d6 b5 1f 3e 3a 10 37 bc 8c 2b 38 3e
       -0.109349884 0.15596709 -0.011173302 0.17985362
000070 3a 48 ad bb d4 c2 13 3e b4 63 b4 3c 3a 7a 0c 3e
       -0.005288151 0.1442979 0.022020198 0.137185
000080 b3 0f f7 bd b8 ee 17 be fc f8 1a bd 78 13 d2 bd
       -0.12063541 -0.14837158 -0.037835106 -0.102576196
000090 83 c2 50 bd 08 03 af 3c 09 99 4f 3e d7 cf 51 bd
       -0.05096675 0.02136375 0.20273222 -0.051223602
0000a0 4d 9b d6 bd f5 a6 36 3b 56 68 e0 bd 82 02 5e 3c
       -0.1047884 0.002787051 -0.109574005 0.013550403
0000b0 61 44 26 bd 2d 9d b4 3c c7 81 3a 3d 2b 98 3c 3e
       -0.040592555 0.022047604 0.04553392 0.18417422
0000c0 3a 6f 7d 3d 19 01 0a 3d 8d 67 16 3d 42 7c f4 bd
       0.061873652 0.033692453 0.036719847 -0.11937763
0000d0 5b ba 38 ba 48 c0 12 be 89 9b 06 3e cc c6 36 be
       -0.0007046812 -0.14331162 0.1314527 -0.17849272
0000e0 a7 f9 84 bc 39 ee 45 be 9d 0b 01 be 65 54 16 be
       -0.016232325 -0.19329156 -0.12602086 -0.14680631
0000f0 cc 35 1d 3e b1 3e 0f 3d bb 53 ea 3d 98 cb 2c 3d
       0.15352553 0.034971897 0.114417516 0.04218635
000100 da cd 9d bd a1 41 de 3c 42 c1 e3 bc ee a6 c8 bd
       -0.07705279 0.027130904 -0.027802113 -0.09797464
000110 9c 64 ff bd 0f 22 2e bd a0 17 01 3e 94 e2 ef bd
       -0.124703616 -0.04251295 0.12606668 -0.11713138
000120 af c5 ff bd 63 0e ab bd cb 5c 3f 3e ff 35 e7 bd
       -0.12488877 -0.083523534 0.18687741 -0.11289596
000130 2e 7c 30 bd f4 33 32 3e 6e 8a c1 3d 93 4d 0c 3e
       -0.043087177 0.17402631 0.094502315 0.13701467
000140 b9 2d f0 bd d9 a6 38 3e 3e 2b 86 bd 0c 62 d2 bd
       -0.11727471 0.18032397 -0.065512165 -0.10272607
000150 91 ab ae bc 19 38 2d 3e 3f 0c 1c 3e 12 0f c1 3d
       -0.021322044 0.16915931 0.15239047 0.094267026
000160 f0 d5 24 3d 40 6b bd 3d a8 29 16 3e be 67 5c 3d
       0.04024309 0.09248972 0.14664328 0.053809874
000170 63 ff 2c be 60 23 83 bd cc d8 1e be 5e 39 1d bd
       -0.16894297 -0.064032316 -0.15512389 -0.038384788
000180 d4 30 16 3d 6f 57 23 bc 66 9c 51 bb a0 d2 28 3d
       0.03666766 -0.009969576 -0.003198409 0.041216493
000190 46 8f e2 3d fb 00 37 be 4b fd 35 3c 6d 6e 12 be
       0.110624835 -0.17871468 0.011107753 -0.14299937
0001a0 1e ac ab bd 20 ea 83 3d 51 23 29 bd a8 0f 7e 3d
       -0.08382438 0.0644114 -0.041293446 0.06202665
0001b0 91 14 d4 3d 1b 4d 27 be 0a 20 ed bd 88 24 7d bd
       0.10355485 -0.16338007 -0.115783766 -0.061802417
0001c0 39 e7 38 3d d2 c4 f8 bd 18 91 e4 3d 6d da 13 3e
       0.045142386 -0.121469155 0.11160487 0.14438792
0001d0 83 0f fb bd 11 b2 54 bd 82 7a 60 3e b2 ff d4 3d
       -0.12258818 -0.05192763 0.21921733 0.104003325
0001e0 d2 9f 19 bd 1d 2b ca bd 79 17 19 be ca 98 9a 3d
       -0.037505932 -0.098715045 -0.1495036 0.075486735
0001f0 d7 77 3a be b4 d6 69 3e 67 62 68 3e 23 88 c4 bc
       -0.18209778 0.22835809 0.22693788 -0.023990696

distance_forces.model.2.weight f4 [128, 128]
000000 21 28 06 be a0 69 ef ba 05 6f 54 3d 50 a5 9a bd
       -0.13101245 -0.0018265732 0.05186369 -0.07551062
000010 14 51 84 bb 7d 25 80 bd f2 b9 75 bc ed fb 01 bc
       -0.0040379856 -0.0625715 -0.014997946 -0.007933599
000020 b1 ff 03 be d7 49 03 bd 01 7a b6 3d 94 d0 6a bd
       -0.12890507 -0.03205284 0.08909989 -0.05732782
000030 c7 30 b2 ba 13 44 3a bd d2 d8 b8 bd 39 36 73 3d
       -0.0013594859 -0.045475077 -0.0902573 0.059377883
000040 d1 eb 54 3d 40 26 9c 3c e8 39 81 3d fe db f5 bb
       0.051982705 0.019061208 0.06309873 -0.0075030318
000050 6a 2f f5 bb e8 db 60 bd 8f 04 85 3c bd 37 4d 39
       -0.007482459 -0.05489722 0.016237525 0.00019571088
000060 2a 8c 64 3d 1c 23 35 3d fd 6b 13 ba d4 81 e0 bd
       0.055797733 0.044222936 -0.00056236965 -0.10962263
000070 12 16 8c bb 4b a2 c9 bb da 87 2f bd 0c 0c b1 bd
       -0.004275092 -0.00615338 -0.042854168 -0.08644876
000080 a1 f9 17 bd 31 ae a1 bc 87 c6 33 3d 84 eb 94 bd
       -0.0371033 -0.019736381 0.043890502 -0.072714835
000090 e1 73 69 bd 14 ea ad 3d e3 a9 05 be f7 50 dc bc
       -0.056995276 0.084919125 -0.13053088 -0.026894076
0000a0 a9 d1 00 bd 57 07 6a bd 62 57 c0 3d b9 c8 a8 bd
       -0.031449948 -0.057135906 0.09391667 -0.0824141
0000b0 07 bf 51 3d 04 fe 01 be 0e 4d c3 bc 8e ae c5 3c
       0.05120757 -0.12694556 -0.023840453 0.024131086
0000c0 bb e3 a9 3d 7b 3c 7a bd a8 80 2d 3a 2e 1c e3 3c
       0.08295389 -0.061092835 0.00066185975 0.027723398
0000d0 f6 9a be bb b0 28 c1 bd 22 ca 70 bd 80 ff ca bd
       -0.0058168126 -0.09431589 -0.05878652 -0.09912014
0000e0 30 88 19 bd ec fc 85 3d 4c 1f a0 bb 57 a8 bd 3d
       -0.037483394 0.06542382 -0.0048865434 0.09260624
0000f0 d6 4e a9 3d 82 d2 52 bd 20 01 ca 3c 92 c9 cb 3c
       0.0826699 -0.051470287 0.02465874 0.02487639
000100 47 fa f8 bd 8f 7c 37 bc b5 d1 6e bc 2e e1 8a bd
       -0.121571116 -0.011199131 -0.014576365 -0.06781231
000110 a2 f1 5d 3b a8 21 9e bc e1 e5 53 3d 6e f3 ab 3c
       0.0033865948 -0.019303158 0.0517329 0.0209901
000120 1e a3 09 bd 1e 0c 2f 3d f1 de 06 3d a3 90 76 3d
       -0.033602826 0.042736165 0.032927457 0.06019653
000130 ec 8e a2 3d bd a2 75 3d e3 c7 24 be 1b 8b 57 bc
       0.079374164 0.059969652 -0.16091876 -0.013155724
000140 19 67 8f bd d5 8b ab bd 03 43 fd bc d2 94 8f bd
       -0.07002086 -0.0837628 -0.030915743 -0.07010807
000150 f6 06 fe bd 78 ac 52 bd 7c 9c be 3d eb 36 24 3c
       -0.124036714 -0.05143401 0.09307191 0.010022859
000160 24 8f b8 bc 12 40 09 be 55 50 da bc c0 5e d6 3d
       -0.022529192 -0.13403347 -0.026649633 0.10467291
000170 c8 96 ca bc 6d b7 58 3d 16 4d c4 3d ec 8a c9 3d
       -0.024730101 0.052909303 0.095850155 0.0984095
000180 b6 00 ab 3d 15 85 c4 bc 9d b8 e2 3b ef 75 bb bc
       0.08349745 -0.02398924 0.0069189803 -0.022883384
000190 6b df 58 3d 47 da de bc 28 9d 45 bd b2 f5 01 be
       0.052947443 -0.027203692 -0.04824558 -0.12691382
0001a0 1b 12 3a be 84 24 dd 3c c8 6a 74 3d 5e 1a 2e 3d
       -0.18170969 0.026994951 0.059672147 0.042505614
0001b0 60 1c 9c bd 84 cd 97 3d 29 b2 76 bd 29 da b9 bc
       -0.076225996 0.07412246 -0.0602285 -0.022687035
0001c0 da da f2 bd f3 a1 4a 3d 0d 5b 34 bd d9 5d 9d bd
       -0.11858149 0.049470853 -0.044032145 -0.07683916
0001d0 f7 c1 87 bd 89 1b 6d 3d 06 e2 bb bd 65 dd 00 bd
       -0.06628793 0.057887588 -0.0917397 -0.03146114
0001e0 67 1c d3 3c 63 dd be 3d 95 76 23 be 69 2a 92 bb
       0.02577038 0.0931957 -0.15963204 -0.004460622
0001f0 33 1d 86 3d 34 76 1e 3d ef c8 8b bd b2 01 07 39
       0.06548538 0.038686946 -0.068254344 0.00012875235
000200 43 f0 3f 3e 52 23 ef bc 04 0a eb bd e7 39 dd 3d
       0.18743996 -0.029191647 -0.1147652 0.108020596
000210 6a 20 a1 be 5a 43 eb bc ca fe 07 3d df 4b 86 3d
       -0.31470042 -0.02871864 0.03320197 0.0655744
000220 52 59 3c 3d 6a 9d 67 bd ae 27 8a bd 58 f0 5e 3d
       0.04598362 -0.056546606 -0.067458495 0.05442843
000230 e2 cd f2 bc c7 83 bd 3d e6 24 26 3d 63 ee ad 3d
       -0.029639188 0.0925365 0.040562533 0.08492734
000240 4a b3 a4 3d f7 c2 0d 3e 55 6f 3f 3d 73 e7 61 3d
       0.08042009 0.13843904 0.046737034 0.055152368
000250 9f 03 a7 bd 09 6e 87 3c 11 49 40 bd aa 4b 52 bd
       -0.081549875 0.016531961 -0.04694468 -0.05134169
000260 bd aa b2 bd 88 fe 85 bd d5 99 80 bb a7 87 d5 bc
       -0.08723972 -0.065426886 -0.003924588 -0.02606566
000270 92 70 aa 3c f7 ed bb 3d f6 a2 6c bc 8d 75 a7 3d
       0.02080563 0.091762476 -0.01444315 0.08176718
000280 da 67 a9 3d cf e4 5b bc f8 6a 86 3c 6b 2b e1 bc
       0.08271761 -0.013421251 0.016408429 -0.027486524
000290 dc 7b a6 3e 35 28 0c 3d b4 df fd bb 3e 5c cc bd
       0.32516372 0.034218032 -0.0077476148 -0.09978531
0002a0 f1 31 4f bd a0 29 a5 bd ab ef 88 3c 00 99 89 3d
       -0.050584737 -0.0806458 0.016715845 0.067186356
0002b0 b2 8a 61 3d 97 cc c9 bc 2f 9e 9a bd 09 b7 b8 bd
       0.05506391 -0.024633689 -0.075497024 -0.09019286
0002c0 92 fd da bd 3b 5d a0 3c 62 5f 91 bd 65 f1 50 3d
       -0.10692896 0.019575706 -0.07098271 0.05101146
0002d0 dd 8c 86 3d a8 83 bc 3d db 31 d5 3c 1c 0e 4c bd
       0.06569836 0.09204799 0.02602475 -0.049818143
0002e0 80 f6 1b 3e bc 5c c0 3d 8e d8 bd 3d 4d 0d ad bd
       0.15230751 0.09392688 0.0926982 -0.084498025
0002f0 e6 df 07 bc 8f c4 00 b9 a7 70 e1 bc f8 e8 d6 bc
       -0.008293128 -0.00012280255 -0.027519537 -0.026234135
000300 cc 20 9b bd 10 c8 fc bd f9 64 1c 3d 93 93 18 3e
       -0.07574615 -0.123428464 0.038182233 0.14900045
000310 21 32 30 3e a6 a2 72 bd ba f2 ae 3c a9 3d 22 be
       0.17206623 -0.059237145 0.021355975 -0.15843834
000320 51 6d 45 3c 0e a2 03 3c b8 9b 52 bd da b5 72 3d
       0.012049989 0.008034242 -0.051418036 0.05925546
000330 56 96 90 3d 58 b5 d1 bc 23 3f 3b 3c a9 a3 09 3d
       0.07059924 -0.025599167 0.011428627 0.033603344
000340 f2 69 b0 bd 81 b8 e8 3d ee c7 d6 ba 3b 9d c9 3d
       -0.086139575 0.11363316 -0.0016386488 0.098444425
000350 77 d3 61 3c e3 a1 5a bd 96 1d 2f bd 11 ab c4 bd
       0.013783327 -0.053377043 -0.042752825 -0.09602941
000360 93 51 a0 3d 84 16 07 3e 96 42 5f 3d 72 7b 02 3c
       0.07828059 0.13192183 0.05450686 0.007964002
000370 32 32 62 3d 3c 32 39 bd 17 d7 41 bd f8 2a 86 3a
       0.05522365 -0.045213923 -0.047324266 0.0010236194
000380 83 f0 5d bd 02 c3 32 bc f3 58 b1 bd 11 13 59 bd
       -0.054184448 -0.010910751 -0.08659544 -0.0529967
000390 1b 58 18 be 97 35 33 3e 8c cd 4a 3d 37 45 b0 3d
       -0.1487736 0.17500912 0.04951243 0.08606952
0003a0 28 3e ce 3d 48 56 a6 bd d7 0e c1 3d 45 fd 41 bc
       0.10070449 -0.081219256 0.094266586 -0.011840169
0003b0 b1 1a cc bd af d9 dc 3b d7 bb 1f bd 0f 4d af 3d
       -0.099660285 0.006739817 -0.038997497 0.0855962
0003c0 73 a0 5c 3e 40 3f 47 3d 2d 2f 02 be 47 e3 0c 3d
       0.21545582 0.048644304 -0.12713309 0.034396436
0003d0 8d 3f 5f 3c d5 da 1a 3c 70 01 96 bd 37 94 7c 3d
       0.0136259915 0.009451588 -0.07324493 0.061664786
0003e0 62 5b 81 bd 6d 9c d9 3a c9 44 01 bd 39 d8 b1 bd
       -0.06316258 0.0016602405 -0.03155974 -0.08683819
0003f0 40 92 bd 3d 99 3a 30 be 88 92 32 3e 15 c2 59 bd
       0.092564106 -0.17209853 0.1743871 -0.053163607

distance_forces.model.2.bias f4 [128]
000000 f4 70 97 bd e3 63 23 bc 5e e1 9a 3d 29 4e 4a 3d
       -0.07394591 -0.009972545 0.07562517 0.049390946
000010 34 1b 40 3d 02 29 35 3d 94 38 7a 3d b4 6f 4c bd
       0.046900943 0.04422856 0.061089113 -0.049911216
000020 4c 05 a2 bd d4 6c 9e bc 5c 5f 2d 3d 48 2d 11 bd
       -0.079111665 -0.019339003 0.04232727 -0.035443574
000030 65 2d a1 bb 2a 3c 10 3d 89 96 9f bc fc f7 70 bd
       -0.0049187415 0.035213627 -0.01948096 -0.058830246
000040 2d b9 26 3c 74 80 43 bd e4 68 7b bd a5 de 52 3d
       0.010175985 -0.047729924 -0.06137933 0.05148186
000050 9b 2e 28 bd 90 b9 f5 3d 82 c1 2c 3d 04 d1 e6 3d
       -0.04106007 0.11998284 0.04217673 0.11270335
000060 c3 77 48 3a 9d 69 7f bd b6 cf ec 3d 8d 5c 25 bd
       0.00076472404 -0.06235658 0.11563055 -0.040371466
000070 1e 14 b4 3d cb 64 57 3d 97 64 f1 bc 9b 17 a2 bc
       0.087928995 0.052586358 -0.02946691 -0.019786647
000080 d1 ff 96 3d 15 a0 7d 3c be 73 aa bc b1 c7 92 3d
       0.07373012 0.015480061 -0.020807143 0.07166994
000090 b8 f5 b8 bc ca cd 1e bd 8c 6d ec bc f2 39 c0 bd
       -0.022578105 -0.038770474 -0.02886083 -0.09386052
0000a0 23 6d 55 3d 93 4e 72 3d 83 0d 7d 3d 29 4d 50 3d
       0.052106034 0.059156965 0.061780464 0.050854836
0000b0 39 12 10 bd 3d 1d 34 bc b6 f9 d7 bd f7 20 56 bb
       -0.03517363 -0.010993299 -0.105456755 -0.0032673457
0000c0 73 34 31 3d 70 0b 8f bd fc 8b 86 bd a5 f2 99 3d
       0.04326291 -0.069846034 -0.06569669 0.07516984
0000d0 ed 67 a8 3b 3b 30 5b bd 4d 5f 4a 3a d8 20 98 3c
       0.005139342 -0.053512793 0.00077198894 0.018570349
0000e0 df 6d 6a 3d b8 4b af 3d 79 5a 4f bd 9d 9e 0a bd
       0.057233687 0.08559364 -0.05062339 -0.03384267
0000f0 26 9d 9c bd 83 97 97 bd 7c 09 97 bb e9 3b ab 3d
       -0.07647161 -0.074019454 -0.004609285 0.08361036
000100 f6 74 e0 3b 85 ab 26 bc 52 23 48 bd 8a 38 97 bd
       0.0068498803 -0.010172729 -0.04886181 -0.07383831
000110 86 07 82 3d bd 93 a6 3c 1a af 59 bc f4 3f f4 3c
       0.06349091 0.020334119 -0.013286376 0.029815651
000120 a6 f6 ad 3d f6 65 86 bd c0 5a 6e 3d ce 5d 87 bc
       0.0849431 -0.06562416 0.058192015 -0.016524222
000130 36 57 15 3e 95 20 c9 3d 61 53 cb bc 96 88 ad bd
       0.1458405 0.09820668 -0.024820032 -0.08473317
000140 f8 c7 83 3d a2 e0 ed bc c7 c2 8d bd 65 4f 95 bc
       0.064346254 -0.029037777 -0.069219165 -0.018226335
000150 de 5a 9e bc 00 43 83 bc 96 81 a7 bc 1b d6 8f bd
       -0.019330438 -0.016023159 -0.020447534 -0.07023259
000160 c5 c7 86 bd 1a 3e 4b bc a8 ea 68 ba 95 2b 80 3d
       -0.06581072 -0.012404943 -0.0008885064 0.062583126
000170 4b 23 ce bb 77 e3 68 3d c3 48 72 3d 8b b7 c4 3d
       -0.0062908283 0.056857552 0.059151422 0.096053205
000180 d4 b3 6c bd 46 01 82 3c ec 4f b5 3d e3 9c 34 bd
       -0.057788685 0.015869748 0.088531345 -0.04409493
000190 05 7e 08 3d 8f 08 43 bd 75 a7 03 bd f7 6c 86 3d
       0.033323307 -0.047615584 -0.03214212 0.06563752
0001a0 29 2e 30 3c c3 9c b5 bd f0 2d ff bc cb 0d 54 bd
       0.010753193 -0.088677905 -0.031149834 -0.051770967
0001b0 7e 0f 7c 3b f6 64 5b bb 9b 2c 81 bc 31 d0 6c bd
       0.0038461383 -0.0033476925 -0.01576834 -0.057815734
0001c0 d0 b4 c0 3d ed e2 e0 bb 70 a8 93 bd da 8e 9a bd
       0.09409487 -0.006862989 -0.07209861 -0.07546778
0001d0 31 e2 24 bd 5b 86 14 3c ab bc 14 bd 68 07 e1 3c
       -0.040254775 0.009065236 -0.03631274 0.027469352
0001e0 14 39 7d 3d 47 00 fd bc 4a 2b 00 3d f1 03 96 3b
       0.061822012 -0.030883921 0.031291284 0.0045781066
0001f0 1b 65 e6 3c 09 35 40 bc 6a ed ae 3c 5b 7a a6 bd
       0.028124383 -0.011731395 0.021353442 -0.08128806

distance_forces.model.4.weight f4 [128, 128]
000000 c7 d8 92 3c c6 f4 19 be 3d 24 c4 3c 2a 1c 09 3d
       0.017925633 -0.1503478 0.023943061 0.033474125
000010 90 a0 4a 3e c5 9d 18 3d 74 f8 c1 bd 72 04 17 3d
       0.19787812 0.037259836 -0.09471217 0.036869474
000020 37 ab c8 3d 94 79 37 3e d3 80 13 3e 00 22 9e 3c
       0.09798282 0.17917472 0.14404611 0.019303322
000030 59 4a 98 bc 48 26 fe 3c 97 92 1c bd 11 59 07 3d
       -0.01859014 0.031024113 -0.038225736 0.033043925
000040 03 b9 dd 3d 95 f9 b2 bd bb 2e b8 bc 5d 8e 20 3d
       0.10826304 -0.0873901 -0.02248322 0.03919827
000050 dc 6a c5 3d 48 fd 9f 3d 34 b5 64 bb 61 0d 23 3e
       0.096395224 0.078119814 -0.0034898045 0.15923072
000060 9b e5 fc bd 30 0d e0 3d 6c 7d 71 3e 37 4d 1f be
       -0.12348481 0.10940015 0.23583001 -0.15556799
000070 0f 84 1f 3e e2 4e 94 bd 24 49 16 3d 7a cf 9c 3d
       0.1557772 -0.07241608 0.036690846 0.076567605
000080 60 fa d5 3c 03 35 01 bd d7 7c 68 3d 86 65 b5 3d
       0.026120365 -0.031544697 0.05675968 0.08857255
000090 18 f3 81 3b 71 35 a2 3c 0e ab 80 3d 1f 4a 2e bd
       0.0039657466 0.019800873 0.06282626 -0.042551156
0000a0 f7 3c 11 3e c4 76 36 3d e0 5a be 3d 5b 16 1d 3d
       0.14183412 0.044546857 0.09294677 0.038351398
0000b0 27 f6 46 bd 5c e4 1d bb a5 9c 8f bc 52 29 56 bd
       -0.048574593 -0.0024092412 -0.017530749 -0.0522855
0000c0 0f 23 04 3d bc b7 71 bd 8a 3d c3 bd 7b 2b a4 3d
       0.032259997 -0.059013113 -0.09533222 0.08016106
0000d0 15 d5 ca 3c e7 44 ef 3d 72 a9 b1 3c 90 80 05 3e
       0.024759809 0.11683064 0.021687243 0.13037324
0000e0 06 c0 47 3b e8 99 31 3c c9 1b 6b 3e ec b3 26 be
       0.0030479445 0.010839917 0.22959818 -0.16279572
0000f0 8c 33 e2 bd 2c ad 98 3d e7 e9 a8 3d f5 ce 06 3d
       -0.11044988 0.07454905 0.08247738 0.032912213
000100 1f a8 14 bd 03 80 aa bd 0d f7 a3 3d a4 81 8d bd
       -0.036293145 -0.083251975 0.080061056 -0.069094926
000110 1a e3 d0 3c b3 32 a6 3d cd f0 11 be 86 8c e9 bd
       0.025498915 0.08115139 -0.14252014 -0.11403756
000120 55 4c 91 3d b3 86 89 3d 2d b7 82 3d 45 34 ad 3d
       0.07094637 0.06715145 0.06382594 0.08457235
000130 3b 3b 87 3d 57 13 0a 3e 4f df fe bc 28 28 dc bc
       0.06603094 0.1348394 -0.031112341 -0.026874617
000140 b2 80 c2 bc c7 98 18 3d 3c 8b c2 bd 97 f8 97 3d
       -0.023743007 0.037255075 -0.09499213 0.074204616
000150 66 49 c5 3d e4 0e f4 bd d2 62 6d bd b3 96 e8 3d
       0.0963314 -0.11916903 -0.05795557 0.113568686
000160 bf c2 91 3d e8 e7 d5 3d 99 74 89 3d 5e 4d 87 3d
       0.07117223 0.10444623 0.06711692 0.066065535
000170 53 e6 8d bd 04 5a 5b bd 6d 47 46 be c5 b8 35 be
       -0.069286965 -0.053552642 -0.19363184 -0.17746265
000180 5f 75 16 3e 06 2d 98 3d e1 19 ea 3d 6e ea 3c 3c
       0.14693211 0.074304625 0.11430717 0.011530502
000190 f3 87 4a bd b8 0b 1d 3c f1 ba 7f 3d aa 15 6b bd
       -0.049446058 0.0095853135 0.06243414 -0.057393707
0001a0 3e c2 81 bd 50 50 11 be 6a 19 fc bc 5f 06 c7 bd
       -0.06335877 -0.14190793 -0.030773837 -0.09718012
0001b0 ca 6b 8f bd 56 0c 8c 3d d1 9d f6 3d a0 cf 82 bd
       -0.07002981 0.068382904 0.1204182 -0.063872576
0001c0 c8 0b 24 3c a2 a1 14 3d 2b a6 e1 bd ea d2 1e bd
       0.0100125745 0.036286958 -0.11018022 -0.038775362
0001d0 16 d6 a8 be af 92 c8 bc 73 21 ba bd 65 c9 cf bd
       -0.32975835 -0.024484007 -0.09088411 -0.10145835
0001e0 7a 1c 8f 3d 16 ca 9c bd 40 6d 92 3d 82 2e 2e 3d
       0.06987853 -0.07655732 0.07149744 0.042524822
0001f0 46 3c 60 bd d4 8c 91 bc d1 07 c2 3d 8f 92 9d 3c
       -0.05474498 -0.017767347 0.09474147 0.019234924
000200 dc 7f ab 3c d4 ce be 3d 08 6c cc 3d 92 ea 91 3c
       0.020934992 0.09316793 0.09981543 0.017812047
000210 10 6d 73 bd 05 c9 d4 3d ee 5c 5c 3a 9d b7 ac bd
       -0.059430182 0.10389904 0.00084061816 -0.08433459
000220 c0 ed 75 3d 69 28 af bd c0 22 17 bd 01 32 5e 3d
       0.06004119 -0.085526295 -0.036898375 0.054246906
000230 a6 94 27 3d cf 88 a6 bd 51 4e 07 ba e3 08 82 bd
       0.040913247 -0.08131563 -0.00051615114 -0.06349351
000240 8b 73 75 3c 0e 0b a7 3d 74 fb 10 3e ae 35 4e bd
       0.014981161 0.081564054 0.14158422 -0.05034416
000250 5d 4d d0 bd 2d 0b 93 bd 31 9a fd bb a6 df c9 3d
       -0.10171006 -0.07179866 -0.0077393283 0.09857111
000260 8f 82 b4 3d 5d a5 d2 bd d1 5c dd 39 71 56 84 3d
       0.088139646 -0.10285447 0.00042221558 0.064618
000270 cb 07 66 3d 6a de 86 3d 0c fd 42 3d 5f b3 a3 3d
       0.056159776 0.06585391 0.047604606 0.07993197
000280 83 3a 16 bd 69 22 c9 3d a5 a2 1b bb ed 65 a6 3d
       -0.036676895 0.09821016 -0.0023748067 0.081249095
000290 1f 66 20 bc 87 44 f1 bd 8c 4c 11 3d c4 e3 5d 3c
       -0.009789973 -0.11780649 0.03547339 0.013543073
0002a0 38 f4 c7 bd 86 70 de 3c 7b 86 a9 bd 47 cf 2e be
       -0.09763378 0.027153265 -0.08277603 -0.17071258
0002b0 45 00 06 3d 4c 74 06 be a3 1f 2e 3d 5b 14 29 3c
       0.0327151 -0.13130301 0.04251064 0.0103197945
0002c0 39 ad 61 3d 38 e9 68 bb a6 23 d8 3c 02 f5 ac bd
       0.05509684 -0.00355394 0.026384186 -0.08445169
0002d0 90 ca 3f be bd 8b f8 bc 72 5f 5e 3d 0d 0d 1b bd
       -0.18729615 -0.03034007 0.054290242 -0.037854243
0002e0 81 ee f7 3d a4 b9 ee 3c 99 08 93 bd b1 a7 3e 3d
       0.12106038 0.029141255 -0.07179374 0.04654664
0002f0 d7 b5 44 3d 06 fc 1b be ff 28 45 bd 88 bb 45 3d
       0.04802498 -0.15232858 -0.0481348 0.048274547
000300 82 51 36 3d cc fb 07 be 2c 5d 62 3d 1f 25 c3 3c
       0.044511326 -0.13279647 0.055264637 0.023821412
000310 30 ff 56 3d 0b 0d 75 3c fe 80 55 3d 43 75 e1 3d
       0.05248946 0.014956723 0.05212497 0.11008694
000320 aa 1a 3e bc 06 4b 80 3d 5b 01 c5 ba 3d 5e 1d bd
       -0.011603037 0.062643096 -0.0015030311 -0.03841995
000330 7b 29 3a 3d be 6c 0b bc 2b e2 c0 3d 4b b8 d4 bd
       0.045449715 -0.008509813 0.09418138 -0.103867136
000340 cf 26 78 bd 35 be 0e 3e 49 b9 02 bd 90 98 a3 bd
       -0.060583886 0.13939746 -0.031914983 -0.07988083
000350 18 29 16 bd d3 49 1b 3d be 65 dd 3d 4a 60 57 3d
       -0.036660284 0.0379122 0.108104214 0.052582063
000360 7c 6c e7 3d 61 c6 71 bd 6d 6a b9 3d 07 9e cc bc
       0.112999886 -0.05902708 0.09053502 -0.024977697
000370 89 1e 39 3e 09 46 52 3d 80 16 4b 3e 66 0d bf 3d
       0.18078054 0.051336322 0.19832802 0.093287274
000380 3c c3 c6 bc 3a bd d0 3c 7a 8e 6f 3d fb f7 8a 3c
       -0.024263017 0.025480855 0.058485486 0.01696395
000390 3d 8a e1 bc 49 c3 24 bc 05 32 9c 3d fe fb 87 39
       -0.027531737 -0.010056325 0.07626728 0.00025936955
0003a0 e2 08 9b bd e0 45 ab 3d ec e7 13 ba 18 2d ff 3c
       -0.07570054 0.08362937 -0.0005642164 0.031149432
0003b0 6c 70 58 3d 6d 54 7b 3c 36 a8 ee 3c c8 53 ac bd
       0.05284159 0.015339953 0.029132944 -0.084144175
0003c0 5f fb 95 3d 11 f8 9b bc 18 13 6f 3d 5f e5 09 be
       0.07323336 -0.019039186 0.05836782 -0.13466404
0003d0 a5 1e f1 3d 19 2c 28 bd b6 33 69 bd d8 7b 93 bd
       0.11773423 -0.04105768 -0.05693408 -0.07201356
0003e0 d4 1a 0c 3d a0 14 90 bd ca 2b 1e bd be b0 70 bd
       0.034205273 -0.07035184 -0.03861598 -0.058762304
0003f0 13 93 89 bd 82 16 05 be 47 79 b9 bc 9c 2f 44 bd
       -0.06717505 -0.12996867 -0.022640837 -0.047896966

distance_forces.model.4.bias f4 [128]
000000 ea 51 13 3d 50 8b 3a bc 4d 90 91 bc 0f fc c6 3b
       0.03596679 -0.011385754 -0.017769003 0.006072528
000010 3c 50 62 bd 4d 45 de bd 8b 62 cc 3c 0d 61 39 3d
       -0.0552523 -0.10853062 0.024949333 0.04525857
000020 47 d2 55 3d cf fb a1 bd 77 d7 a4 bc 07 48 6d 3d
       0.05220249 -0.07909357 -0.020122273 0.05793002
000030 e8 96 92 bd 1b 10 69 3d 66 42 a4 bd 6a 6d 72 3d
       -0.07157689 0.056900125 -0.08020477 0.059186377
000040 31 31 3e bd 10 82 11 bd a2 dd d1 bd 2c 76 41 bd
       -0.04643363 -0.035524428 -0.10247351 -0.047231838
000050 58 33 0e bd c5 7f 68 3d a2 f8 b4 3c 86 35 f8 bb
       -0.034716934 0.056762476 0.022091214 -0.00757474
000060 b0 f0 14 3d f7 d4 41 3d 8c 1a db 3c f2 84 e1 3d
       0.03636235 0.04732224 0.026746057 0.110116854
000070 fb 7d 58 bd 30 04 08 bd 4b e5 36 bd 4c d6 92 3d
       -0.05285452 -0.03320712 -0.044652265 0.0716978
000080 63 57 ff 3d 4d 1e 37 bd 51 24 12 3d 3b 0c f2 3c
       0.124678396 -0.04470663 0.035679165 0.029546848
000090 fb ad 16 3d 6f 2f 3d bd c2 61 19 3c 9c 91 5d bc
       0.036787014 -0.046187814 0.009361686 -0.0135234855
0000a0 32 48 a5 3d 54 a4 8a 3c 18 38 c2 3c f7 1a 84 bd
       0.08070411 0.01692406 0.023708388 -0.06450456
0000b0 72 5c a8 3d 88 b6 af bd 72 18 56 3d 46 f5 81 bc
       0.082207575 -0.08579737 0.052269407 -0.015864026
0000c0 f9 d1 9b bd 1d 44 8c 3d 8c c4 63 bd e2 20 b5 bd
       -0.076084085 0.06848929 -0.055607364 -0.088441625
0000d0 d9 12 b4 3d 68 72 ec 3c 17 ad c0 3d 12 b9 1b 3d
       0.087926574 0.028863147 0.09408014 0.038018294
0000e0 05 5d a0 bd f4 35 98 3d 6f b9 fe bd cc 10 87 bd
       -0.07830242 0.07432166 -0.124377124 -0.065950006
0000f0 c4 28 b4 bc 3e 04 99 bd 71 2f 4b 3c 6e 2b bd bd
       -0.021992095 -0.07471512 0.012401448 -0.09236799
000100 b2 5d bd 3c 46 ec 14 bd d2 23 9d 3d 04 4e 8c bd
       0.023115966 -0.03635814 0.07672848 -0.06850818
000110 b1 b8 88 3c 64 48 95 bc b5 4d a8 3d af 75 9f bd
       0.01668963 -0.018222995 0.082179464 -0.07786118
000120 f5 e6 38 bd 74 a8 32 bc 33 f4 62 3c 8e 0e 88 bc
       -0.045142133 -0.01090442 0.013852167 -0.016608503
000130 ef 73 1a bb 0d 28 52 3d 06 94 07 bc 2d 3e 90 3d
       -0.0023567637 0.051307727 -0.008275038 0.07043109
000140 a8 55 6e bc 2e ea 6b 3d 34 51 b7 3c 0b af c1 3d
       -0.014546789 0.057596378 0.022377588 0.09457215
000150 e2 ab 39 bd 05 9a 2e 3d b9 de 2f bc f9 b5 bf 3d
       -0.045329936 0.042627353 -0.010734254 0.093608804
000160 22 b5 07 bd a7 d3 27 bd 19 ea b3 bd 8e c0 ba bb
       -0.033131726 -0.04097333 -0.08784885 -0.005699224
000170 14 f7 8d bd 67 d5 00 3d 39 49 13 3d 2d 3f c3 bc
       -0.06931892 0.031453516 0.035958502 -0.023833835
000180 a8 2d 76 b9 09 94 5c bd b4 f2 b5 3d a4 08 36 bd
       -0.00023477396 -0.053852115 0.088841826 -0.044441834
000190 5c 97 a5 3d 6c 41 a1 3c 0b 2a e5 bc c5 1c 92 3d
       0.0808551 0.019684516 -0.02797415 0.071343936
0001a0 28 50 a4 bd 09 3c 09 3c 35 24 42 bd b7 e8 9e bd
       -0.08023101 0.00837613 -0.04739781 -0.077592306
0001b0 9d 82 c8 bc 5b e9 5b bd 00 2e 57 bd 2b 49 37 3b
       -0.024476344 -0.053689342 -0.052534103 0.0027967195
0001c0 d5 d9 5c bc ed a1 04 bd 18 7d bd bd 2e dd 7a 3d
       -0.01347967 -0.032380987 -0.09252375 0.06124609
0001d0 07 44 ca bd c3 db 3b 3d fb 44 cd bc 06 e3 67 bd
       -0.098762564 0.045863878 -0.025057307 -0.05661299
0001e0 f7 09 f4 bc f4 de b6 3d bd b8 08 3c 2c e5 9f 3d
       -0.029789908 0.08929244 0.008344826 0.07807383
0001f0 01 22 7b bd aa cc 80 bc b8 bb ee 3d 51 3d a8 bd
       -0.061311726 -0.015722591 0.11656898 -0.0821482

distance_forces.model.6.weight f4 [128, 128]
000000 ea 35 e6 3c 0c e7 4d 3c 4b 9b 92 3d df 1e 4a bd
       0.02810188 0.012567293 0.07158526 -0.049345847
000010 58 12 ba 3c d1 83 2f 3d e7 70 1a 3d 4e 6b 41 bc
       0.022713825 0.04285032 0.03770533 -0.011805369
000020 19 c6 34 3c f0 3b ab bd 2a 56 bc bd 90 8c 9c bd
       0.011033558 -0.083610415 -0.09196122 -0.07643998
000030 ab 5e b4 3d 12 34 14 bc cc 17 98 3c 70 06 95 bb
       0.08807119 -0.009045618 0.018566035 -0.0045478866
000040 a9 82 86 3d ac 9b cb bc c4 62 a2 bc 40 9c a8 3d
       0.0656789 -0.024854504 -0.019822486 0.08232927
000050 db 52 2e 3c bd b2 0a bc 67 ce b2 bc 5d e3 6d 3d
       0.0106398715 -0.008465466 -0.021826936 0.05807816
000060 b5 c2 17 3d 84 bc 49 3c 80 4c 78 3d 0d fb 69 3d
       0.03705092 0.012313012 0.06061983 0.057124186
000070 21 7e 75 bd 50 20 3a 3d e5 d1 2b 3d 56 d4 56 3d
       -0.05993474 0.04544097 0.041948218 0.052448593
000080 37 dc de bc 75 36 41 bd 97 1e c1 bd 95 dd 27 3a
       -0.027204616 -0.047171075 -0.09429663 0.0006403563
000090 8b 55 94 bd 1a c6 d9 3c f3 4f 25 3d 9e 7b a0 bd
       -0.072428785 0.02658372 0.04035945 -0.07836078
0000a0 8a d7 ac bd f3 a7 cb bd 37 c1 b1 3d 4e 7c 8f bd
       -0.08439548 -0.09944143 0.08679431 -0.07006131
0000b0 6e f9 8b bd d3 85 d7 3c f0 82 ac 3c d1 51 02 3c
       -0.06834684 0.02630893 0.02105853 0.007954077
0000c0 5a 47 80 bd a4 a3 16 3c 38 56 b4 bc ae 0e 80 bd
       -0.06263609 0.009194288 -0.022013769 -0.062528
0000d0 fd e5 57 3d 30 60 3b bd 4e 38 bd bd c4 3a 34 bd
       0.05270957 -0.04574603 -0.09239255 -0.044001356
0000e0 3b cb 23 3c 6f d5 b3 3c 7f 56 ac 3c 33 c9 a7 3c
       0.009997184 0.021952359 0.021037338 0.020481681
0000f0 54 0b 84 bc 85 34 75 3b 12 dd d7 bc b6 bb 69 3d
       -0.016118683 0.0037415337 -0.026350532 0.05706378
000100 e4 7d a0 bd 56 98 7a 3c 77 15 ed 3c db 02 98 bd
       -0.07836512 0.015295109 0.0289409 -0.0742242
000110 f7 c1 25 bd e0 fd 43 bd 53 c7 bd bd e7 f0 0a bd
       -0.040468182 -0.047849536 -0.09266534 -0.03392115
000120 37 dc bb bd ed 15 c0 bd 9c 33 a9 bd 70 76 65 bd
       -0.09172862 -0.09379182 -0.08261797 -0.056021154
000130 3a a6 96 bd b0 3c fc 3c 78 f1 d6 3c 5d 53 8b 38
       -0.07355924 0.030790657 0.026238188 6.643564e-05
000140 fd 8a 8a 3d b7 07 a6 bd df 0b 74 bd e5 84 77 3d
       0.06764791 -0.0810694 -0.059581634 0.060429472
000150 c2 88 7f 3b 66 e2 3e bd 34 ef 92 3c 2f 39 83 3d
       0.0038991426 -0.04660263 0.017936327 0.06407391
000160 ea 07 49 bd f5 3d 8c 3d 26 46 28 bd af f5 77 bd
       -0.049079813 0.06847755 -0.041082524 -0.060537037
000170 e2 a7 74 bd a3 31 a5 bd ee 94 8c bd 3f 20 b9 bc
       -0.059730418 -0.08066108 -0.068643436 -0.022598384
000180 cd ab b7 bd 9c 93 4f 3d f9 48 09 bd a0 e1 26 3d
       -0.08968315 0.05067788 -0.033516858 0.040742517
000190 ef 9b 10 bd 82 5e be bd e4 fe 2c 3d 34 c7 8f bd
       -0.03530496 -0.0929537 0.04223527 -0.07020417
0001a0 67 84 c2 bb 1a b8 f8 3c 69 7c 71 3d d3 da 67 bd
       -0.0059361937 0.030361224 0.058956537 -0.05660517
0001b0 79 df 0b bc f4 1d 84 bd 4d 34 b2 3d b6 5e 9f bc
       -0.008537167 -0.064510256 0.08701382 -0.019454341
0001c0 9c 76 be 3c f8 ae 40 b9 82 00 c6 3c 37 73 d2 bd
       0.023249917 -0.00018375728 0.024170164 -0.10275882
0001d0 9f b9 a5 bd 29 00 79 bc 85 32 cb 3c 59 cf d1 3c
       -0.08092045 -0.015197792 0.024804363 0.025611566
0001e0 78 19 26 bd 85 5f c4 bd 6f 25 c8 3c df 51 44 3c
       -0.040551633 -0.095885314 0.024431912 0.01198241
0001f0 39 e9 8d 3c f0 d2 19 3d a1 9c 6b bd 00 2d 8e 3d
       0.017323123 0.03755468 -0.05752242 0.06942177
000200 5a 94 10 3d d9 6f 35 bd 4a b5 57 bd 32 64 a2 bd
       0.03529773 -0.04429612 -0.052663125 -0.07929267
000210 19 2a 75 bd 4f 7f 57 3d 5c 33 1c bd 13 e6 24 bd
       -0.0598546 0.052611645 -0.038134918 -0.04025848
000220 fd 34 5a 3c 4f 81 b5 bc 60 7a b3 bd 28 98 b7 3d
       0.013318297 -0.022156386 -0.087635756 0.089645684
000230 36 45 97 bc ee 4a 81 3c 82 99 07 be cd 5c 27 3d
       -0.01846562 0.0157828 -0.13242152 0.040859986
000240 3b 24 10 bd bf 95 8e 3d 49 ba e6 bd 9c b6 f8 3b
       -0.035190802 0.069621556 -0.11266 0.007590128
000250 4a 56 90 bd db 6b 04 bd 85 11 1f 3d d0 67 89 3d
       -0.07047708 -0.03232942 0.038835067 0.06709254
000260 88 29 2b bd 7f f3 f1 bd 3b 8f 18 be da bf 85 3d
       -0.041787654 -0.11814021 -0.14898388 0.065307334
000270 4c 79 a0 bd c9 3e d1 bc ce 6f 90 3d 7d 5f 62 bc
       -0.078356355 -0.025542634 0.07052575 -0.0138167115
000280 56 6f 99 3d 53 51 27 bb 12 9f a8 bd 72 c6 9d 3c
       0.07491939 -0.002553065 -0.08233465 0.019259665
000290 0f e0 0d bd 6d 84 ef 3d b6 c8 f0 3d c0 27 7e bd
       -0.034637507 0.1169518 0.117570326 -0.062049627
0002a0 00 69 96 bc 00 44 c6 3d ca c8 35 3d e1 b4 09 be
       -0.018360615 0.09680939 0.04438094 -0.13447906
0002b0 5f aa d4 bd 9f 49 5e 3d 24 91 04 be 99 cb a2 bd
       -0.10384058 0.05426943 -0.12945992 -0.079489894
0002c0 4d 58 2b be ba 0c 2d bd 37 9c 50 bd 1f 37 19 3e
       -0.16732903 -0.042248465 -0.050930228 0.14962433
0002d0 31 ea 6d ba 00 02 d3 3d 7a 01 8e 3c da 1f be 3d
       -0.000907573 0.10303116 0.017334688 0.09283419
0002e0 b5 cf 24 bd 0d 8d 56 3c 09 85 a1 3d 15 2f 7e bd
       -0.040237147 0.013095153 0.078867026 -0.06205662
0002f0 27 c1 e5 bd 26 66 90 3c 0b 46 49 3d 9b 87 a3 3d
       -0.112184815 0.017626833 0.049139064 0.07984849
000300 13 72 96 bd 5e d2 02 3d 46 ee 8c 3d 01 95 bd bc
       -0.07345977 0.031938903 0.068813846 -0.02314234
000310 46 35 06 3d c0 ca fa bd 5c 2e a7 3d c8 f8 13 be
       0.03276565 -0.12245703 0.08163139 -0.14450371
000320 2e 8a f3 bd cb 75 c7 3d 19 b9 44 bd fd 45 11 bd
       -0.1189159 0.09739264 -0.048028085 -0.035467137
000330 ec a0 70 bd aa ef ac bc 7c 7c 82 3d 77 47 23 3d
       -0.058747217 -0.021110374 0.063714 0.039863076
000340 97 1c 11 3d 4f 81 bc 3d 7d 30 b5 bc f0 51 5b bd
       0.035427656 0.09204351 -0.022117848 -0.05354494
000350 31 5a 4a bd 4a f8 95 3d 30 09 64 bd a1 2e 40 bd
       -0.04940242 0.07322748 -0.055672824 -0.04691947
000360 4d 1a cc bc 10 8b b3 bc 1d ec 7c bd 4d 87 ed bd
       -0.024914885 -0.021916896 -0.061748613 -0.11598072
000370 90 1b 9c 3d 0e 5f f3 3a b8 b7 cd bc 15 44 09 3d
       0.07622445 0.0018567757 -0.025112018 0.033512194
000380 c8 8d 54 3b df 83 2f be 5d ea 99 3d df c3 91 3d
       0.003243314 -0.17140149 0.075154044 0.071174376
000390 8d 8e cc bd f7 10 f7 3b b7 96 09 3d cb 68 db bc
       -0.09988127 0.007539864 0.033591 -0.026783368
0003a0 27 4e 80 bd f5 dc 93 3c 58 18 4a bd 10 6e 0a 3c
       -0.062649064 0.018049696 -0.049339622 0.0084490925
0003b0 3a 82 24 bc 63 17 e1 bc 2e 40 65 bc 93 50 12 bb
       -0.010040814 -0.027476972 -0.013992352 -0.0022325858
0003c0 f7 49 98 3d d1 36 b3 bd a9 fb 90 bc 60 e5 23 3d
       0.07435983 -0.0875069 -0.017698126 0.04001367
0003d0 93 10 74 3c 77 69 ee 3c d1 48 a1 3d 1c 71 b8 bd
       0.01489653 0.029103024 0.07875217 -0.09005949
0003e0 a5 e2 39 3d 51 ea 99 bc 0b 8e 83 bc e0 4a 3f bd
       0.04538216 -0.018788489 -0.016058942 -0.046702266
0003f0 68 37 d1 bd 71 25 d8 bc 42 55 12 3c 2f 40 03 3e
       -0.10215646 -0.026385041 0.00893146 0.12817453

distance_forces.model.6.bias f4 [128]
000000 0d 9c 3d bd 75 88 8f 3d 69 74 53 bd 77 37 98 3d
       -0.0462914 0.07008449 -0.05162469 0.07432454
000010 35 57 8d bc 27 3b b1 3d 34 65 f7 3d 64 31 78 bd
       -0.017253498 0.086538605 0.1207985 -0.060593978
000020 77 f3 d2 3d 6f e4 86 bd 4f 24 b3 bd 69 81 1c bb
       0.103003435 -0.06586539 -0.0874716 -0.0023880845
000030 9a ec 13 3d 1d 99 a2 bb 79 bd 4e bd 42 42 80 bd
       0.036114313 -0.0049621 -0.050473664 -0.06262638
000040 cc 2a 3f bd 46 9f e9 3d 75 3d 50 3d 00 b4 9d bc
       -0.046671674 0.11407332 0.05083986 -0.01925087
000050 ea 4c 4e bd 7a 20 2f bc 34 53 21 bd 49 89 8b 3c
       -0.05036632 -0.010688895 -0.03938599 0.017033236
000060 b4 21 86 3d 02 e9 54 bd 89 a9 b5 bb ca f4 99 3c
       0.06549397 -0.051980026 -0.005543892 0.018793482
000070 76 67 37 bc 6b 33 84 bd 3a 5b a5 bd 61 38 f0 bc
       -0.011194101 -0.0645512 -0.08074041 -0.029323759
000080 16 81 bf 3d 02 9d 90 3d 3f e7 66 bd 0e 03 a2 3c
       0.09350793 0.07061197 -0.056372877 0.019776847
000090 55 2d 9f 3c 67 b6 75 3d 81 0c 9b 3c 99 d1 af bd
       0.019430796 0.059988406 0.01892686 -0.085848995
0000a0 3f 8a b4 3d 05 e9 9b 3d d7 55 dc 3c f5 bb 47 3d
       0.08815431 0.07612804 0.0268964 0.048763234
0000b0 13 10 69 bd 93 0d e9 3d 06 52 80 bd ff 09 f9 bc
       -0.056900095 0.11379542 -0.06265645 -0.030400274
0000c0 62 ef c5 3d 09 60 47 3c fc 93 ae bd 49 79 86 bd
       0.09664799 0.012168893 -0.085243195 -0.06566102
0000d0 65 7f 3b 3d bd a6 a3 bc f5 e0 64 3d 83 f1 5c 3d
       0.04577579 -0.019976968 0.0558786 0.05394126
0000e0 c3 8e f3 bb 6f c4 95 3d 2c 92 8a bd ba 74 a8 3d
       -0.00743279 0.07312857 -0.06766161 0.08225389
0000f0 59 0f af bd aa 6b 30 3d af bd 9b bd df 4a be 3d
       -0.08547849 0.043071426 -0.07604539 0.09291624
000100 a7 a1 ef 3c 5a 29 6e bc 0b 61 98 3d d8 01 63 3d
       0.029251887 -0.014536226 0.074403845 0.05542168
000110 af f8 49 bd bd 6d bf 3d f1 92 8b 3c ad ff a0 bd
       -0.04930943 0.09347103 0.01703784 -0.07861266
000120 f4 44 c4 bd 46 31 9a bc 7b c9 dd 3b 22 6a f9 bc
       -0.09583464 -0.018822324 0.006768403 -0.030446116
000130 1b d9 43 3c a7 23 42 3c 32 4d 73 3d f5 1d 98 3d
       0.011953617 0.0118493205 0.05939979 0.07427589
000140 24 af a2 bd fd a8 9a 3d b1 24 73 3d df 39 b0 3d
       -0.07943562 0.07551763 0.059361164 0.08604788
000150 6f 5b 2b bd be 20 63 bd fb 76 ae 3d 35 03 8c 3d
       -0.041835245 -0.055451147 0.085187875 0.06836549
000160 6b b8 a7 3b 92 76 80 bd 88 9d 26 3d 17 a9 aa 3d
       0.00511842 -0.062726155 0.040677577 0.083330326
000170 61 53 99 3b 37 3d 87 3c 9f ab 5d 3d eb f9 75 3d
       0.004679129 0.016508682 0.05411875 0.060052793
000180 36 0d ac ba 7c 0c cf 3d b5 a0 1c bd f0 46 96 bd
       -0.0013126496 0.10109803 -0.0382392 -0.07337749
000190 fd 2f fd bb 83 08 70 bb ea 57 1f bd ca 91 a8 bd
       -0.007726668 -0.0036626167 -0.0389022 -0.08230932
0001a0 a3 f5 e3 bc b9 61 4b 3d 66 19 89 3d ef 7a c2 3d
       -0.02782709 0.049653742 0.066942975 0.09496104
0001b0 54 0b 7b bd 63 df a7 bc a6 7a 87 bd 0d 8a 36 3d
       -0.0612901 -0.020492261 -0.0661519 0.04456525
0001c0 c2 c0 82 3c b9 2d 18 3e 6d 1b a2 bd 15 e9 5c 3d
       0.015961055 0.14861192 -0.07915387 0.05393322
0001d0 e9 89 e5 bc 3f 29 91 3d cc 27 21 bd c9 95 83 bd
       -0.028019862 0.07087945 -0.039344594 -0.064250536
0001e0 fb 1b 5a 3d 3b e8 b5 3d 2e 9f 9a bd 38 63 14 bd
       0.05324934 0.08882185 -0.07549892 -0.036227435
0001f0 bc 1a 4b 3d c4 91 8a 3c 70 7a 32 3d e6 c3 4c bd
       0.049586043 0.01691521 0.043573797 -0.04999151

distance_forces.model.8.weight f4 [128, 128]
000000 a1 f4 17 3d e9 83 11 3d cb 08 ba 3b 99 ed cd 3d
       0.03709853 0.03552619 0.0056773177 0.10055084
000010 f5 d1 06 3e a2 3c 96 3d 59 1c d4 3d 40 3b 4a bd
       0.1316603 0.073357835 0.103569694 -0.04937291
000020 62 2b 78 3d 5b 9a 7e bc 3f 6f 9e 3c 50 9b 3a 3d
       0.060588248 -0.015539731 0.019340156 0.045558274
000030 4a df 2b 3e bd c4 e1 3c 14 16 71 bd 06 db 55 3d
       0.16784397 0.027559632 -0.058858946 0.05221083
000040 c3 71 44 bd 9b 4d 51 3d 25 29 c7 3b f8 ca 6c 3d
       -0.047960054 0.0510994 0.006077903 0.057810754
000050 ae 03 48 bd 65 04 32 3d bf f4 46 bd f5 8a 0b 3d
       -0.048831634 0.043461222 -0.04857325 0.034068067
000060 cc 38 b3 3d 30 f6 52 3d e5 28 02 3d 3f 64 06 be
       0.087510675 0.051504314 0.03177728 -0.13124178
000070 fc 19 ed bc 6f 8f 87 bd 12 00 5e bc 9f 74 bf bc
       -0.028943054 -0.06619155 -0.013549821 -0.023371039
000080 ce db d3 3b 42 76 0d bd 39 a6 94 bd ab df 9f 3d
       0.0064654117 -0.034536608 -0.07258267 0.07806333
000090 16 e2 bf 3d be e5 e5 3c a1 48 28 3d 65 33 8d bb
       0.09369294 0.028063651 0.04108489 -0.004309105
0000a0 12 fa 5f bc 81 97 96 3d ff 89 1f 3e a9 c2 e7 bb
       -0.013670461 0.07353116 0.15579985 -0.007072766
0000b0 65 27 d8 3b 73 0a f3 bc fc 00 33 bd 47 bf aa 3d
       0.006596493 -0.029668069 -0.04370211 0.083372645
0000c0 58 10 24 3e 23 6c 66 3d a9 43 a4 bd 30 f4 e3 3d
       0.1602186 0.05625547 -0.08020718 0.111305594
0000d0 55 ba 01 bd df 5d 7d be 63 e7 56 3d a3 c8 83 3c
       -0.03167184 -0.2474284 0.05246676 0.016086882
0000e0 6d 51 c0 3c 1d d0 f3 bd 54 de 8f 3d a1 51 ce 3c
       0.023476327 -0.11904929 0.070248276 0.025185408
0000f0 8e 20 b0 3d 1d c0 af 3d 9c d3 7a bd 7c f6 cd bd
       0.08599959 0.085815646 -0.061236963 -0.10056779
000100 18 56 bb bd 49 96 2c 3d 42 fc 03 3e d7 f5 14 3d
       -0.091472805 0.04213551 0.12889197 0.036367264
000110 49 6f ce 3c 96 33 17 bd ab ce 0e 3d fc 54 b4 bd
       0.02519955 -0.03691443 0.034865063 -0.08805272
000120 75 0d 0f 3e 8e 1b 56 3d 2d dd 11 3d eb 9a 47 bd
       0.13969977 0.052272372 0.03561132 -0.048731726
000130 96 cd a9 3c 6e 9c fb 3b 93 6b c4 bc e5 a9 df bb
       0.020727914 0.00767856 -0.023977077 -0.006825673
000140 24 8b 28 3d 76 f2 f4 bc d8 ca 91 3c 03 b5 a2 bd
       0.04114832 -0.02990077 0.017796919 -0.079446815
000150 94 61 59 3d 90 df 10 3a d9 31 b4 3d 55 e1 fb 3d
       0.053071573 0.00055264775 0.0879857 0.12298838
000160 5f 19 07 3d 18 f9 37 bd 1b fa b6 3d 15 41 9e 3d
       0.03298318 -0.04491529 0.089344226 0.07727257
000170 c4 65 0c bd 7d 9f 75 bd 91 a0 2f 3d 2c 11 e0 bc
       -0.03427674 -0.059966553 0.042877737 -0.027351938
000180 7a 7c 8f 3d 21 ee a4 3d 22 0a e3 3d a2 fe 53 bd
       0.07006164 0.08053232 0.11085917 -0.05175651
000190 b7 b3 91 3d 86 09 1d 3e ad 4d 8a 3d 47 09 7b bd
       0.07114356 0.15335664 0.06753097 -0.061288144
0001a0 87 4d 6c 3c 2a e3 2a be 04 4f a0 3c 22 50 0f bd
       0.014422781 -0.16688219 0.019568928 -0.03498853
0001b0 53 2f 53 3c 7b ee ba bc 40 f0 96 3d 3a d9 1e bd
       0.012889701 -0.022818794 0.07370043 -0.038781382
0001c0 d4 85 b7 3d e3 c6 6e 3d b7 13 9d 3c dd 18 a0 bc
       0.089610726 0.058295142 0.01917444 -0.019543106
0001d0 f2 ea 91 bd 23 72 dc bd b4 a9 b7 bc b5 e6 9c bd
       -0.071248904 -0.10763957 -0.022419788 -0.076611914
0001e0 25 14 10 be a9 f0 0a 3d ec 54 b6 3c c6 6f a8 bd
       -0.14070185 0.033920918 0.02225729 -0.08224444
0001f0 0d 72 0e 3e a1 98 ba bd 49 eb 1d 3a 5e ce 04 3c
       0.13910694 -0.09111143 0.0006024135 0.008105842
000200 00 04 0b bb 39 1d 3d bc 48 28 aa 3d bd 93 64 3d
       -0.00212121 -0.011542612 0.08308464 0.055804957
000210 b7 d2 41 bc 8e ec de 3d 50 81 d2 3d 27 dd 59 bd
       -0.0118300235 0.10884963 0.10278571 -0.053189423
000220 03 60 89 3d fe cc 7c bd 83 56 2a 3d 22 e5 c9 bb
       0.06707766 -0.061718933 0.04158641 -0.006161348
000230 ea c7 11 3e 87 a0 25 bd de 60 90 bc 45 6f ca bb
       0.14236417 -0.040436294 -0.017624315 -0.006177815
000240 64 9c 95 3c f6 f0 cd 3d a5 61 47 bc 77 15 60 bd
       0.01826305 0.10055725 -0.012169276 -0.05470797
000250 7d 35 8b bb 96 d1 94 3c 4d 60 80 bb 80 e8 49 3d
       -0.0042483197 0.018166345 -0.00391773 0.049293995
000260 e7 89 1b 3e 49 96 11 3e 54 a4 69 bd 8d 6a 0a be
       0.15189324 0.14217485 -0.05704148 -0.13517208
000270 d2 cd 0d be 78 a9 1a bc cd 47 92 3c f2 93 9d bd
       -0.13848045 -0.009439819 0.017856503 -0.07694234
000280 1c 0c b4 3d ee e8 bc bd 3a b9 84 bc 04 98 95 3d
       0.08791372 -0.09224115 -0.016201604 0.07304385
000290 af 83 aa 3d 4b 57 2a bd c1 b5 de 3d 1b f6 15 3c
       0.08325898 -0.041587155 0.108745106 0.009152914
0002a0 a3 0b 41 bd 6d d4 e7 3c da 84 1d 3e 83 d7 6d 3d
       -0.04713024 0.028299535 0.1538271 0.058066856
0002b0 0d a8 9b bd 11 78 b0 bc 9f cd 31 3d 75 d5 5f 3d
       -0.076004125 -0.021541627 0.043408986 0.054646928
0002c0 7f 7a 02 3e a5 9d b1 bc a7 f8 20 3d 2f b3 67 bd
       0.12742041 -0.021681616 0.039299633 -0.056567367
0002d0 ce fc b1 bd 34 fe f8 3c 7a 03 06 3e 62 2f 7f 3d
       -0.08690797 0.030394651 0.13087264 0.062301047
0002e0 11 2b 87 3d 97 59 d6 bc db b9 87 3c 01 42 c0 3d
       0.06600011 -0.026165767 0.016568115 0.09387589
0002f0 66 6a 36 3d 89 da b5 3d d8 ae 8b bd af 87 d7 3c
       0.044535063 0.08879573 -0.06820458 0.026309816
000300 24 48 64 3d 8d 20 0e bd ff 5e 91 3d 4e 03 00 3d
       0.05573286 -0.03469901 0.07098197 0.03125315
000310 5b 9e 66 3c 42 c2 fa bd ef 50 97 3d c1 12 9a 3d
       0.014075841 -0.12244083 0.07388484 0.07523108
000320 7c bd 19 3e b3 58 04 be 59 e7 be 3c 16 31 81 bd
       0.15013689 -0.12924461 0.023303675 -0.063081905
000330 a8 26 07 3d da e4 7b 3d 6a 6b e8 3c 98 95 75 3b
       0.03299585 0.061497547 0.028371532 0.0037473198
000340 06 a7 d5 3c 28 f3 b2 bd f9 a2 98 3d 6a 5a 4a 3d
       0.02608062 -0.087377846 0.074529596 0.04940263
000350 63 43 87 bd 08 cd bb bd 5f 6f 98 3d 19 02 84 3c
       -0.0660465 -0.09169966 0.07443117 0.016114281
000360 2b 67 ed b9 b2 e3 b5 bd 37 45 f7 39 bd e4 a5 3d
       -0.0004528103 -0.0888132 0.0004716308 0.08100269
000370 fe db 00 be dc ce ce bd 52 44 8e 3b bf f6 8e 3d
       -0.1258392 -0.10098049 0.0043416405 0.06980657
000380 d3 07 8f 3c 21 5c 4c 3d 21 b1 cd 3d 1a f7 ab 3c
       0.017459786 0.04989255 0.1004355 0.02099185
000390 8c 43 b5 3a 66 f5 2a 3e 8b 23 4a 3d f1 18 77 bd
       0.0013829335 0.16695175 0.049350303 -0.06032652
0003a0 a8 99 da 3d 7d fa 8f bd 8e 69 17 3c 9a 9d 9f 3c
       0.10673839 -0.07030199 0.009241475 0.01948433
0003b0 ff 79 bc bc b9 27 93 3c 01 05 27 bc 92 2c 06 be
       -0.023007391 0.017963277 -0.010194064 -0.1310294
0003c0 6f c9 b3 3d ea 87 8c 3d 77 d1 69 bb 33 0c ec bc
       0.08778655 0.06861861 -0.003567783 -0.02881441
0003d0 02 d9 de bd fb 2d f3 3c 4d 8d f4 bc 51 3e 6d 3a
       -0.10881235 0.029685011 -0.029852534 0.00090501184
0003e0 99 28 79 3b 25 0e 81 3c cd 5a 9e bd e0 8b b3 bd
       0.0038018583 0.015753815 -0.077321626 -0.087669134
0003f0 2a 66 a9 3c bc 0d 15 bd 13 a0 0b bd 80 6f 90 bd
       0.020678598 -0.03639005 -0.034088206 -0.07052517
